chains/ch143_217_353_TE_B50.npz (npz, 897880 bytes, 3 tensors)

chain f8 [16000, 5]
00000000: 0989 9ca4 c780 bd3f 5ac8 b21e 0a39 f83f
00000010: d710 099d dd69 03c0 a15e 8efe 67b5 ef3f
00000020: 74d6 62dd cf27 ef3f c08c 326b 2fb4 bb3f
00000030: d35f 7b1d be9b f73f 8cf6 e891 763f 03c0
00000040: 4d57 d36a 35a7 ef3f 5c64 69f8 e061 ef3f
00000050: 6da2 cb6a 3e8d c03f 6105 f9e3 f0cd f73f
00000060: f921 e3a1 3cdc 03c0 1e96 421e dbce ee3f
00000070: fa33 630e 8782 ee3f 833f 0ab8 a566 c43f
00000080: b1da ab81 bacf f73f e841 08d4 f6e1 03c0
00000090: 3cf9 23c0 989e ee3f d15d 0655 7394 ef3f
000000a0: 16ea 389e d814 c63f cba6 915e 0b1b f73f
000000b0: add3 0b16 5d0f 04c0 e115 32b9 8027 ef3f
000000c0: 635d e698 56ef ef3f 5579 1fc2 3030 c53f
000000d0: 79f1 ab0e 9f97 f73f 3860 523b 4444 04c0
000000e0: fa72 d092 ddfb ee3f e0da 6b5e 27d2 ef3f
000000f0: 97af 3adf 4f30 c43f afae ace6 347d f73f
00000100: a7ee 9ac2 4e4e 04c0 4a7e 22c2 fee5 ee3f
00000110: e847 6fc2 98ca ef3f c22a b5a2 458e c43f
00000120: bd71 663b 5345 f73f cf85 d026 41c2 03c0
00000130: a9ac 5677 eb64 ee3f e2ff dcb1 68da ef3f
00000140: 7e2c 02e9 ae74 c13f 7c18 5fc7 bba4 f73f
00000150: f647 d05c 3d5e 03c0 6394 148c d127 ee3f
00000160: 37f9 ca02 56a7 ef3f 2da5 9ddc 5662 c23f
00000170: 6a9a 3511 b26f f83f d195 6473 d67e 03c0
00000180: 1799 b98b eeb1 ee3f 68e7 2ba9 a2c6 ef3f
00000190: e830 80c9 98be c33f 59da e819 a3fc f73f
000001a0: ec13 70bf 64ca 03c0 8f0c f5db 5de4 ee3f
000001b0: 25b0 7d41 cdcf ee3f f2a1 0df7 aa52 c53f
000001c0: 7570 ac59 262c f83f e045 aed2 a3d7 03c0
000001d0: ed32 1bcc d42b ef3f d1df 53ec f37f ee3f
000001e0: 1f50 db4c 8c65 c13f 4a9b 44a7 afce f83f
000001f0: da94 101f d2b2 03c0 2da9 f883 092a ef3f
00000200: ef14 a02c 3e73 ef3f ea27 c058 e6a6 c03f
00000210: c732 a423 436f f83f 7026 bad4 714b 03c0
00000220: b2c3 d511 772a ef3f 5d50 f293 1344 ef3f
00000230: f88d 23bc 68f1 ba3f db69 54eb ccf9 f83f
00000240: 8b8c e939 99aa 03c0 4c9b 6fb1 dd6c ef3f
00000250: 7f8e e1bb 9b4b ef3f cdbb bdfb d7b0 b53f
00000260: 204d f7dd 864d f93f 251a fba2 708f 03c0
00000270: 78fd 11e2 0ca6 ef3f 6cb9 a15a d064 ef3f
00000280: 70be 887c c216 b63f d23d 50c8 b8f8 f83f
00000290: 10b6 3f14 c232 03c0 2008 2619 53dd ef3f
000002a0: d536 4e7f 4dec ef3f 8b7a ec18 2afe b53f
000002b0: f973 e11f bee4 f83f 658b 18e7 5a0d 03c0
000002c0: c22e 28fb e04e ef3f 6055 feb2 299e ef3f
000002d0: a293 381a 01a7 bc3f 3337 85b0 3bfa f73f
000002e0: f2c3 efbc 85e9 02c0 7f95 9053 1d29 ef3f
000002f0: 8859 2cdc 0b01 f03f ca58 46cb 7df5 bd3f
00000300: f795 2e12 aa94 f73f 859d 4a57 2902 03c0
00000310: 61b6 d844 dcc3 ee3f 4184 fd4f 1d0f f03f
00000320: 5378 23fe c8a3 be3f b378 6ed5 bfff f73f
00000330: eb9b 0d45 b064 03c0 ee3f 72ed eac3 ee3f
00000340: 6deb ff8b 9f38 f03f 619b bc99 139d bf3f
00000350: beae 3802 4ae8 f73f d359 25fb a466 03c0
00000360: 6923 b47a 3efa ee3f 1a6e 7840 e8cc ef3f
00000370: e4b6 7321 ef6a ba3f d76c aae8 3432 f83f
00000380: 03b4 8a86 95e5 02c0 6944 266c ed3b ef3f
00000390: b0e5 a364 2ce5 ee3f 537b 4789 9971 ba3f
000003a0: f746 e0cf c73c f83f 8bf1 740c 82b9 02c0
000003b0: eb6a 0490 a94c ef3f 6e98 5daa d167 ef3f
000003c0: f470 0eb3 2453 b93f fad5 fbb9 399c f73f
000003d0: ec8f c9ef b691 02c0 0cf9 f5d5 6e63 ef3f
000003e0: 839f c713 acfc ef3f b258 b63b c026 b73f
000003f0: 1381 d5c3 f9a7 f83f 713e eae2 b3e7 02c0
00000400: 0b7b a1f9 add9 ee3f 68df 0b3f 1596 ef3f
00000410: d449 d16f 0ad3 bb3f 8307 31af a489 f83f
00000420: d5eb ba86 38f0 02c0 1ddc 1c22 6548 ef3f
00000430: 319e 7544 f15c ef3f 12a7 582c 6286 c23f
00000440: 4836 4cf2 88d0 f73f 5669 fb10 5a0e 03c0
00000450: 58cc bdb8 636b ef3f 6d6b 7ce5 df5a ef3f
00000460: 864b eb2f 8a93 c63f c309 06eb c341 f73f
00000470: 92dd 4771 ea1e 03c0 b28d 6924 1215 ef3f
00000480: b449 4a6b f259 ef3f dc6c fef4 0740 c73f
00000490: 5bd7 a4ae 02d1 f63f 47e8 8a15 3447 03c0
000004a0: 6a9a aa6c f5b2 ef3f 508e f386 0c18 ef3f
000004b0: 5bf3 3110 9d88 c63f a9fb 1c53 a91d f83f
000004c0: 8171 9131 c81a 03c0 58da e81d 3d69 ef3f
000004d0: 6ead 93e3 345a ee3f ae69 c780 0a2a c83f
000004e0: 7feb 4912 743b f83f 3f85 2d9d 6637 03c0
000004f0: 580e c0cf 6d8c ef3f b509 9694 f211 ee3f
00000500: b8a6 8efd d55b ca3f d987 ef89 fe1f f83f
00000510: 4a3d 15ab e08a 03c0 c580 cf41 a7c9 ef3f
00000520: 96d2 03e8 66a6 ee3f 9a59 ab82 0d80 cd3f
00000530: 32b9 1ecd 11b8 f73f 4c1b 541b dd97 03c0
00000540: 96e3 eac0 3b9b ef3f 7916 a535 8e7d ee3f
00000550: 31dd 2786 75a9 cc3f 64ab 6427 fe72 f73f
00000560: 0d07 63e1 aab3 03c0 1170 baa3 88b4 ef3f
00000570: 23d0 529a f691 ee3f 5ea1 2073 8e1a cc3f
00000580: 65e2 77d5 2aeb f73f 3075 4514 6669 03c0
00000590: ea68 de06 6bbd ef3f 7d19 d235 27a8 ee3f
000005a0: bf1f 366b d2be cb3f 368f 556a a59a f73f
000005b0: 0957 3470 1b38 03c0 df48 7523 b49c ef3f
000005c0: 0bea 9869 fd75 ef3f a2e7 7ccb 6d76 c63f
000005d0: be5f e49e ec4b f83f aae3 b1f7 c153 03c0
000005e0: 2b6f 86a7 5539 ef3f e6f9 ad30 3c1e f03f
000005f0: 3d9f cea6 29ec c53f 1a0c f7d1 552e f73f
00000600: 1589 c1ce 9d45 03c0 1565 fb6e f6ad ef3f
00000610: 6a09 8ae6 cb39 f03f ac16 21ae 357f c33f
00000620: d6a8 be31 4cb8 f73f de9c 08b5 4034 03c0
00000630: 831f defe bd6a ef3f 2715 c949 7c66 f03f
00000640: 5e6b 5468 c29d c03f 48df 987a 4aa5 f83f
00000650: e03d 4ad1 74ab 03c0 34cc bab6 a847 ef3f
00000660: d9d0 83da b334 f03f a55e b318 f452 c13f
00000670: 79e3 c760 e4ba f83f 851f 7f43 ce02 04c0
00000680: b427 6b15 2b1b ef3f 0985 3dfc e5f7 ef3f
00000690: 42a1 341a 5045 c03f 963c a44c 6510 f83f
000006a0: ed80 6f00 ab7a 03c0 85d7 d11f 93ea ee3f
000006b0: 34c2 797b b6fb ef3f 43a3 9f9e f0e0 c03f
000006c0: 6235 1db4 7b61 f83f e8cb a153 2074 03c0
000006d0: aa3c f10b a044 ef3f 1c62 96e2 8b6d ef3f
000006e0: 4658 62bc f806 c43f 1194 9799 05fc f73f
000006f0: ead7 aced fbb2 03c0 48fc 7fc9 0b96 ef3f
00000700: d07d f522 90bf ee3f 9221 7d3a 3788 c23f
00000710: c52c 9e37 9072 f73f 1c96 36ff 1cdd 03c0
00000720: 18e7 6a8a 7370 ef3f 33c6 843d d9eb ee3f
00000730: 8689 fcbc 42e0 bb3f 3294 eb43 7f1d f83f
00000740: d0ff 9416 3361 03c0 68b9 60e8 d5fa ee3f
00000750: 7913 200d 0600 ef3f 08ac ab9e bce2 b83f
00000760: 47b9 d448 d58b f83f cf06 03cb 3650 03c0
00000770: 5272 aea3 8a03 ef3f 4ba3 9262 a379 ef3f
00000780: 1ebb c91c 7959 b73f 312f 61b5 9978 f83f
00000790: b027 1d62 9194 03c0 5e29 1da0 6a62 ef3f
000007a0: 9b8a 3665 3c18 f03f 4ef9 8052 bc5f b93f
000007b0: 1a87 be19 3c0f f83f 3694 3144 d96f 03c0
000007c0: 9c0b b073 b512 ef3f 21ff b636 0a89 ef3f
000007d0: 1fcd 4457 1322 c03f e4f2 b3bd 15ac f73f
000007e0: 04a6 2287 4c89 03c0 4f9b 1334 6cc6 ee3f
000007f0: 7f64 ffd7 154f ef3f 38f6 c3b7 380a c13f
0.11524627465090388 1.5139256667285026 -2.4266922253028542 0.9908943149375383 0.973609859842965 0.1082181584084081 1.4755231048238684 -2.4059878730029762
0.9891612135349789 0.9806980945387624 0.12931041922208256 1.487778559225568 -2.4825375220718766 0.9627509680764808 0.9534335404401866 0.15938254820184392
1.4882149758611087 -2.4853340687770817 0.9568599465126577 0.9868714008943532 0.17251117444705305 1.4441026395892773 -2.5075017664298316 0.9735721222975223
0.9979660974812926 0.16553315619143896 1.4745169232474764 -2.5333332666887394 0.9682453029123217 0.9944035381475622 0.1577243652330906 1.4680680285190808
-2.5382361606151167 0.9655755798048145 0.9934810445358808 0.16059179730139844 1.45442507937615 -2.4698508293520045 0.9498193102675901 0.9954112504856278
0.1363733899819159 1.477718142313761 -2.4210154772817942 0.9423606620736219 0.9891767553852223 0.14362607738738956 1.5272694275132843 -2.4369324698516057
0.9592201928142313 0.9929974846011023 0.1542540534868586 1.4991789829342876 -2.473824973686069 0.9653767868079671 0.9628664282913674 0.16658532202860915
1.5107787611841819 -2.480292936271084 0.9741004930925478 0.9531192413114643 0.13591150048034792 1.5504604848772083 -2.462314837163473 0.9738814904751841
0.9828177329624433 0.13009337743306953 1.5271636383287601 -2.4118382090862767 0.9739337299671347 0.9770601167279086 0.10524611085161684 1.560986441857145
-2.4583000683210847 0.9820393052621994 0.9779795331528048 0.08472967048667997 1.5814274473712615 -2.4450390560989654 0.9890198150095975 0.9810563821936689
0.08628478565582909 1.5607230972999457 -2.399784239000617 0.9957671633894769 0.9975955473361987 0.08590949161996712 1.5558453793848896 -2.3815210394254103
0.9783787637147372 0.9880569930998426 0.11192328348313521 1.498592080624303 -2.364024616305408 0.9737688667416221 1.0002554512517197 0.11702715122951016
1.473795004866927 -2.3760554141660486 0.9614087433489652 1.0036900639172617 0.11968666271738586 1.4999388062638388 -2.424164332845512 0.9614157331106961
1.0138240307557809 0.12349054816568873 1.4942112051748349 -2.4251193638585646 0.9680473705821956 0.9937630900562369 0.10319418493937921 1.5122574890618148
-2.3621016036108826 0.976065360288101 0.9654752698544851 0.10329589463752357 1.5148389930877195 -2.3405800793827374 0.9781081974827804 0.9814232184842362
0.09892491694921884 1.4756409897794343 -2.3211497052561665 0.9808878115580071 0.9995937715839179 0.090435041979023 1.5410096788182883 -2.3631360748038834
0.9640722156144376 0.9870706778883518 0.10868897657318338 1.5336043208521637 -2.367295315341361 0.9775872865928964 0.9800955140207802 0.1447260586294808
1.4884118523363146 -2.3820077254032794 0.9818590744238334 0.9798430902622904 0.17637755718041265 1.4535559826477857 -2.390095601087247 0.9713221274545758
0.9797298522483318 0.18164157354917776 1.4260279485729004 -2.4097673113838343 0.9905955431357374 0.9716856609124509 0.1760441140248997 1.5072415587053263
-2.388077151537971 0.9815965255900876 0.9485115475521704 0.18878299034152007 1.5145149912266047 -2.4020511893765213 0.9858922059651816 0.9396908666679368
0.2059276092598361 1.5078111065017679 -2.4428113332611803 0.9933658871996377 0.9578127414266244 0.23047036056841536 1.4824388515949747 -2.4491521964113527
0.9876993911667451 0.9528265998603295 0.2239214806611272 1.4655744112776228 -2.4627282722802932 0.9907878110711882 0.9553177847033151 0.2195604383607685
1.4949138964276696 -2.426464231843646 0.9918723234325431 0.9580265093980384 0.2167609237187644 1.475255408638032 -2.4023960844014067 0.987878865484415
0.9831530630538635 0.1754891627877529 1.518536205932818 -2.4158973075068007 0.9757488510108251 1.0073816205546051 0.17126961369398855 1.4488123132475779
-2.4089924004375782 0.9899856727235227 1.0141104703366985 0.15231963159947293 1.4824945395617326 -2.4005140441182524 0.9817800500759265 1.0250208742375635
0.12981443495012973 1.5403542317344137 -2.458718905523469 0.9774974411906272 1.0128668342340943 0.13534403997504288 1.5456279545307707 -2.501369979207029
0.9720664423305068 0.9990110327309206 0.1271152618367158 1.5040028566179777 -2.4348964723613933 0.9661346074560561 0.9994766627915568 0.13186462159435494
1.5237996135432117 -2.4317022832633377 0.9771270974396391 0.982122366479476 0.1564627570957688 1.4990287780467535 -2.462394577824843 0.9870661674066321
0.9608841593544017 0.14478197437189216 1.4654695675442764 -2.4829654634984433 0.9824769690960435 0.9662901116882437 0.10889069665839743 1.5072014477857576
-2.422460724279496 0.9681195772771334 0.9687528854707202 0.09720972894471924 1.5341389508208338 -2.4141670093821186 0.9691823193457572 0.9835984158754426
0.09120900109131155 1.5294434628621725 -2.4475429215571793 0.9807637335991719 1.0059169725069868 0.09911705984356908 1.5037194257387854 -2.4296136214857382
0.9710337886357254 0.9854785030983956 0.1260399032704322 1.4795129213591105 -2.4420404965828784 0.961721517288291 0.9784039705947548 0.13312443707393284

weight f8 [16000]
00000000: 0000 0000 0000 0040 0000 0000 0000 f03f
00000010: 0000 0000 0000 0040 0000 0000 0000 f03f
00000020: 0000 0000 0000 0840 0000 0000 0000 f03f
00000030: 0000 0000 0000 1040 0000 0000 0000 0040
00000040: 0000 0000 0000 f03f 0000 0000 0000 0040
00000050: 0000 0000 0000 0040 0000 0000 0000 0840
00000060: 0000 0000 0000 0040 0000 0000 0000 2440
00000070: 0000 0000 0000 f03f 0000 0000 0000 1040
00000080: 0000 0000 0000 0040 0000 0000 0000 2240
00000090: 0000 0000 0000 0840 0000 0000 0000 f03f
000000a0: 0000 0000 0000 0040 0000 0000 0000 3040
000000b0: 0000 0000 0000 1440 0000 0000 0000 0040
000000c0: 0000 0000 0000 0040 0000 0000 0000 f03f
000000d0: 0000 0000 0000 0840 0000 0000 0000 f03f
000000e0: 0000 0000 0000 1c40 0000 0000 0000 1840
000000f0: 0000 0000 0000 f03f 0000 0000 0000 1040
00000100: 0000 0000 0000 1440 0000 0000 0000 2040
00000110: 0000 0000 0000 f03f 0000 0000 0000 f03f
00000120: 0000 0000 0000 f03f 0000 0000 0000 1440
00000130: 0000 0000 0000 1040 0000 0000 0000 f03f
00000140: 0000 0000 0000 f03f 0000 0000 0000 f03f
00000150: 0000 0000 0000 1c40 0000 0000 0000 2e40
00000160: 0000 0000 0000 0840 0000 0000 0000 f03f
00000170: 0000 0000 0000 0040 0000 0000 0000 f03f
00000180: 0000 0000 0000 0040 0000 0000 0000 1440
00000190: 0000 0000 0000 0040 0000 0000 0000 2240
000001a0: 0000 0000 0000 2040 0000 0000 0000 0840
000001b0: 0000 0000 0000 0840 0000 0000 0000 1c40
000001c0: 0000 0000 0000 f03f 0000 0000 0000 0040
000001d0: 0000 0000 0000 f03f 0000 0000 0000 f03f
000001e0: 0000 0000 0000 1840 0000 0000 0000 1040
000001f0: 0000 0000 0000 1040 0000 0000 0000 1040
00000200: 0000 0000 0000 0840 0000 0000 0000 1440
00000210: 0000 0000 0000 f03f 0000 0000 0000 0040
00000220: 0000 0000 0000 1040 0000 0000 0000 0040
00000230: 0000 0000 0000 f03f 0000 0000 0000 0840
00000240: 0000 0000 0000 f03f 0000 0000 0000 f03f
00000250: 0000 0000 0000 0840 0000 0000 0000 0040
00000260: 0000 0000 0000 0040 0000 0000 0000 0040
00000270: 0000 0000 0000 f03f 0000 0000 0000 0840
00000280: 0000 0000 0000 1840 0000 0000 0000 1c40
00000290: 0000 0000 0000 0840 0000 0000 0000 f03f
000002a0: 0000 0000 0000 0040 0000 0000 0000 f03f
000002b0: 0000 0000 0000 f03f 0000 0000 0000 f03f
000002c0: 0000 0000 0000 0040 0000 0000 0000 0040
000002d0: 0000 0000 0000 0840 0000 0000 0000 0040
000002e0: 0000 0000 0000 0040 0000 0000 0000 f03f
000002f0: 0000 0000 0000 2240 0000 0000 0000 2040
00000300: 0000 0000 0000 0840 0000 0000 0000 0040
00000310: 0000 0000 0000 1040 0000 0000 0000 f03f
00000320: 0000 0000 0000 1040 0000 0000 0000 1440
00000330: 0000 0000 0000 1440 0000 0000 0000 1040
00000340: 0000 0000 0000 1c40 0000 0000 0000 2040
00000350: 0000 0000 0000 f03f 0000 0000 0000 f03f
00000360: 0000 0000 0000 f03f 0000 0000 0000 0040
00000370: 0000 0000 0000 f03f 0000 0000 0000 1c40
00000380: 0000 0000 0000 0040 0000 0000 0000 0040
00000390: 0000 0000 0000 0040 0000 0000 0000 f03f
000003a0: 0000 0000 0000 1040 0000 0000 0000 0040
000003b0: 0000 0000 0000 0040 0000 0000 0000 0040
000003c0: 0000 0000 0000 1840 0000 0000 0000 f03f
000003d0: 0000 0000 0000 f03f 0000 0000 0000 f03f
000003e0: 0000 0000 0000 0040 0000 0000 0000 0040
000003f0: 0000 0000 0000 1040 0000 0000 0000 0040
00000400: 0000 0000 0000 0040 0000 0000 0000 0040
00000410: 0000 0000 0000 f03f 0000 0000 0000 1c40
00000420: 0000 0000 0000 1840 0000 0000 0000 1440
00000430: 0000 0000 0000 f03f 0000 0000 0000 0040
00000440: 0000 0000 0000 0040 0000 0000 0000 0040
00000450: 0000 0000 0000 f03f 0000 0000 0000 0840
00000460: 0000 0000 0000 f03f 0000 0000 0000 1840
00000470: 0000 0000 0000 0840 0000 0000 0000 1840
00000480: 0000 0000 0000 f03f 0000 0000 0000 f03f
00000490: 0000 0000 0000 0040 0000 0000 0000 0840
000004a0: 0000 0000 0000 0040 0000 0000 0000 0840
000004b0: 0000 0000 0000 0840 0000 0000 0000 0040
000004c0: 0000 0000 0000 0040 0000 0000 0000 f03f
000004d0: 0000 0000 0000 1c40 0000 0000 0000 0040
000004e0: 0000 0000 0000 0040 0000 0000 0000 0840
000004f0: 0000 0000 0000 f03f 0000 0000 0000 0840
00000500: 0000 0000 0000 f03f 0000 0000 0000 f03f
00000510: 0000 0000 0000 0840 0000 0000 0000 f03f
00000520: 0000 0000 0000 2240 0000 0000 0000 1440
00000530: 0000 0000 0000 1040 0000 0000 0000 0840
00000540: 0000 0000 0000 f03f 0000 0000 0000 0040
00000550: 0000 0000 0000 1840 0000 0000 0000 f03f
00000560: 0000 0000 0000 f03f 0000 0000 0000 f03f
00000570: 0000 0000 0000 f03f 0000 0000 0000 1c40
00000580: 0000 0000 0000 0040 0000 0000 0000 0040
00000590: 0000 0000 0000 0040 0000 0000 0000 0040
000005a0: 0000 0000 0000 0840 0000 0000 0000 0040
000005b0: 0000 0000 0000 0840 0000 0000 0000 f03f
000005c0: 0000 0000 0000 1440 0000 0000 0000 0040
000005d0: 0000 0000 0000 0040 0000 0000 0000 f03f
000005e0: 0000 0000 0000 f03f 0000 0000 0000 f03f
000005f0: 0000 0000 0000 0040 0000 0000 0000 f03f
00000600: 0000 0000 0000 0040 0000 0000 0000 1440
00000610: 0000 0000 0000 f03f 0000 0000 0000 2040
00000620: 0000 0000 0000 0840 0000 0000 0000 0040
00000630: 0000 0000 0000 f03f 0000 0000 0000 1440
00000640: 0000 0000 0000 f03f 0000 0000 0000 0840
00000650: 0000 0000 0000 0040 0000 0000 0000 f03f
00000660: 0000 0000 0000 1040 0000 0000 0000 0040
00000670: 0000 0000 0000 0840 0000 0000 0000 f03f
00000680: 0000 0000 0000 0840 0000 0000 0000 1040
00000690: 0000 0000 0000 f03f 0000 0000 0000 0040
000006a0: 0000 0000 0000 f03f 0000 0000 0000 f03f
000006b0: 0000 0000 0000 f03f 0000 0000 0000 f03f
000006c0: 0000 0000 0000 f03f 0000 0000 0000 0840
000006d0: 0000 0000 0000 f03f 0000 0000 0000 f03f
000006e0: 0000 0000 0000 1040 0000 0000 0000 0840
000006f0: 0000 0000 0000 1440 0000 0000 0000 f03f
00000700: 0000 0000 0000 0040 0000 0000 0000 f03f
00000710: 0000 0000 0000 0040 0000 0000 0000 0840
00000720: 0000 0000 0000 f03f 0000 0000 0000 f03f
00000730: 0000 0000 0000 f03f 0000 0000 0000 f03f
00000740: 0000 0000 0000 1040 0000 0000 0000 1040
00000750: 0000 0000 0000 f03f 0000 0000 0000 0840
00000760: 0000 0000 0000 0040 0000 0000 0000 1c40
00000770: 0000 0000 0000 1c40 0000 0000 0000 1440
00000780: 0000 0000 0000 1440 0000 0000 0000 0040
00000790: 0000 0000 0000 2240 0000 0000 0000 f03f
000007a0: 0000 0000 0000 0040 0000 0000 0000 0040
000007b0: 0000 0000 0000 0040 0000 0000 0000 f03f
000007c0: 0000 0000 0000 1040 0000 0000 0000 f03f
000007d0: 0000 0000 0000 2040 0000 0000 0000 1040
000007e0: 0000 0000 0000 0840 0000 0000 0000 1c40
000007f0: 0000 0000 0000 0840 0000 0000 0000 f03f
2.0 1.0 2.0 1.0 3.0 1.0 4.0 2.0
1.0 2.0 2.0 3.0 2.0 10.0 1.0 4.0
2.0 9.0 3.0 1.0 2.0 16.0 5.0 2.0
2.0 1.0 3.0 1.0 7.0 6.0 1.0 4.0
5.0 8.0 1.0 1.0 1.0 5.0 4.0 1.0
1.0 1.0 7.0 15.0 3.0 1.0 2.0 1.0
2.0 5.0 2.0 9.0 8.0 3.0 3.0 7.0
1.0 2.0 1.0 1.0 6.0 4.0 4.0 4.0
3.0 5.0 1.0 2.0 4.0 2.0 1.0 3.0
1.0 1.0 3.0 2.0 2.0 2.0 1.0 3.0
6.0 7.0 3.0 1.0 2.0 1.0 1.0 1.0
2.0 2.0 3.0 2.0 2.0 1.0 9.0 8.0
3.0 2.0 4.0 1.0 4.0 5.0 5.0 4.0
7.0 8.0 1.0 1.0 1.0 2.0 1.0 7.0
2.0 2.0 2.0 1.0 4.0 2.0 2.0 2.0
6.0 1.0 1.0 1.0 2.0 2.0 4.0 2.0
2.0 2.0 1.0 7.0 6.0 5.0 1.0 2.0
2.0 2.0 1.0 3.0 1.0 6.0 3.0 6.0
1.0 1.0 2.0 3.0 2.0 3.0 3.0 2.0
2.0 1.0 7.0 2.0 2.0 3.0 1.0 3.0
1.0 1.0 3.0 1.0 9.0 5.0 4.0 3.0
1.0 2.0 6.0 1.0 1.0 1.0 1.0 7.0
2.0 2.0 2.0 2.0 3.0 2.0 3.0 1.0
5.0 2.0 2.0 1.0 1.0 1.0 2.0 1.0
2.0 5.0 1.0 8.0 3.0 2.0 1.0 5.0
1.0 3.0 2.0 1.0 4.0 2.0 3.0 1.0
3.0 4.0 1.0 2.0 1.0 1.0 1.0 1.0
1.0 3.0 1.0 1.0 4.0 3.0 5.0 1.0
2.0 1.0 2.0 3.0 1.0 1.0 1.0 1.0
4.0 4.0 1.0 3.0 2.0 7.0 7.0 5.0
5.0 2.0 9.0 1.0 2.0 2.0 2.0 1.0
4.0 1.0 8.0 4.0 3.0 7.0 3.0 1.0

lkl f8 [16000]
00000000: 6f36 2288 a92b 53c0 323b 63a0 0f32 53c0
00000010: 6934 bbac 8abe 53c0 08fa 7165 7482 53c0
00000020: 04a1 064b 5ebf 53c0 9e05 5563 e7e0 53c0
00000030: 0ccb d815 fefa 53c0 d561 813b 31d7 53c0
00000040: 7d45 a7fa a9e0 53c0 d7f7 f005 d646 53c0
00000050: ca95 49c5 1d6a 53c0 c616 7698 2cb2 53c0
00000060: f2a8 9d2b b128 53c0 99f6 ee8d 9602 53c0
00000070: 008e 75b5 9a37 53c0 a23e b496 f390 53c0
00000080: 8f39 2ef1 978d 53c0 a42e ef5f 8a38 53c0
00000090: 4fee ed96 d936 53c0 2932 4d8d 7e5e 53c0
000000a0: 023d 1b30 a131 53c0 a46f 8e71 04e2 52c0
000000b0: ebe9 476a d96c 53c0 73fe be51 187e 53c0
000000c0: a534 330d a6e3 53c0 0ca1 c4af 065e 53c0
000000d0: 108d 139a 4d3c 53c0 c4e0 1260 904c 53c0
000000e0: d6ef 8c4b 91b3 53c0 cf63 3304 cc02 54c0
000000f0: 93d8 bedd f735 54c0 994e 295c 19a9 54c0
00000100: 4361 bf5e 2e7f 54c0 5e90 7364 bec7 54c0
00000110: 2f90 96d4 7a90 54c0 df21 4219 69cc 54c0
00000120: 2cab 816b 6dbe 54c0 ddb5 d84d 2bfc 53c0
00000130: 9647 cfd1 6106 54c0 7b25 be2b 8fdb 53c0
00000140: 26be 0a46 7940 53c0 7c19 7788 376c 53c0
00000150: f847 74a3 00f1 52c0 1a7c c785 21ed 52c0
00000160: ab69 d68e b478 53c0 886d e21b 1a79 53c0
00000170: 9cf0 3c2d 630f 53c0 7e8c 1644 93f4 52c0
00000180: d82f 63d0 c00d 53c0 a46c 3664 ace4 52c0
00000190: ab31 a41c 151a 53c0 4844 7102 524b 53c0
000001a0: 164f fb7a 6fe7 52c0 880c 4a63 7382 53c0
000001b0: 00ad 34bb 1154 53c0 deb8 edbf f959 53c0
000001c0: bbdb 4121 e271 53c0 1240 8f8c ca71 53c0
000001d0: 5f1d d0f6 71cf 53c0 8d0b 24c2 5398 53c0
000001e0: eace 7fe4 ab9a 53c0 c1a5 d4e8 d4c8 54c0
000001f0: d0e5 90d9 d73d 53c0 3f4c 2a4a 8e1c 53c0
00000200: c9f0 b097 ecef 52c0 2810 3fd1 ecfd 52c0
00000210: 160a 2cad a520 54c0 1e44 7c81 49d8 53c0
00000220: 9db6 dd72 64e0 53c0 036c 884e 14df 53c0
00000230: 0ad0 2862 ab37 53c0 c72d 4e23 1906 53c0
00000240: 5ea3 93bf 0125 53c0 ee65 efde 0837 53c0
00000250: 7aa9 5790 24f2 52c0 ded6 5833 9d48 53c0
00000260: 31fb d29d 3b3b 53c0 2f5b 36b5 9538 53c0
00000270: 2c1f 8249 8b7a 53c0 7031 95cf bdb8 53c0
00000280: 9e8d 960e 8250 53c0 52ea cacc 2b02 53c0
00000290: 6f88 bf74 160f 53c0 023f e436 9607 53c0
000002a0: 21c4 059c 4448 53c0 4572 b77f 405b 53c0
000002b0: 027b a531 cd97 53c0 d83f 02b9 de79 53c0
000002c0: 0e4c b8e4 60d2 53c0 3ed0 ec79 1c12 54c0
000002d0: 33a5 2cc8 6390 54c0 0e22 c102 c123 54c0
000002e0: 8080 3981 590f 53c0 537a ba07 6776 53c0
000002f0: 9389 83df cb63 53c0 9023 516f d5dd 52c0
00000300: 3735 844a 4a2d 53c0 1854 02a0 4832 53c0
00000310: fce1 40fc 68ff 52c0 8829 7e6d 7839 53c0
00000320: bbd0 89df bf73 53c0 07da 4689 1444 53c0
00000330: 45b5 7b6b 842a 53c0 f17c c7cb 0a3c 53c0
00000340: f34c e60a dd41 53c0 7eb4 c058 2a40 53c0
00000350: 1755 f13d 1b69 53c0 305f c48e cdbf 53c0
00000360: c3f2 fefe bdc9 53c0 0ec9 4f5a 00ea 53c0
00000370: 6efd e8af aa01 54c0 28ee 420e 1ee1 53c0
00000380: 21d5 1a3e 9f93 53c0 5a97 8279 69e0 53c0
00000390: 43f1 1a5f f571 53c0 08ad 207b a1a3 53c0
000003a0: 7f16 41fe 1f27 53c0 1272 5a7e 8074 53c0
000003b0: 7756 bfab c84b 53c0 76d4 8b0c c8f8 52c0
000003c0: b65b 242e f12c 53c0 fa89 fcc5 5021 53c0
000003d0: e485 892a e634 53c0 0386 b1a4 d17f 53c0
000003e0: 25a2 b34f 293e 53c0 a3de c822 7e36 53c0
000003f0: 0932 224f e656 53c0 a453 9371 c56c 53c0
00000400: 621a d30b c24d 53c0 a999 645e 9a67 53c0
00000410: 9cc8 b37a 5963 53c0 f7e8 4066 2d27 53c0
00000420: 5f3c 24e1 d09c 53c0 10d3 6f1e 458c 53c0
00000430: 5b75 570c e0b8 53c0 b993 2d4e a8dc 53c0
00000440: 81c1 150a cb26 54c0 6d70 1b5b 5e28 54c0
00000450: 803f 2108 64a3 53c0 24c4 d8aa ae61 53c0
00000460: 23a2 ff30 f4b2 53c0 d0b0 28bf 2d2c 54c0
00000470: 2c9a a78d 9f82 53c0 d703 a99f 1354 53c0
00000480: f8a9 b47e 9324 53c0 98b6 34e4 6ebf 53c0
00000490: 76ea 81bd 2b30 53c0 c83b b3e9 7eec 52c0
000004a0: cd87 d02f 75f2 52c0 0079 f6b6 9c75 53c0
000004b0: b911 4415 bc99 53c0 2ce9 ad2e bbef 52c0
000004c0: 0a56 a3c8 d307 53c0 bbf6 d7d0 ba24 53c0
000004d0: 6ce8 0e7a 5815 53c0 6470 a34c fc33 53c0
000004e0: 820d 62aa 269b 53c0 e55a 0447 b544 53c0
000004f0: 7a7a ef52 b05a 53c0 0f0b 478c 4c72 53c0
00000500: a17e 02b6 ee57 53c0 4608 67ac 9132 53c0
00000510: 1a50 901f 17f9 52c0 a22b 62dc 04eb 52c0
00000520: 8e8a 97c7 060a 53c0 4435 6816 8204 53c0
00000530: c6e6 e24e 6327 53c0 210d 05a5 73a9 53c0
00000540: 8059 80a4 9501 54c0 31d7 f0b5 5634 54c0
00000550: acdc be28 8293 53c0 ef74 497a 77d6 53c0
00000560: 9303 65ad d991 53c0 5124 ba57 3a99 53c0
00000570: 0297 409e 6d5e 53c0 a8fd 660e 0fe5 52c0
00000580: 31e9 ff5f 90cf 53c0 5f08 aed7 ebba 53c0
00000590: 8fed da4a bc23 54c0 6d65 f624 2339 54c0
000005a0: 5247 1c4b 91f2 53c0 e122 1d22 d9ad 53c0
000005b0: 1e8f bf4a 099e 53c0 1c66 63ad c578 53c0
000005c0: 0907 86e6 1c47 53c0 76ba 953c 8240 53c0
000005d0: 7e32 92b1 c65f 53c0 09aa bfb0 c904 53c0
000005e0: de73 00ea 9367 53c0 e6ce 4ab8 09ba 53c0
000005f0: 30ed 1d33 364e 53c0 1b4b 7892 3b3c 53c0
00000600: a48e 3c54 8757 53c0 2958 b551 c14c 53c0
00000610: 4faf 1477 0b58 53c0 20f0 c8d5 5268 53c0
00000620: 4914 6b67 b17b 53c0 746a fffc 94a1 53c0
00000630: 3feb 0d10 7477 53c0 05f1 9560 3774 53c0
00000640: ab01 de2f f7bf 53c0 b393 903c 7e72 53c0
00000650: 45e1 8b83 9b84 53c0 e43a f007 935f 53c0
00000660: 603f 6653 83f6 53c0 e69e 731b 38cf 53c0
00000670: 45b1 9cc5 d95e 54c0 82de aa69 5565 53c0
00000680: b3a2 3363 a863 53c0 8894 6ed0 d92a 53c0
00000690: bb65 3da8 4c3a 53c0 0932 4b34 c9bd 53c0
000006a0: d1cf d55f 3764 53c0 f4ea f44f e652 53c0
000006b0: 5ddd fdae 26e4 53c0 093f b55b d659 53c0
000006c0: 3d75 d6a2 af3d 53c0 aeb9 dd11 012f 53c0
000006d0: 2d66 1372 ab08 53c0 54a2 a28a e7f9 52c0
000006e0: 66d3 64fb 042a 54c0 25db 4f6c 6ceb 53c0
000006f0: cc65 74ee a253 53c0 a3fb 2a66 a236 53c0
00000700: 8afc 5051 3f12 53c0 83a0 ae0b a203 53c0
00000710: f762 9163 fa20 53c0 4aad c0d3 6f1e 53c0
00000720: 3de7 e946 fb3f 53c0 ee60 2420 6859 53c0
00000730: 9a25 71f6 5d4a 53c0 3729 e8c8 443f 53c0
00000740: a4d9 e2f7 ae5e 53c0 bdd7 2d18 7595 53c0
00000750: cb0c 454e f0a4 53c0 78fb 2e3d 1674 53c0
00000760: 1801 d2c5 b98d 53c0 7855 8ac1 9ee0 53c0
00000770: 9f4f 10f6 8192 53c0 bccb 77ce 7b4a 53c0
00000780: 00c4 b7f5 6b6c 53c0 f404 d48a f922 53c0
00000790: 54f3 1da5 035c 53c0 0369 f620 1151 53c0
000007a0: 8c0a c9ea 4129 53c0 7e43 2c10 2f41 53c0
000007b0: 0543 fb2a b113 53c0 6033 401c 2003 53c0
000007c0: 529b 4785 8f16 53c0 7d99 a4fd 4b26 53c0
000007d0: 04a2 60fb 3e35 53c0 cf9f 025e 8100 53c0
000007e0: 1364 5c26 9674 53c0 4068 e53e 7584 53c0
000007f0: d825 28d6 51c9 53c0 e9e0 ae8e 6467 53c0
-76.682222398196 -76.78220376673269 -78.9772140339061 -78.03835426455055 -78.99013019225464 -79.51412280371594 -79.92175813838202 -79.36237990984894
-79.51037470183469 -77.10681293994945 -77.65806705652281 -78.78397189647794 -76.63581362148742 -76.04043911300904 -76.86881767730665 -78.26486747362154
-78.21239881052155 -76.88344572408329 -76.85703061328353 -77.47647411860147 -76.7754631296157 -75.53152121457839 -77.70076996825053 -77.97023433353188
-79.557009983068 -77.46915811731395 -76.94223644170074 -77.19631196826509 -78.80574311030736 -80.04370217340987 -80.84325355183891 -82.64217285188569
-81.98720520677038 -83.12099562917271 -82.25749697402419 -83.19391471346124 -82.97542846358255 -79.94014307177663 -80.09972043268348 -79.4306134564303
-77.00740195321177 -77.6908894694406 -75.76566397052363 -75.70517105561194 -77.88602038325068 -77.89221856224151 -76.2404282660595 -75.82148840143233
-76.21489343343944 -75.57302193941956 -76.40753856691906 -77.17688046513751 -75.61617922346008 -78.03829271537154 -77.31358223098869 -77.40586851325085
-77.77942687446095 -77.77798761357579 -79.24133081744866 -78.38011220474273 -78.4167414901855 -83.13799496427875 -76.96629943037192 -76.44618467455528
-75.74881546286919 -75.96757918509013 -80.51011208821032 -79.37948643813476 -79.50613090182965 -79.48561442682698 -76.86983541474925 -76.09528429636622
-76.5782317106036 -76.85991643313147 -75.783481679542 -77.13459476161685 -76.92551370242724 -76.88413744266721 -77.91475141246036 -78.88658513612404
-77.2579380483862 -76.0339233380885 -76.23574560837163 -76.11854336061154 -77.12918758929347 -77.42581170000729 -78.37189904365735 -77.90421891421954
-79.28716390607607 -80.28298805357278 -82.25609020576375 -80.55865544186256 -76.23983793845582 -77.85003846369482 -77.55931842656564 -75.46615202831003
-76.70765936766553 -76.78568268039123 -75.9907827981587 -76.89797532387286 -77.80858601053744 -77.0637534324561 -76.6643322666251 -76.93815893632178
-77.02911636820117 -77.00258463686802 -77.64228771751037 -78.996921245355 -79.15222144028944 -79.65627153197804 -80.02604291680265 -79.5174594548813
-78.3065943967854 -79.50643766167687 -77.78060128813836 -78.55673101607329 -76.61132770878065 -77.82034262497498 -77.1841229790242 -75.88721002249972
-76.70222047377214 -76.52055501615533 -76.8265482275961 -77.99717061363485 -76.97127144377062 -76.85144872299365 -77.35780695285224 -77.69955100428939
-77.21496863952191 -77.6187969191002 -77.55233638340945 -76.61214596117848 -78.45024899042754 -78.19171868248327 -78.88867481747495 -79.4477725453461
-80.60614254116628 -80.63075902633291 -78.55298045393829 -77.52628585022518 -78.7961542602939 -80.690292157876 -78.04098836295515 -77.31369773393031
-76.57150237696612 -78.99114327571658 -76.75266969382378 -75.69524614814065 -75.7884025131636 -77.83769010610195 -78.40210467955957 -75.74579970344047
-76.12230125380316 -76.5739023312589 -76.33352519470071 -76.81227413140147 -78.4242349584147 -77.07356429505633 -77.41701196085515 -77.78592211664021
-77.37394476169221 -76.79014120160818 -75.89203633397156 -75.67217168414075 -76.15666379736851 -76.07043991257257 -76.61543628843637 -78.64768338673868
-80.02475845846311 -80.8177924015006 -78.30481928480975 -79.35104233907235 -78.27891096939702 -78.394185954837 -77.47544056232076 -75.57904396112156
-79.24318695060062 -78.92064468379384 -80.55836745624241 -80.89277004301194 -79.79011800538618 -78.71637776227318 -78.46931713778437 -77.88706526476784
-77.11113894547101 -77.00794901487265 -77.49650229718279 -76.07481020657737 -77.61840295833778 -78.90684325509537 -77.22205808565627 -76.94113599536324
-77.36763482965267 -77.19929926595127 -77.37569977779388 -77.63005585310793 -77.93270287949521 -78.52471852248146 -77.86645890578528 -77.81587996142123
-78.99946209602665 -77.78895486945002 -78.07199181232598 -77.49334906063046 -79.85176548943627 -79.2377995137318 -81.48204174329756 -77.58333818136637
-77.55715255777868 -76.66954432295654 -76.91092878337706 -78.96540553420358 -77.5658797824865 -77.29530714910271 -79.56486105720019 -77.4037083883269
-76.9638449758831 -76.73444029476988 -76.13546420950361 -75.90475717432247 -80.65655407758967 -79.67849262045327 -77.30681954733808 -76.85366205403857
-76.2851146021732 -76.05676548055094 -76.51528252790364 -76.4755753881083 -76.99971173135869 -77.39698031952477 -77.16198502587795 -76.9885732905576
-77.47942921784721 -78.33527187802152 -78.57716709845697 -77.8138573607265 -78.21446366794805 -79.50968969830672 -78.28918220131753 -77.16380655001461
-77.6940893454157 -76.54648085312857 -77.43772247242788 -77.26667045653817 -76.64464826233797 -77.01849750826474 -76.30768847024235 -76.04883486051176
-76.35250980370373 -76.59838810991455 -76.83196911274723 -76.00789594894671 -77.82166441938925 -78.06965610888528 -79.14561990662276 -77.61551253393158
