chains/ch143_217_353_545_TE_B50EXTR.npz (npz, 897880 bytes, 3 tensors)

chain f8 [16000, 5]
0	0x3fbd80c7a49c8909	0.11524627465090388
1	0x3ff8390a1eb2c85a	1.5139256667285026
2	0xc00369dd9d0910d7	-2.4266922253028542
3	0x3fefb567fe8e5ea1	0.9908943149375383
4	0x3fef27cfdd62d674	0.973609859842965
5	0x3fc0e01619ac0a42	0.13183857205884136
6	0x3ff955d485ef90eb	1.5834546310298332
7	0xc004634b54a930b9	-2.5484835256703176
8	0x3feebba1133097a0	0.960403954963784
9	0x3fedcf2c415104e6	0.9315396571838874
10	0x3fb4504544aae2ee	0.07934983183339359
11	0x3ffc747e58fc2fd2	1.7784408069592144
12	0xc0032cd3e53fd383	-2.3968885336020676
13	0x3feee4bf97b98ed9	0.9654233897567465
14	0x3feef747899f30fd	0.9676854789663875
15	0x3fbfcb95f3ba7ec0	0.12420022201922176
16	0x3ff83a3137224583	1.5142070916811867
17	0xc003fe27300d6908	-2.499098182114839
18	0x3fee0a483ed27ddb	0.938755152415918
19	0x3fefc931223595ec	0.9933095615530738
20	0x3fbe76933a03ad02	0.11899681249967745
21	0x3ff6271847cd50b2	1.3845446400419346
22	0xc0032cf2d901fbab	-2.3969475702028453
23	0x3fee3b929dbc450e	0.9447720604677288
24	0x3feec2754c12fc9d	0.961237572271688
25	0x3fbc276e85e1604f	0.10997668045581686
26	0x3ff815070e6153bc	1.5051336824155745
27	0xc0033590f5c6f5a5	-2.4011553956358562
28	0x3fef8211e3b0b767	0.9846276709629195
29	0x3fed0e16fd42807e	0.9079699465255684
30	0x3fb8d15c6da6f48d	0.09694459607176693
31	0x3ffaca71b4ce733d	1.6744248450042527
32	0xc0041758d99e53b9	-2.5113999368136004
33	0x3fef0352220653d5	0.9691553749604461
34	0x3fec4dcf6a30d504	0.8844983171499341
35	0x3fb6aa6559fa7a73	0.0885375351594833
36	0x3ff8fe37b17a9e46	1.5620648319981156
37	0xc00274ffe768b7f4	-2.3071287230331965
38	0x3fef1467d7cce157	0.9712409224367019
39	0x3fecf9148a9eea08	0.9054053027569475
40	0x3fbce73efdbae790	0.11290353483755511
41	0x3ff803f33c6de359	1.5009643898503866
42	0xc00255cdc75dff72	-2.2918963981209624
43	0x3fef8e088c00f4f6	0.9860880598495487
44	0x3fed758b4e51d2db	0.9205986528091573
45	0x3fbb283299e25a8f	0.10608211762369478
46	0x3ff6cbc5bbeb61b5	1.424749120769872
47	0xc0020964ad73c670	-2.2545865584332248
48	0x3fef1c0c8edf50d4	0.9721739569163454
49	0x3fee4100ea07adf2	0.9454350062273404
50	0x3fb0b6096b64ce62	0.06527766105573954
51	0x3ffa8fbd2786e3f8	1.6600925010700376
52	0xc002f2913b639a9a	-2.3684410705348684
53	0x3fef39521aee9d87	0.9757471586244016
54	0x3feed668a75b3fd2	0.9636729496651191
55	0x3fbc0eed3072ceaa	0.10960276062797428
56	0x3ffa6bc1237840b2	1.6513072381531342
57	0xc00504fbbfb86d4a	-2.6274332979352595
58	0x3feedb3c201816b3	0.9642620684469051
59	0x3ff01800aeef7085	1.0058600266848157
60	0x3fb755ddf3f5ee55	0.0911539764983272
61	0x3ffb45db68bf5440	1.7045549480146889
62	0xc0047f6986470777	-2.562212990801466
63	0x3feeee633d1802f8	0.9666000550497236
64	0x3ff03a3d7ce9612f	1.0142187957154183
65	0x3fb17fa49fd5e89c	0.06835392858730177
66	0x3ffb508f22058fcf	1.7071677521680504
67	0xc002fede05c6e4a3	-2.3744469119379388
68	0x3feedd3f2589b2e1	0.9645076497232276
69	0x3fee6e72f13164f7	0.9509825430679076
70	0x3fae0fbf25959d3d	0.058713887536948374
71	0x3ffcc5481afe2e4e	1.7981644682321476
72	0xc003465305f07f3a	-2.4093380416888097
73	0x3fef201f968ea846	0.9726713123866453
74	0x3feef359b0cb85d1	0.967205853750949
75	0x3fa9f7a70422bc8e	0.05071756291851513
76	0x3ffc69ff7f3a0c85	1.7758784265322742
77	0xc002fe4c52682ac1	-2.3741690099753616
78	0x3fef46587b303080	0.9773371130008996
79	0x3ff03cb3a832ff34	1.0148197717935092
80	0x3fb2e7d486589b5a	0.07384994773802359
81	0x3ffdc09b6a00e631	1.8595232144128995
82	0xc004d9a87704d4ae	-2.6062783525799977
83	0x3fef0ec66c919ef4	0.9705536003575319
84	0x3feeddd8fdfb576d	0.9645810089666448
85	0x3fb39486ca9dae99	0.07648508497885088
86	0x3ffa6b6c0c9fdb0a	1.651226090730861
87	0xc00301967ebfb549	-2.3757753278975184
88	0x3fef36cb88c63aca	0.975438849580166
89	0x3ff0a1d822e74d45	1.0395127643030986
90	0x3fad1244a486ac5c	0.05677999981283996
91	0x3ffcb0c92890202c	1.7931605896465141
92	0xc0041e4104c5235b	-2.5147724507009293
93	0x3fef14d76bec2987	0.9712941272603509
94	0x3ff039a3f4f68dce	1.0140723770972389
95	0x3fb5f5170d5cd1b2	0.0857710273383592
96	0x3ffa29ec10d152f6	1.6352348954143827
97	0xc00377df01397338	-2.433530816617715
98	0x3feeb40b3dec3d2c	0.9594780167989589
99	0x3fef84df10022237	0.984969645754126
100	0x3fbce52bec4fef8a	0.11287188071577084
101	0x3ff830e36812ceac	1.5119356217736977
102	0xc002ba82f51cec1f	-2.341070094056263
103	0x3fee8f5b136b8e87	0.9549994830417327
104	0x3fef25d5a4010c9b	0.973368473358636
105	0x3fc8514ed6892ed8	0.18998132205375984
106	0x3ff64fe3f0847424	1.3945044894419505
107	0xc0041af21e996c49	-2.513157118851755
108	0x3fee7c347f9311b1	0.9526617519082291
109	0x3fefb3790728334b	0.9906582965646548
110	0x3fb4cbcfc825cc7d	0.08123491894166253
111	0x3ffbdb7d0ebbeb3d	1.7410860610531949
112	0xc00368090d6971cc	-2.4257985160640825
113	0x3fef5b9f1390208d	0.9799342519845752
114	0x3feff690899edc05	0.9988482177640213
115	0x3fba64791c301e77	0.10309559763128982
116	0x3ffa8599a523f44e	1.6576172304915135
117	0xc003e09096390a98	-2.4846507774503372
118	0x3fef92b38440a9e7	0.9866578658159683
119	0x3fef59a5af3b3b05	0.9796932623374636
120	0x3fc0d07f780ca866	0.13136285173215184
121	0x3ffb942139feba2b	1.7236644998007573
122	0xc005578f4e2c95d9	-2.667753802047383
123	0x3fef6ce929cc55e3	0.9820447746630488
124	0x3fefb86d2751decc	0.9912629859890898
125	0x3fc0e1fc86f39c70	0.13189655866083028
126	0x3ffc00bc25587c10	1.750179429894846
127	0xc006af9592be14a6	-2.8357345070131315
128	0x3fef22db3a7c79a4	0.9730049269017411
129	0x3fedd67087657002	0.9324267048318691
130	0x3fcbef43f81c4638	0.2182393037297048
131	0x3ff791c4341337a6	1.4730875047857608
132	0xc006307cdfbe27c5	-2.773675678244191
133	0x3fef54edf27267be	0.979117368249028
134	0x3fed7b51618589aa	0.9213034538955089
135	0x3fd0f6ccf37b3c9b	0.265063512587355
136	0x3ff5b1fa59225aa9	1.3559516412548567
137	0xc0073f7cb2f0d4d3	-2.9059995631929296
138	0x3fef55f2abcf4309	0.9792416911751342
139	0x3feef1d75dd7d62a	0.9670216400979303
140	0x3fd0ad0c585f27d3	0.2605620253567597
141	0x3ff4cc3f8889b731	1.2998652776254398
142	0xc006d775e6f646a0	-2.855205349341148
143	0x3feedce05b3532ce	0.9644624501612158
144	0x3fee6a51cfdefd98	0.9504784641248305
145	0x3fd10f5b3d9c2a9d	0.26656228081325556
146	0x3ff3a7e01be522c1	1.2284852113390772
147	0xc005af01ce425d3d	-2.7104526628496886
148	0x3fee92d9eca24f6a	0.9554261800535475
149	0x3feed21d9fbdcc48	0.9631488914441286
150	0x3fd05e104e0c3cb0	0.2557411920724446
151	0x3ff51dd4ac433454	1.3197828988079623
152	0xc00644c72ee602c2	-2.7835830367988317
153	0x3feeb0ca1924260f	0.9590807429351019
154	0x3fef8784b5dd5d73	0.9852927734417974
155	0x3fcbf57d21163d8f	0.2184292232090965
156	0x3ff66acc699c9007	1.401073849244314
157	0xc004f000b4f89070	-2.617188848338678
158	0x3fee6fd645b707c0	0.9511519776935913
159	0x3ff02bb4641781d6	1.0106700811230573
160	0x3fd08499bc90b9d8	0.2580932942827565
161	0x3ff2720ca4fe76e1	1.1528440899923498
162	0xc00412360e95cec9	-2.5088921679942797
163	0x3feea61b2c7caeff	0.9577766293418505
164	0x3fef87eaf29aaf27	0.9853415239681212
165	0x3fcab2e1dbe72a22	0.20858405339670677
166	0x3ff4601b09c9ecd6	1.2734632856725532
167	0xc002a3d424134812	-2.329994470442224
168	0x3feeb335d28e0a00	0.9593762504958363
169	0x3fed3d648d9ed4fb	0.9137442365669409
170	0x3fd0a37261b59a05	0.25997600118572023
171	0x3ff10e0d71ca36a8	1.0659307904165107
172	0xc00316b87e11d863	-2.386094078940958
173	0x3fef02e57ef193e7	0.9691035727852267
174	0x3ff0077ce3a090a0	1.0018280879676595
175	0x3fd187f1f1960f93	0.2739224299659721
176	0x3ff15526b7ef525a	1.083288877959737
177	0xc003c7cc51f015c5	-2.4725576783555163
178	0x3fee93121ed29300	0.9554529764178312
179	0x3ff06acceb2e3d1e	1.0260743319266292
180	0x3fd1ffa27e039493	0.28122770601323416
181	0x3ff45caa425d6bba	1.2726233093624004
182	0xc00497ef7b237009	-2.5741872425260266
183	0x3fef69c3e8f89340	0.9816608000006468
184	0x3ff02a41cde2fddc	1.0103166620682407
185	0x3fd258f1925cfc98	0.286678688938943
186	0x3ff2eb34eb06e8ef	1.1824235134832255
187	0xc00446328bbac15b	-2.534276095997638
188	0x3fef4f3cae7f89cf	0.9784224899452115
189	0x3fef3028357c1246	0.9746285481092591
190	0x3fd100b8d050377a	0.2656690630254769
191	0x3ff44247a6b40010	1.2661816131440027
192	0xc004909e53022ba7	-2.5706144795453443
193	0x3fef0b4ef8ef3af9	0.9701304304124668
194	0x3fedf583850b59a3	0.9362199400446126
195	0x3fd062fbce4ed208	0.25604148051505193
196	0x3ff62143858d74fc	1.3831210343262788
197	0xc004fd4c2a29d588	-2.6236804288880116
198	0x3feeebd52ad5b26f	0.9662881695381439
199	0x3fedcea0f4956720	0.9314732338927776
200	0x3fcac456581ee79a	0.20911673834580996
201	0x3ff7a6f333285cc3	1.4782592771860414
202	0xc005a664b7721623	-2.706246789139884
203	0x3fef3efe463c157c	0.9764396068355121
204	0x3fedf4cbddc58497	0.9361323672748253
205	0x3fc599a3d816e13c	0.168751221191778
206	0x3ffa2ce890984390	1.6359639785989408
207	0xc005e66e1e7bb074	-2.737514722966859
208	0x3feef52e380d343f	0.9674292654759781
209	0x3fef0b6ce435cfe5	0.9701446969252144
210	0x3fce59dff6c9e908	0.23711776304464416
211	0x3ff6f319845699fb	1.434350506731447
212	0xc005da5e77022a01	-2.7316254899535584
213	0x3fef550335c315ad	0.9791275072135953
214	0x3fee58c2677c8f38	0.948334886667431
215	0x3fcfe526cf1d7985	0.24918065178912854
216	0x3ff5ef1bbc39dfdf	1.3708760597783038
217	0xc004db8e4fd38940	-2.6072050320082383
218	0x3fef8915c60dca9d	0.9854840152969079
219	0x3fede4e971849bbe	0.934193345751616
220	0x3fd0bea5b0dc6692	0.26163618346763784
221	0x3ff4ff53dcabbba7	1.3123358364061717
222	0xc0051b2e68944cd4	-2.6382721109635927
223	0x3feef05051c201aa	0.9668351742584964
224	0x3ff0025624e405f9	1.0005704346698379
225	0x3fd29ebcedc82a28	0.2909385988320161
226	0x3ff46c975883eafd	1.276511522066982
227	0xc00564688943fbd9	-2.6740275119659427
228	0x3fee539a0441364e	0.9477052767849246
229	0x3fef097c807a52c0	0.969907999928715
230	0x3fd487432bea2ba1	0.32075576103732756
231	0x3ff303af4986b176	1.188399588786607
232	0xc00595e418a8d940	-2.6981889654663576
233	0x3fee643aa667eefe	0.9497349977604868
234	0x3fee07260d01e4b1	0.9383726362276744
235	0x3fd29461e3e8208e	0.290306541981871
236	0x3ff3802a631570a8	1.2187904234370226
237	0xc005491aef7064d5	-2.660695906274308
238	0x3fee06a9cf914974	0.9383133939793837
239	0x3fee3e834b039f89	0.9451309647674729
240	0x3fcc52db9423df2c	0.2212786172237825
241	0x3ff65393b07886f3	1.395404519404505
242	0xc0042537e403ee9c	-2.518173009271619
243	0x3fedf6b3790a526c	0.9363648761814836
244	0x3feda0e4fe8bb7f0	0.9258904430005241
245	0x3fd05db0b6acbb3a	0.25571840133027346
246	0x3ff408500d47f82a	1.2520294684213789
247	0xc00427589c8d04e0	-2.519211981824455
248	0x3fee209cd3434100	0.9414810301041427
249	0x3fef13350cdeb21a	0.9710946322789511
250	0x3fcf625f5d0e229f	0.2451895908709689
251	0x3ff3c16be69ee145	1.2347220429056318
252	0xc003a9ecf8e6be8e	-2.4579715199868764
253	0x3fed9ff9fd9a413f	0.9257783845114672
254	0x3ff0359ca320f4ab	1.013088834020247
255	0x3fcd520e9e29885c	0.22906668398633456

weight f8 [16000]
0	0x4014000000000000	5.0
1	0x4008000000000000	3.0
2	0x4000000000000000	2.0
3	0x4008000000000000	3.0
4	0x4018000000000000	6.0
5	0x4008000000000000	3.0
6	0x3ff0000000000000	1.0
7	0x4014000000000000	5.0
8	0x4000000000000000	2.0
9	0x4008000000000000	3.0
10	0x4014000000000000	5.0
11	0x4008000000000000	3.0
12	0x4022000000000000	9.0
13	0x4008000000000000	3.0
14	0x4010000000000000	4.0
15	0x3ff0000000000000	1.0
16	0x4008000000000000	3.0
17	0x402a000000000000	13.0
18	0x4000000000000000	2.0
19	0x4018000000000000	6.0
20	0x4020000000000000	8.0
21	0x4022000000000000	9.0
22	0x4010000000000000	4.0
23	0x3ff0000000000000	1.0
24	0x3ff0000000000000	1.0
25	0x3ff0000000000000	1.0
26	0x3ff0000000000000	1.0
27	0x4014000000000000	5.0
28	0x4008000000000000	3.0
29	0x4008000000000000	3.0
30	0x3ff0000000000000	1.0
31	0x3ff0000000000000	1.0
32	0x4008000000000000	3.0
33	0x4000000000000000	2.0
34	0x3ff0000000000000	1.0
35	0x4000000000000000	2.0
36	0x4008000000000000	3.0
37	0x3ff0000000000000	1.0
38	0x4014000000000000	5.0
39	0x401c000000000000	7.0
40	0x3ff0000000000000	1.0
41	0x3ff0000000000000	1.0
42	0x3ff0000000000000	1.0
43	0x3ff0000000000000	1.0
44	0x402c000000000000	14.0
45	0x4028000000000000	12.0
46	0x4000000000000000	2.0
47	0x4008000000000000	3.0
48	0x4018000000000000	6.0
49	0x4018000000000000	6.0
50	0x4018000000000000	6.0
51	0x3ff0000000000000	1.0
52	0x4020000000000000	8.0
53	0x3ff0000000000000	1.0
54	0x4000000000000000	2.0
55	0x4014000000000000	5.0
56	0x3ff0000000000000	1.0
57	0x3ff0000000000000	1.0
58	0x4000000000000000	2.0
59	0x4018000000000000	6.0
60	0x3ff0000000000000	1.0
61	0x4010000000000000	4.0
62	0x401c000000000000	7.0
63	0x4010000000000000	4.0
64	0x4008000000000000	3.0
65	0x4010000000000000	4.0
66	0x3ff0000000000000	1.0
67	0x3ff0000000000000	1.0
68	0x4000000000000000	2.0
69	0x4018000000000000	6.0
70	0x4008000000000000	3.0
71	0x3ff0000000000000	1.0
72	0x4008000000000000	3.0
73	0x3ff0000000000000	1.0
74	0x3ff0000000000000	1.0
75	0x3ff0000000000000	1.0
76	0x3ff0000000000000	1.0
77	0x4022000000000000	9.0
78	0x4008000000000000	3.0
79	0x4020000000000000	8.0
80	0x4008000000000000	3.0
81	0x4018000000000000	6.0
82	0x4000000000000000	2.0
83	0x4010000000000000	4.0
84	0x3ff0000000000000	1.0
85	0x4010000000000000	4.0
86	0x4000000000000000	2.0
87	0x4008000000000000	3.0
88	0x4018000000000000	6.0
89	0x4008000000000000	3.0
90	0x4014000000000000	5.0
91	0x401c000000000000	7.0
92	0x4018000000000000	6.0
93	0x4034000000000000	20.0
94	0x3ff0000000000000	1.0
95	0x4010000000000000	4.0
96	0x4020000000000000	8.0
97	0x4010000000000000	4.0
98	0x4010000000000000	4.0
99	0x4008000000000000	3.0
100	0x4000000000000000	2.0
101	0x4008000000000000	3.0
102	0x4008000000000000	3.0
103	0x4018000000000000	6.0
104	0x4020000000000000	8.0
105	0x4008000000000000	3.0
106	0x4026000000000000	11.0
107	0x4010000000000000	4.0
108	0x4010000000000000	4.0
109	0x4000000000000000	2.0
110	0x3ff0000000000000	1.0
111	0x3ff0000000000000	1.0
112	0x4026000000000000	11.0
113	0x3ff0000000000000	1.0
114	0x4008000000000000	3.0
115	0x4010000000000000	4.0
116	0x4010000000000000	4.0
117	0x4000000000000000	2.0
118	0x4037000000000000	23.0
119	0x3ff0000000000000	1.0
120	0x3ff0000000000000	1.0
121	0x4022000000000000	9.0
122	0x4014000000000000	5.0
123	0x4014000000000000	5.0
124	0x3ff0000000000000	1.0
125	0x3ff0000000000000	1.0
126	0x4018000000000000	6.0
127	0x4000000000000000	2.0
128	0x3ff0000000000000	1.0
129	0x402c000000000000	14.0
130	0x3ff0000000000000	1.0
131	0x3ff0000000000000	1.0
132	0x3ff0000000000000	1.0
133	0x3ff0000000000000	1.0
134	0x4020000000000000	8.0
135	0x3ff0000000000000	1.0
136	0x4000000000000000	2.0
137	0x4008000000000000	3.0
138	0x4008000000000000	3.0
139	0x4010000000000000	4.0
140	0x3ff0000000000000	1.0
141	0x402a000000000000	13.0
142	0x4022000000000000	9.0
143	0x4000000000000000	2.0
144	0x4018000000000000	6.0
145	0x4026000000000000	11.0
146	0x4000000000000000	2.0
147	0x4000000000000000	2.0
148	0x4014000000000000	5.0
149	0x4014000000000000	5.0
150	0x4014000000000000	5.0
151	0x3ff0000000000000	1.0
152	0x4008000000000000	3.0
153	0x4008000000000000	3.0
154	0x4008000000000000	3.0
155	0x4010000000000000	4.0
156	0x3ff0000000000000	1.0
157	0x4000000000000000	2.0
158	0x401c000000000000	7.0
159	0x3ff0000000000000	1.0
160	0x3ff0000000000000	1.0
161	0x4008000000000000	3.0
162	0x4020000000000000	8.0
163	0x4008000000000000	3.0
164	0x4000000000000000	2.0
165	0x4014000000000000	5.0
166	0x4010000000000000	4.0
167	0x3ff0000000000000	1.0
168	0x4010000000000000	4.0
169	0x4014000000000000	5.0
170	0x4018000000000000	6.0
171	0x4000000000000000	2.0
172	0x3ff0000000000000	1.0
173	0x4031000000000000	17.0
174	0x4034000000000000	20.0
175	0x4008000000000000	3.0
176	0x4008000000000000	3.0
177	0x4014000000000000	5.0
178	0x4022000000000000	9.0
179	0x4008000000000000	3.0
180	0x4000000000000000	2.0
181	0x4008000000000000	3.0
182	0x4000000000000000	2.0
183	0x3ff0000000000000	1.0
184	0x4008000000000000	3.0
185	0x3ff0000000000000	1.0
186	0x4008000000000000	3.0
187	0x3ff0000000000000	1.0
188	0x4000000000000000	2.0
189	0x4008000000000000	3.0
190	0x4036000000000000	22.0
191	0x4026000000000000	11.0
192	0x3ff0000000000000	1.0
193	0x4014000000000000	5.0
194	0x4024000000000000	10.0
195	0x4008000000000000	3.0
196	0x4014000000000000	5.0
197	0x3ff0000000000000	1.0
198	0x4010000000000000	4.0
199	0x4000000000000000	2.0
200	0x3ff0000000000000	1.0
201	0x4000000000000000	2.0
202	0x4000000000000000	2.0
203	0x3ff0000000000000	1.0
204	0x3ff0000000000000	1.0
205	0x4010000000000000	4.0
206	0x4010000000000000	4.0
207	0x4010000000000000	4.0
208	0x3ff0000000000000	1.0
209	0x3ff0000000000000	1.0
210	0x3ff0000000000000	1.0
211	0x3ff0000000000000	1.0
212	0x401c000000000000	7.0
213	0x402e000000000000	15.0
214	0x4022000000000000	9.0
215	0x3ff0000000000000	1.0
216	0x4000000000000000	2.0
217	0x3ff0000000000000	1.0
218	0x4008000000000000	3.0
219	0x4024000000000000	10.0
220	0x4008000000000000	3.0
221	0x4018000000000000	6.0
222	0x401c000000000000	7.0
223	0x3ff0000000000000	1.0
224	0x4022000000000000	9.0
225	0x3ff0000000000000	1.0
226	0x4024000000000000	10.0
227	0x3ff0000000000000	1.0
228	0x3ff0000000000000	1.0
229	0x4018000000000000	6.0
230	0x4000000000000000	2.0
231	0x4000000000000000	2.0
232	0x4020000000000000	8.0
233	0x4018000000000000	6.0
234	0x4010000000000000	4.0
235	0x4000000000000000	2.0
236	0x4018000000000000	6.0
237	0x401c000000000000	7.0
238	0x4020000000000000	8.0
239	0x4014000000000000	5.0
240	0x3ff0000000000000	1.0
241	0x4000000000000000	2.0
242	0x4024000000000000	10.0
243	0x4000000000000000	2.0
244	0x4022000000000000	9.0
245	0x4022000000000000	9.0
246	0x3ff0000000000000	1.0
247	0x4000000000000000	2.0
248	0x4008000000000000	3.0
249	0x3ff0000000000000	1.0
250	0x4026000000000000	11.0
251	0x4010000000000000	4.0
252	0x4020000000000000	8.0
253	0x4018000000000000	6.0
254	0x4000000000000000	2.0
255	0x3ff0000000000000	1.0

lkl f8 [16000]
0	0xc05e1364b657d340	-120.30302198959998
1	0xc05dfa91242ac9df	-119.91510872057505
2	0xc05e4fa2a1857cf6	-121.24430120502424
3	0xc05e330deab1fe7c	-120.79772441274866
4	0xc05eae5d988034b1	-122.72446262855625
5	0xc05eaef637f3f27c	-122.73377798865289
6	0xc05ebf51b5c38231	-122.9893621835006
7	0xc05e8d918239217a	-122.2120061452787
8	0xc05e9957939bddff	-122.3959702512875
9	0xc05e50bdeba05927	-121.26159182223329
10	0xc05e5023be3bb815	-121.2521815856165
11	0xc05de33e3308823d	-119.55067134695942
12	0xc05de62b3a86d534	-119.59638846556919
13	0xc05df9df49a55aee	-119.90425339839905
14	0xc05e03ae4fca5e1c	-120.05751414072478
15	0xc05e8a2fe722dd5f	-122.15917375950583
16	0xc05e1ebe336969b0	-120.4803589372084
17	0xc05e4b97f0194c27	-121.18114855261284
18	0xc05e7e293b98de1b	-121.97126665047146
19	0xc05dc45e022e24ea	-119.06823782449979
20	0xc05de6afb32d2e43	-119.60447387134722
21	0xc05e22a8665f2969	-120.54152831357136
22	0xc05e1903ddb6b107	-120.39086096611946
23	0xc05e019c7163845c	-120.0251735183569
24	0xc05f4a47507cff6f	-125.16060268599334
25	0xc05f2893a551d241	-124.63401158323633
26	0xc05f10fe2c5fdaf1	-124.26551350937713
27	0xc05f5373d6ab8024	-125.30394522426701
28	0xc05f44baf30ce437	-125.07391048678333
29	0xc05ed418fec58408	-123.31402558601997
30	0xc05ea8f8e754c0e7	-122.64019187237464
31	0xc05ea3482cca464a	-122.55128021005035
32	0xc05e94ff3f3d0480	-122.32807904204128
33	0xc05ef7ec3bb6220e	-123.87379353319577
34	0xc05f04b91d6cd6fa	-124.07379851940996
35	0xc05f3169a9457710	-124.77207404884052
36	0xc05f1e546e120d32	-124.47390319598051
37	0xc05e9e115ca01989	-122.46980968127004
38	0xc05e91ca8112c14c	-122.27798487502622
39	0xc05f14d5cbbdb7be	-124.32554906394122
40	0xc05eb21bd4c92220	-122.7829486812775
41	0xc05f1708f82aa13a	-124.3599224487597
42	0xc05ee03bcc375635	-123.50364976314525
43	0xc05f23dd6d2c4838	-124.5603897983973
44	0xc05e86d03376d32d	-122.10645758251185
45	0xc05ec9d3309d355c	-123.15351500847231
46	0xc05f2240d254899f	-124.53520639663337
47	0xc05f1fecc69187ad	-124.49882663928902
48	0xc05f540c6a42998c	-125.31325775627027
49	0xc05eb188319afb23	-122.77393760809768
50	0xc05fadd875ccadbf	-126.71633667934564
51	0xc05f01e6b9d6faba	-124.0297073935898
52	0xc05f5b4142a74d22	-125.42585817659395
53	0xc05fb9d08b4452ce	-126.90335351631367
54	0xc05ed4fe71aa3dce	-123.32803002953662
55	0xc05e8901e79a47a7	-122.14074125353237
56	0xc05ed0ce1ca7a67a	-123.26258007404422
57	0xc05e543a00dc7427	-121.31604024437603
58	0xc05e692c1f418573	-121.6433179988724
59	0xc05e8ebcf91215dc	-122.23028399244453
60	0xc05e6019253f0ea7	-121.5015347591203
61	0xc05df94f8121ee8e	-119.89547756494196
62	0xc05e051574fa41dc	-120.07943462790666
63	0xc05e60b13bc2d4a3	-121.51081747080256
64	0xc05e639f6ad82811	-121.55660506352457
65	0xc05e2d86cf12527b	-120.71135308064724
66	0xc05ddeaec59b8d42	-119.47941723051648
67	0xc05df10bb1475f2f	-119.76633865327743
68	0xc05e65a661ee121b	-121.58828018426031
69	0xc05e30e76a1c93d7	-120.764124420078
70	0xc05db521b3b22089	-118.83018200297569
71	0xc05e467fab8c19d6	-121.10154236489993
72	0xc05e404a67cc0a58	-121.00454134870358
73	0xc05e134a23aec7c8	-120.3014001089897
74	0xc05e0a7242053c96	-120.16322374831574
75	0xc05e4978e60d9bb2	-121.1480040676968
76	0xc05ea36ee02cf699	-122.55364231482453
77	0xc05ec8dc56ad456f	-123.1384483997442
78	0xc05ef24630b13d8d	-123.78553407009731
79	0xc05ef826947d8bad	-123.87735473881067
80	0xc05f0d6ef99e92a6	-124.20989838109617
81	0xc05f1516871b4a31	-124.3294999853613
82	0xc05ee8015e7c348c	-123.62508356217785
83	0xc05edef921f23219	-123.48395584728168
84	0xc05f280bafb038c1	-124.62571327408934
85	0xc05eb046191709fd	-122.75427844285873
86	0xc05eaf3acdc95a35	-122.73796410239522
87	0xc05e078098d3d829	-120.11722393691947
88	0xc05de703fb285aac	-119.60961798611487
89	0xc05df22a7a0ed020	-119.78384257742482
90	0xc05e1da8fbaa9c65	-120.46343890820715
91	0xc05df940ca10e362	-119.89457942628135
92	0xc05dfc0b8379f150	-119.93820273312053
93	0xc05df52688194827	-119.83047678440981
94	0xc05e7e3bd8fdd4c1	-121.97240280903044
95	0xc05ed84ef228327f	-123.37981847692025
96	0xc05dfee92248a1fe	-119.98297936528249
97	0xc05e571ef475b6b5	-121.36126433845023
98	0xc05efda239e3808c	-123.96302649704938
99	0xc05ea24d01d0aee3	-122.53595013980116
100	0xc05e438f931ad93d	-121.05563809987957
101	0xc05e5f094309d958	-121.48494029962364
102	0xc05e6c472e5eda65	-121.69184455168723
103	0xc05e008314335b58	-120.00800042167009
104	0xc05dee1695152099	-119.72012831748215
105	0xc05dee4502d0d26f	-119.72296209709906
106	0xc05dde5f012ae8fc	-119.47454861822547
107	0xc05df8f2e2f36720	-119.88982461709793
108	0xc05dfc3b2d116d93	-119.94111181928592
109	0xc05e44ff38402248	-121.07807737601354
110	0xc05e10c1238a1593	-120.26178825840752
111	0xc05e12b8cbea959b	-120.2925290861953
112	0xc05e36215b1611ac	-120.84578587680033
113	0xc05e4c951ce8657b	-121.19660113043749
114	0xc05dd4882b2c83e9	-119.32081107470698
115	0xc05daa4608291446	-118.66052440654411
116	0xc05df3738b543c67	-119.80392726160208
117	0xc05dc25459cfaea2	-119.03639836579762
118	0xc05db2735f28aa06	-118.78829173060521
119	0xc05e2a17db086d3f	-120.65770603011059
120	0xc05e4307710368cd	-121.04732919056842
121	0xc05de6989ce8e3ef	-119.6030647539444
122	0xc05e0b9ce272a563	-120.18145047374632
123	0xc05e74f423540eb1	-121.82740100105981
124	0xc05df471cc2dafcc	-119.81944565259545
125	0xc05df687057f91e5	-119.85199105699537
126	0xc05e035e30aef100	-120.05262391170618
127	0xc05df498a98bc0e3	-119.82181776664542
128	0xc05db1e4a6c86665	-118.77958077974615
129	0xc05de7a7cf3c99f3	-119.61961728017904
130	0xc05dd9ccd283ac26	-119.40312636240614
131	0xc05e15a10a1ae4da	-120.33795406938899
132	0xc05eabc6d0be79b4	-122.684009729396
133	0xc05f069a69964413	-124.10317458795934
134	0xc05e262cc6d4a87c	-120.59648295180699
135	0xc05e9b9c79193b8e	-122.4314253565228
136	0xc05e98b9853b9cf9	-122.38632326909637
137	0xc05e552bf6171d3c	-121.33080818421598
138	0xc05e3bb1bc4fce9d	-120.93272311967526
139	0xc05e44a2864b49f1	-121.07241971352029
140	0xc05e428e9426f4a5	-121.03995231441748
141	0xc05e1361e12bc19f	-120.30284909508781
142	0xc05e1cc1d4f83ef7	-120.44933056109208
143	0xc05e6c511e2eb27f	-121.69245104370383
144	0xc05e007eff139406	-120.0077512446588
145	0xc05e4fbc09e99c3c	-121.24585197270875
146	0xc05e23efa01f952c	-120.56150057873009
147	0xc05de725108ebea3	-119.61163724841985
148	0xc05dee65bc619909	-119.72495946436915
149	0xc05e42dab98540d7	-121.04459989560142
150	0xc05e861686d03afb	-122.09512491545676
151	0xc05e39140dfc4ff1	-120.89184903755064
152	0xc05e426c213c56bd	-121.03784972088302
153	0xc05ea28a9a2439d9	-122.53970960176174
154	0xc05e541f4326560f	-121.31440809959189
155	0xc05e045952dcc916	-120.06795188485225
156	0xc05e3b38b18586ac	-120.92533529319434
157	0xc05e84743b8a9056	-122.06959427386877
158	0xc05ec61d9cad8389	-123.09555737442692
159	0xc05e6486b80b0546	-121.57072259021979
160	0xc05df622279679ff	-119.84583463377929
161	0xc05df55fe93e338d	-119.83397894930222
162	0xc05e4e38a697ac73	-121.2222076874912
163	0xc05e80bd9bbd38a7	-122.01157277563708
164	0xc05e35fcf2797eb2	-120.84356366982209
165	0xc05f19c72a0be3b4	-124.402781020747
166	0xc05dd9f29f9dd3ac	-119.40543356335428
167	0xc05de42ed39582f9	-119.56535806275123
168	0xc05dccd42a6cada7	-119.2004495679199
169	0xc05e1c362ae7564c	-120.44080612746728
170	0xc05e47beecc44053	-121.1210281292454
171	0xc05e40e98713ff3d	-121.01425339653811
172	0xc05e994eb272c294	-122.39542828757322
173	0xc05e0567025b4b26	-120.08441218295465
174	0xc05defa407d58619	-119.7443866334146
175	0xc05e3dce8060a451	-120.96572884977037
176	0xc05e9a2c2b85260a	-122.40894592287819
177	0xc05e13d337e2d48d	-120.30976674224276
178	0xc05dc4807871b77f	-119.0703412161365
179	0xc05dca436243e553	-119.16036278372239
180	0xc05da9b2a560e7aa	-118.65152868712781
181	0xc05eee67b61e7d00	-123.72508004166957
182	0xc05ebe03bab1e9f7	-122.96897761701972
183	0xc05f4a90ed19b2e6	-125.16509559163714
184	0xc05eb7ebc1cd02f9	-122.87376446743646
185	0xc05e93f09892cbdb	-122.31155981383874
186	0xc05e7bb397c1debe	-121.93283647472978
187	0xc05e4583c8063eea	-121.08616829500139
188	0xc05df437a7d14e13	-119.81589694442691
189	0xc05e2eab746154a3	-120.72921475892012
190	0xc05df33eabb37aad	-119.80070011641756
191	0xc05e43de26d58861	-121.06043406346136
192	0xc05eba903db98719	-122.91505377881948
193	0xc05ed48f0677be05	-123.3212295693739
194	0xc05ef15d6362bd80	-123.77132496492959
195	0xc05ef0631178e975	-123.75604664619262
196	0xc05ed5697f22440e	-123.33456400247834
197	0xc05e6caba6e95a3f	-121.69797680652935
198	0xc05e770506a13301	-121.85968175642121
199	0xc05e56d6ba348653	-121.35685591821066
200	0xc05e90be29980a52	-122.26160659644782
201	0xc05dd7c4927e4b31	-119.37137281735774
202	0xc05e13b7296a1803	-120.30805430756304
203	0xc05e5a0e6c89f5af	-121.40713036987903
204	0xc05e59d297abc11c	-121.40347854397663
205	0xc05e667bff1c3c43	-121.60131814725268
206	0xc05e7065afc5ba78	-121.75620645818151
207	0xc05eac16eda73d0e	-122.68889943439373
208	0xc05e92fca0d569f5	-122.29666920510483
209	0xc05e30b80dd5df91	-120.76123376737657
210	0xc05dcbdfe2ff66f6	-119.18553996030445
211	0xc05dcc1db5a2ba08	-119.1893133248451
212	0xc05dfe8325546ed2	-119.97675450559043
213	0xc05ddf39431e1d23	-119.48787000599673
214	0xc05e064e30e3134c	-120.09852239775972
215	0xc05e25e2486a28e5	-120.59193621031916
216	0xc05e22e1c9251270	-120.54503086681666
217	0xc05e327dd6f176be	-120.7889306409879
218	0xc05de814da5069d2	-119.62627275326602
219	0xc05dd0b99232b103	-119.26132636022889
220	0xc05e369eafaf4409	-120.8534354411678
221	0xc05f16aa40e959e4	-124.35414145267674
222	0xc05ec36ee34507dc	-123.0536430524948
223	0xc05e54ef11340038	-121.32709150388916
224	0xc05de7dece1eecac	-119.62297394771548
225	0xc05ddd0827dc16a4	-119.45362278454792
226	0xc05e73fcb4fc0618	-121.8122990094347
227	0xc05e7858904bf8b2	-121.88040549677933
228	0xc05e6f57e25f866b	-121.73973903015728
229	0xc05de48f4c7f561c	-119.57124626574699
230	0xc05e061fac93b86b	-120.09568323541468
231	0xc05e3ca538312477	-120.94758419798914
232	0xc05e47c94d14bef3	-121.12166144395796
233	0xc05e55545bae8b8e	-121.33327381177352
234	0xc05e524bba93d0bd	-121.28587212023827
235	0xc05ec66ea3b163ae	-123.10050289462262
236	0xc05e7ccd709899c7	-121.95003905203258
237	0xc05e6973db181a98	-121.64769627908606
238	0xc05e1853e19ebf96	-120.380119709995
239	0xc05e824c6beaaed8	-122.03591440122852
240	0xc05e574929eca8cd	-121.36384056197421
241	0xc05dbe60eebd038e	-118.97466629465472
242	0xc05dbef6e9684cc2	-118.98382029710322
243	0xc05dbe5b985ab645	-118.9743405233249
244	0xc05e0b41d3a4917d	-120.17589274474263
245	0xc05de9cd11b57fe0	-119.65314142918169
246	0xc05de3989286f41e	-119.55618727854787
247	0xc05dfbccf7097acd	-119.93438507009269
248	0xc05e443a17d14379	-121.0660457175817
249	0xc05e289c7e3db2c9	-120.63455158257706
250	0xc05df97b92561ff8	-119.89816721354134
251	0xc05df6ce17d98b11	-119.85632892841774
252	0xc05e10c2cf3d5018	-120.26189023006043
253	0xc05db43ebaece53d	-118.8163287461693
254	0xc05e16d7e6e301ff	-120.35692760628443
255	0xc05dfc03b43292ca	-119.93772606791313
