chains/ch143_217_353_545_TE_B30.npz (npz, 897880 bytes, 3 tensors)

chain f8 [16000, 5]
0	0x3fbd80c7a49c8909	0.11524627465090388
1	0x3ff8390a1eb2c85a	1.5139256667285026
2	0xc00369dd9d0910d7	-2.4266922253028542
3	0x3fefb567fe8e5ea1	0.9908943149375383
4	0x3fef27cfdd62d674	0.973609859842965
5	0x3fbb1ae3361b4884	0.10587902136765776
6	0x3ff8f185bbce00ec	1.5589654289361148
7	0xc003bd1d3654c4cb	-2.4673408741587983
8	0x3fef86a7bf6f9e99	0.9851874102577823
9	0x3fef2159a3df46f5	0.9728210640552947
10	0x3fba7235bb74d7e9	0.10330520464489691
11	0x3ff9a3b343137f45	1.6024658794558075
12	0xc0039dd78cd7dba5	-2.4520712855696325
13	0x3fefb1332c8a139a	0.9903808469685942
14	0x3feef3c67b998f11	0.9672577299174653
15	0x3fbcf7b6b8328152	0.11315481183055923
16	0x3ff885ec8ef1eab4	1.5326963027752472
17	0xc003dcf048497495	-2.4828801772515114
18	0x3fefda1a018d1943	0.9953737287803864
19	0x3fef5fa6ab9415f1	0.9804261542455476
20	0x3fbcb7e73c2a3d77	0.11218114107963638
21	0x3ff851e9788d681a	1.519998045833296
22	0xc003e230f4925005	-2.485444937434297
23	0x3fefbf3b0027d850	0.9920935633697443
24	0x3fef581ebc92cfc4	0.979506843860229
25	0x3fbe279990ff6845	0.11779174604399241
26	0x3ff79a5aefa78f0d	1.4751843797211592
27	0xc0038f676fb68e48	-2.4450215079866986
28	0x3fef7088a6233fcc	0.9824870343090821
29	0x3fef439a00e11e45	0.9770021454978141
30	0x3fc02b98d9980117	0.1263304769963802
31	0x3ff80e3ce21008d8	1.5034760313579252
32	0xc003d79f57362203	-2.4802843869586026
33	0x3fef5876cea7729c	0.979548839207911
34	0x3fef2b577830cec8	0.9740407321428046
35	0x3fc0af9b228a53eb	0.13035906969585595
36	0x3ff7c1e36764a4cb	1.4848360098642839
37	0xc0035e3e2c955cf9	-2.421017025287821
38	0x3fef37a82e659756	0.9755440622509279
39	0x3ff0011a26a9bb2c	1.000269080188171
40	0x3fc1531d76695c9d	0.13534897119345582
41	0x3ff6b29c6bc52b98	1.4186062059186266
42	0xc003bff99837861a	-2.4687377826637773
43	0x3fef52002573648e	0.9787598353824636
44	0x3fef9846674e1e39	0.9873382585219083
45	0x3fbf53f2e4093bfb	0.12237470691000844
46	0x3ff781b05eb7b767	1.4691623401554013
47	0xc003f5e46fe0dba4	-2.495064615296956
48	0x3fef01ad484ad9d5	0.9689546977959319
49	0x3fef94116f1b7d3d	0.9868247194353114
50	0x3fbbb00106731e15	0.1081543579813274
51	0x3ff83359cb5437d8	1.512536806348626
52	0xc003d701f46233f3	-2.47998419689838
53	0x3feef4de0dec12ea	0.9673910400311716
54	0x3fef49627db653aa	0.9777080970112497
55	0x3fbf5db366ebb32a	0.12252351057732072
56	0x3ff7dd5f12a53262	1.491545746644214
57	0xc0039fe102c25db1	-2.4530658927503386
58	0x3fef4b8c9c454197	0.977972321716197
59	0x3fef24a19498ec64	0.973221578816617
60	0x3fba95d0236badfd	0.10384846558343237
61	0x3ff833e73b6fd4d0	1.512671692061577
62	0xc00383bc1cf6a126	-2.439323641087088
63	0x3fef57bf4221090d	0.9794613162596605
64	0x3fef159125070bf5	0.9713826869195815
65	0x3fb5c1d53b8aa273	0.08498890594149504
66	0x3ff940d98c669bbf	1.5783324703604504
67	0xc0033d30ccdacc7f	-2.4048782352707003
68	0x3fef13123a10dcee	0.9710780271624608
69	0x3fefc2fcff5416bf	0.9925522791752072
70	0x3fb1aa45f389da57	0.06900441356433738
71	0x3ff952f83ba4bac4	1.5827562646697269
72	0xc002d858f4f1f3b2	-2.3556384216630812
73	0x3feeea707a5a30f6	0.9661180867856547
74	0x3fefe675e59197d4	0.996882389427578
75	0x3fb422b702d7dab2	0.0786547071400985
76	0x3ff968351f4c68e1	1.587941286334676
77	0xc002e2e264db6697	-2.3607833747344773
78	0x3fef37ba7dd3e692	0.9755527932713497
79	0x3fef08d2d3753bc0	0.9698270921743344
80	0x3fb65d902de67189	0.08736516113862626
81	0x3ff95efb84a2b88b	1.5856890851096377
82	0xc0033105f65b9db4	-2.3989371535023682
83	0x3feef578578c7b18	0.967464610093745
84	0x3feee98e864e7d71	0.9660103438545048
85	0x3fb5e901934e206f	0.0855866417533677
86	0x3ff9a79ae02c2d9f	1.603419185327631
87	0xc002ffc614c5e9be	-2.374889528550937
88	0x3fef1c4cc998e693	0.9722045838781973
89	0x3fef5d69fc154e44	0.9801530765057085
90	0x3fb47933cd958b12	0.07997440117973678
91	0x3ff988ff6d846ca9	1.5959467199343556
92	0xc002c4d23d81416f	-2.34610412646014
93	0x3fef00be74dd513e	0.9688408167371916
94	0x3fef3980716a9598	0.9757692542231551
95	0x3fb38a1a3d12635b	0.07632602683078231
96	0x3ff8f250bd94d8ee	1.5591590314411934
97	0xc00277b865c9c52b	-2.308457179279363
98	0x3fef58d50b9902ce	0.9795937754170951
99	0x3fef2643372a904d	0.9734207227197743
100	0x3fbbc33f37a041d2	0.10844798191124674
101	0x3ff7cd0f5ca4a775	1.4875634783624865
102	0xc00306ad64305fdb	-2.3782604052794176
103	0x3fef5be7b41e4f6b	0.9799688833177077
104	0x3ff0678f7f3d91ee	1.025283333810076
105	0x3fb7059480f19364	0.0899288954547735
106	0x3ff94ea8efcbd461	1.5817040793456487
107	0xc0032488ec783cfa	-2.3928392862504753
108	0x3fef4c2dcedde6bc	0.9780491867415644
109	0x3feff644214458af	0.9988117837663334
110	0x3fb8d54ed906a352	0.09700482176289185
111	0x3ff92b977eee0b18	1.5731425245473414
112	0xc0036029ce09b82a	-2.42195473639642
113	0x3fef05db6118d2c9	0.9694649597573398
114	0x3fefe93d73dcc673	0.9972216856896935
115	0x3fbc39a210e58b14	0.1102544108630748
116	0x3ff7f786251629ce	1.497930664891658
117	0xc003a75e1e61b611	-2.4567224858826724
118	0x3fef04cfbb4602eb	0.9693373353657909
119	0x3ff07b9217ee9eec	1.0301686224792617
120	0x3fbab9c0468db078	0.10439683649537013
121	0x3ff8bbd3a52ad12a	1.545856137451731
122	0xc003a61017a8a8fa	-2.4560853813501327
123	0x3fef49b8f5fa7505	0.9777493290199862
124	0x3ff094e078b9ae74	1.0363468852837316
125	0x3fbc8125c5a53776	0.11134563517881965
126	0x3ff9044dcc812177	1.5635507572606835
127	0xc0033eb68e3e62fc	-2.4056216347493073
128	0x3fef2dab9591addb	0.9743249818106351
129	0x3ff07510b2b19480	1.0285803775998659
130	0x3fb9fba4ed898992	0.10149603652238273
131	0x3ff8a278ff6cda4e	1.5396661737010109
132	0xc003a23aac7d6e45	-2.454213473871081
133	0x3fef842256cf3a18	0.9848796554086361
134	0x3ff081b662dcfccd	1.0316680776448266
135	0x3fbb6cf78653075f	0.10713145284083002
136	0x3ff82b52343095a6	1.5105764425910393
137	0xc0031bbc7019ab66	-2.388543010505077
138	0x3feec37f5743efe9	0.9613644318010276
139	0x3ff04694645f36af	1.0172313614633983
140	0x3fbb4f04d8ed6dbb	0.10667448326187572
141	0x3ff7b7b703ed9128	1.4823522714078283
142	0xc0032ec1e0a331a7	-2.3978307294657557
143	0x3feebc3825a6a3eb	0.9604759917611977
144	0x3fef9438ce8fa747	0.9868434938809764
145	0x3fb93f288d93816e	0.09861997086000482
146	0x3ff770693db209d0	1.4649441156367295
147	0xc002eabd7a09ff63	-2.364619210653403
148	0x3feed341f239dea6	0.963288281533967
149	0x3fefeedae39cef52	0.9979071088377884
150	0x3fb9009d68838009	0.09766563226321535
151	0x3ff8398f6cc6c943	1.514052796276318
152	0xc00340c7e36f8ac9	-2.4066312569060284
153	0x3feefe7d4e4e257c	0.9685656098746871
154	0x3fefc32c8330d1b2	0.9925749361341814
155	0x3fb8d77d6f0439d2	0.09703811607707927
156	0x3ff84960b7e1010e	1.5179145033617405
157	0xc0034e776c94a9ae	-2.4133137209766664
158	0x3feed1d758791719	0.9631153800953342
159	0x3fef45c75ddbc69c	0.9772679169820608
160	0x3fbed821c378bc90	0.12048541090256237
161	0x3ff7fcf77bbaa8fc	1.499259455983121
162	0xc003dc76d5f479c8	-2.4826485362275186
163	0x3fef38028dce2539	0.9755871553071876
164	0x3feeeb556325c3d4	0.9662272392725932
165	0x3fbe5cfa8c129fef	0.11860624236817306
166	0x3ff82a5cd22f7f8f	1.510342427289263
167	0xc003c710cd40b1ff	-2.4722000155800283
168	0x3fef86460c2bf976	0.9851408231477723
169	0x3fef8823e434b885	0.9853686768672253
170	0x3fbc1777ef5e746a	0.10973310083359569
171	0x3ff7823b334d31a5	1.4692947391477926
172	0xc003162984fa0af4	-2.385821379547787
173	0x3fef63461a28742d	0.9808683882616883
174	0x3fef94c7fd42bb5c	0.9869117685792435
175	0x3fbe2b34ead50768	0.11784678204733512
176	0x3ff85d6302771be8	1.522799501066169
177	0xc003b94c5e85b9e4	-2.4654776939926126
178	0x3fef7bfde61717c3	0.9838857168149321
179	0x3ff00fecb5ab1959	1.0038878532810342
180	0x3fba561d640beffe	0.10287650768799492
181	0x3ff820b60aae34d8	1.507986108513526
182	0xc003cd56eb1c4678	-2.4752634399417808
183	0x3fef53bc9a764d14	0.9789717690313489
184	0x3ff05474fb527529	1.0206193749684849
185	0x3fbbfc1a925abbf4	0.1093155486403104
186	0x3ff8144a7b06e090	1.5049538427101972
187	0xc00376c20604504f	-2.4329872579637946
188	0x3fef683a36aee26b	0.9814730709104657
189	0x3ff050cc4373a9ba	1.019726050838115
190	0x3fbcaee97c43367c	0.11204394611123719
191	0x3ff8a00ca6b55c5c	1.539074565129133
192	0xc00368abdd835790	-2.4261090570170794
193	0x3feeec741398c9f8	0.9663639433622953
194	0x3fefdcf421a46e84	0.9957218796802896
195	0x3fbdfe87865d70f5	0.11716506033321024
196	0x3ff832c089608389	1.5123906484879817
197	0xc0031f6a7db907d7	-2.3903398344127527
198	0x3feed90e2516a395	0.9639960026153057
199	0x3ff03c917dd6fb53	1.0147871890655622
200	0x3fc02d2c377525b4	0.1263785620488257
201	0x3ff7fcbd266949fe	1.4992038250389892
202	0xc003515fb663d006	-2.4147333382807146
203	0x3fee3eb4e00cd136	0.9451546073892476
204	0x3fef8aa992061ed9	0.9856765605954606
205	0x3fbc2d9efaae13ae	0.11007112140766992
206	0x3ff89ba068570bec	1.5379947734625103
207	0xc002ec3e484406ec	-2.3653531690368848
208	0x3fee8d13aa8d7453	0.9547212916473974
209	0x3ff05c89d80badef	1.0225923957140102
210	0x3fbc6317a64fbf99	0.11088702974643495
211	0x3ff8ab26e0945004	1.541785123122282
212	0xc002b90206cf5ed0	-2.340335896686021
213	0x3fee67495bd4b782	0.950108222348476
214	0x3ff038326ec65770	1.0137199713840026
215	0x3fb9da607b19e0bd	0.1009884167232284
216	0x3ff894b215f41289	1.5363026483111375
217	0xc00286bb3c4d2e9d	-2.315786810975466
218	0x3feea5cf8142ab55	0.957740547620555
219	0x3ff0641e0b5edd69	1.0244427150881512
220	0x3fc0c88448dc6960	0.1311192851797598
221	0x3ff8658a96408809	1.524790369913264
222	0xc00341b6d163a9c0	-2.407086978773094
223	0x3fee9ea9e72ff870	0.9568681254747968
224	0x3ff02464d5e1f988	1.0088852267068393
225	0x3fbf09a6b080dc0b	0.12124101456798557
226	0x3ff98694ed418272	1.5953568713959183
227	0xc003427af7a4449d	-2.407461104107439
228	0x3fee2ebedcc7fd84	0.9432062446721123
229	0x3fefa72f970eb2ab	0.9891584349002945
230	0x3fbafef64e01c102	0.10545291332687515
231	0x3ff91506e7d2c218	1.5676335387798925
232	0xc003701e63ffb3be	-2.4297454655083746
233	0x3fee2fc2dc187475	0.9433302210560571
234	0x3feeeb67b46c4a80	0.9662359737288426
235	0x3fbaf2e36259b19b	0.1052686801064681
236	0x3ff9086532c431a7	1.5645496352254697
237	0xc0034a95ba2e9537	-2.41141839461002
238	0x3fee01e9fa06d203	0.9377336390812733
239	0x3fefdd43661bb29c	0.9957596773434321
240	0x3fba66a8417d15ee	0.10312892531245385
241	0x3ff998db9a299241	1.599818803974941
242	0xc0033191f967162c	-2.3992042049965416
243	0x3feeba7432034cc1	0.9602604843916184
244	0x3ff07ca00e70afe9	1.030426079184503
245	0x3fbd275fd4aeee66	0.11388205473388666
246	0x3ff9051977f5ca23	1.563744991869165
247	0xc0030b03e1c6b45b	-2.380378497959595
248	0x3fef819eb9c515d2	0.9845727566068325
249	0x3fefe36132de44de	0.9965063088913231
250	0x3fbf46a347ebfdb5	0.12217159753708169
251	0x3ff8b8e9eba14ee2	1.5451449589062851
252	0xc002f86378456ac5	-2.3712834736046227
253	0x3feeca9b6129fb70	0.9622322938665615
254	0x3ff03509c7ab6e02	1.0129487800212478
255	0x3fba4619a03d5726	0.10263214265918616

weight f8 [16000]
0	0x4010000000000000	4.0
1	0x4000000000000000	2.0
2	0x4000000000000000	2.0
3	0x3ff0000000000000	1.0
4	0x4000000000000000	2.0
5	0x4008000000000000	3.0
6	0x4000000000000000	2.0
7	0x4010000000000000	4.0
8	0x4008000000000000	3.0
9	0x4000000000000000	2.0
10	0x3ff0000000000000	1.0
11	0x4008000000000000	3.0
12	0x4000000000000000	2.0
13	0x4026000000000000	11.0
14	0x4008000000000000	3.0
15	0x4000000000000000	2.0
16	0x4020000000000000	8.0
17	0x4008000000000000	3.0
18	0x4000000000000000	2.0
19	0x3ff0000000000000	1.0
20	0x4018000000000000	6.0
21	0x4000000000000000	2.0
22	0x4014000000000000	5.0
23	0x4014000000000000	5.0
24	0x4000000000000000	2.0
25	0x4018000000000000	6.0
26	0x4014000000000000	5.0
27	0x3ff0000000000000	1.0
28	0x3ff0000000000000	1.0
29	0x4022000000000000	9.0
30	0x4020000000000000	8.0
31	0x4000000000000000	2.0
32	0x3ff0000000000000	1.0
33	0x3ff0000000000000	1.0
34	0x3ff0000000000000	1.0
35	0x3ff0000000000000	1.0
36	0x4000000000000000	2.0
37	0x4022000000000000	9.0
38	0x4008000000000000	3.0
39	0x401c000000000000	7.0
40	0x4008000000000000	3.0
41	0x3ff0000000000000	1.0
42	0x3ff0000000000000	1.0
43	0x4000000000000000	2.0
44	0x3ff0000000000000	1.0
45	0x4008000000000000	3.0
46	0x4008000000000000	3.0
47	0x4026000000000000	11.0
48	0x4020000000000000	8.0
49	0x3ff0000000000000	1.0
50	0x4008000000000000	3.0
51	0x3ff0000000000000	1.0
52	0x4010000000000000	4.0
53	0x4000000000000000	2.0
54	0x3ff0000000000000	1.0
55	0x3ff0000000000000	1.0
56	0x4028000000000000	12.0
57	0x3ff0000000000000	1.0
58	0x4000000000000000	2.0
59	0x4000000000000000	2.0
60	0x4000000000000000	2.0
61	0x4010000000000000	4.0
62	0x3ff0000000000000	1.0
63	0x3ff0000000000000	1.0
64	0x4000000000000000	2.0
65	0x4030000000000000	16.0
66	0x4018000000000000	6.0
67	0x4010000000000000	4.0
68	0x4020000000000000	8.0
69	0x4000000000000000	2.0
70	0x4000000000000000	2.0
71	0x4000000000000000	2.0
72	0x4014000000000000	5.0
73	0x3ff0000000000000	1.0
74	0x3ff0000000000000	1.0
75	0x3ff0000000000000	1.0
76	0x4000000000000000	2.0
77	0x4020000000000000	8.0
78	0x4020000000000000	8.0
79	0x4031000000000000	17.0
80	0x3ff0000000000000	1.0
81	0x4000000000000000	2.0
82	0x3ff0000000000000	1.0
83	0x3ff0000000000000	1.0
84	0x4010000000000000	4.0
85	0x4000000000000000	2.0
86	0x4000000000000000	2.0
87	0x3ff0000000000000	1.0
88	0x401c000000000000	7.0
89	0x4000000000000000	2.0
90	0x4008000000000000	3.0
91	0x4000000000000000	2.0
92	0x3ff0000000000000	1.0
93	0x4000000000000000	2.0
94	0x3ff0000000000000	1.0
95	0x401c000000000000	7.0
96	0x3ff0000000000000	1.0
97	0x4008000000000000	3.0
98	0x4010000000000000	4.0
99	0x4024000000000000	10.0
100	0x3ff0000000000000	1.0
101	0x3ff0000000000000	1.0
102	0x402e000000000000	15.0
103	0x3ff0000000000000	1.0
104	0x4008000000000000	3.0
105	0x3ff0000000000000	1.0
106	0x4000000000000000	2.0
107	0x4018000000000000	6.0
108	0x3ff0000000000000	1.0
109	0x4024000000000000	10.0
110	0x4020000000000000	8.0
111	0x3ff0000000000000	1.0
112	0x4014000000000000	5.0
113	0x3ff0000000000000	1.0
114	0x3ff0000000000000	1.0
115	0x4014000000000000	5.0
116	0x3ff0000000000000	1.0
117	0x4010000000000000	4.0
118	0x4008000000000000	3.0
119	0x4000000000000000	2.0
120	0x3ff0000000000000	1.0
121	0x3ff0000000000000	1.0
122	0x3ff0000000000000	1.0
123	0x4008000000000000	3.0
124	0x4000000000000000	2.0
125	0x4000000000000000	2.0
126	0x4014000000000000	5.0
127	0x4008000000000000	3.0
128	0x3ff0000000000000	1.0
129	0x4010000000000000	4.0
130	0x4010000000000000	4.0
131	0x4000000000000000	2.0
132	0x4000000000000000	2.0
133	0x4010000000000000	4.0
134	0x4000000000000000	2.0
135	0x4000000000000000	2.0
136	0x401c000000000000	7.0
137	0x4000000000000000	2.0
138	0x3ff0000000000000	1.0
139	0x4014000000000000	5.0
140	0x4000000000000000	2.0
141	0x4000000000000000	2.0
142	0x3ff0000000000000	1.0
143	0x3ff0000000000000	1.0
144	0x4000000000000000	2.0
145	0x4010000000000000	4.0
146	0x4010000000000000	4.0
147	0x4000000000000000	2.0
148	0x4010000000000000	4.0
149	0x3ff0000000000000	1.0
150	0x4018000000000000	6.0
151	0x4008000000000000	3.0
152	0x3ff0000000000000	1.0
153	0x4008000000000000	3.0
154	0x4000000000000000	2.0
155	0x4000000000000000	2.0
156	0x3ff0000000000000	1.0
157	0x4024000000000000	10.0
158	0x4000000000000000	2.0
159	0x3ff0000000000000	1.0
160	0x4010000000000000	4.0
161	0x4026000000000000	11.0
162	0x4014000000000000	5.0
163	0x4018000000000000	6.0
164	0x4000000000000000	2.0
165	0x4008000000000000	3.0
166	0x4000000000000000	2.0
167	0x4000000000000000	2.0
168	0x3ff0000000000000	1.0
169	0x4024000000000000	10.0
170	0x4000000000000000	2.0
171	0x3ff0000000000000	1.0
172	0x4008000000000000	3.0
173	0x4008000000000000	3.0
174	0x4000000000000000	2.0
175	0x4008000000000000	3.0
176	0x4000000000000000	2.0
177	0x4008000000000000	3.0
178	0x3ff0000000000000	1.0
179	0x4010000000000000	4.0
180	0x4000000000000000	2.0
181	0x4018000000000000	6.0
182	0x4000000000000000	2.0
183	0x3ff0000000000000	1.0
184	0x4008000000000000	3.0
185	0x4018000000000000	6.0
186	0x3ff0000000000000	1.0
187	0x3ff0000000000000	1.0
188	0x4018000000000000	6.0
189	0x4008000000000000	3.0
190	0x402e000000000000	15.0
191	0x402c000000000000	14.0
192	0x4024000000000000	10.0
193	0x3ff0000000000000	1.0
194	0x3ff0000000000000	1.0
195	0x4018000000000000	6.0
196	0x3ff0000000000000	1.0
197	0x4008000000000000	3.0
198	0x3ff0000000000000	1.0
199	0x4022000000000000	9.0
200	0x3ff0000000000000	1.0
201	0x3ff0000000000000	1.0
202	0x3ff0000000000000	1.0
203	0x4000000000000000	2.0
204	0x4018000000000000	6.0
205	0x3ff0000000000000	1.0
206	0x3ff0000000000000	1.0
207	0x4000000000000000	2.0
208	0x4010000000000000	4.0
209	0x3ff0000000000000	1.0
210	0x3ff0000000000000	1.0
211	0x3ff0000000000000	1.0
212	0x401c000000000000	7.0
213	0x3ff0000000000000	1.0
214	0x4010000000000000	4.0
215	0x4008000000000000	3.0
216	0x4018000000000000	6.0
217	0x4010000000000000	4.0
218	0x3ff0000000000000	1.0
219	0x4010000000000000	4.0
220	0x4000000000000000	2.0
221	0x4014000000000000	5.0
222	0x3ff0000000000000	1.0
223	0x4026000000000000	11.0
224	0x3ff0000000000000	1.0
225	0x4010000000000000	4.0
226	0x4014000000000000	5.0
227	0x3ff0000000000000	1.0
228	0x3ff0000000000000	1.0
229	0x4014000000000000	5.0
230	0x4022000000000000	9.0
231	0x4010000000000000	4.0
232	0x3ff0000000000000	1.0
233	0x4018000000000000	6.0
234	0x3ff0000000000000	1.0
235	0x3ff0000000000000	1.0
236	0x3ff0000000000000	1.0
237	0x3ff0000000000000	1.0
238	0x4000000000000000	2.0
239	0x3ff0000000000000	1.0
240	0x4000000000000000	2.0
241	0x3ff0000000000000	1.0
242	0x4000000000000000	2.0
243	0x3ff0000000000000	1.0
244	0x4000000000000000	2.0
245	0x4010000000000000	4.0
246	0x3ff0000000000000	1.0
247	0x3ff0000000000000	1.0
248	0x3ff0000000000000	1.0
249	0x3ff0000000000000	1.0
250	0x3ff0000000000000	1.0
251	0x4000000000000000	2.0
252	0x3ff0000000000000	1.0
253	0x4010000000000000	4.0
254	0x3ff0000000000000	1.0
255	0x4028000000000000	12.0

lkl f8 [16000]
0	0xc06c711f6e09eabd	-227.53508665024665
1	0xc06c7cd4f8658600	-227.90099735096737
2	0xc06cdf8eaa320532	-230.98616513986195
3	0xc06ca5591145806d	-229.16712249350113
4	0xc06c95b4b79be1fd	-228.67831020780423
5	0xc06c53d92cc772c3	-226.62026061014885
6	0xc06c58ee5faf162e	-226.7790983600293
7	0xc06c15c2d3449e42	-224.68003238107673
8	0xc06c8a140f184fd9	-228.31494860409182
9	0xc06c555f86191137	-226.66791062255808
10	0xc06c475e4cbcede2	-226.23026120090714
11	0xc06c4240700e45c0	-226.07036593234625
12	0xc06c537f9dd0a10e	-226.60932818172336
13	0xc06c3f04cdab0eb4	-225.96933635148673
14	0xc06ca1c649172576	-229.05545477410095
15	0xc06cb6d1eeb96909	-229.71312652790974
16	0xc06c839a4dd0c881	-228.11258593347523
17	0xc06c8479dbf9f074	-228.13987540069832
18	0xc06cae1a05493eb3	-229.44067634874008
19	0xc06cfd24826aaef0	-231.9107067187938
20	0xc06c3f216a9d4b56	-225.9728291580347
21	0xc06c42fd78bc14bb	-226.0934413598496
22	0xc06c1c84472b7ec2	-224.89114721770426
23	0xc06c27ef14cc77fc	-225.24793472228328
24	0xc06c49d6aa28ce50	-226.30745418519882
25	0xc06c5d8527526242	-226.9225041016635
26	0xc06c52797e0c50a5	-226.57733061223294
27	0xc06c132c9bde3b55	-224.59919541744844
28	0xc06c22a0e7377816	-225.08214150270277
29	0xc06c51f99f695cc7	-226.56172152117344
30	0xc06c0fe7cc167cb3	-224.49704555885327
31	0xc06c31024304ec0c	-225.53152609788265
32	0xc06c6ffb2bb97a82	-227.49941049791602
33	0xc06c497bb85be281	-226.29635255762335
34	0xc06c477b856c48b1	-226.23382826947412
35	0xc06c2a9de4ac7cee	-225.33177407921852
36	0xc06c42c555ee506b	-226.0865888266156
37	0xc06c1c8a2fbdea42	-224.89186846821582
38	0xc06c01d7bde2b5fb	-224.0575856616923
39	0xc06c1acbe6e11717	-224.83739036524705
40	0xc06c4bebeeb0f900	-226.3725503403184
41	0xc06c682b909efa3d	-227.25531798410694
42	0xc06ca9d0c3bdc8db	-229.3067339617472
43	0xc06cb61d7a1fa4b1	-229.6910982721361
44	0xc06c56e5f272deb6	-226.71556971011677
45	0xc06d088d56cb3dca	-232.26725330062465
46	0xc06c96160f3504cf	-228.69019279818755
47	0xc06c822f8d190301	-228.0683045853148
48	0xc06ca0b1165f257e	-229.02161711295406
49	0xc06c82b954c364d3	-228.0851234260832
50	0xc06c88c2a4294b4f	-228.27375991883534
51	0xc06c6bb62b2321ed	-227.36598736631223
52	0xc06c499520459f88	-226.29945386503482
53	0xc06c4608d91255d2	-226.18858007031537
54	0xc06c1947ddb9e7e8	-224.79002271947616
55	0xc06c3649e53767bd	-225.696520431722
56	0xc06c4449344db23d	-226.13393607306526
57	0xc06c53d9df2338c3	-226.62034565810436
58	0xc06c9575605c035a	-228.67057817431743
59	0xc06c48d8e2992ad1	-226.276475237994
60	0xc06c86a61d222b57	-228.20777756379786
61	0xc06c518e2843186d	-226.54860318283627
62	0xc06c9b1c8b4594ef	-228.84723437872114
63	0xc06c50397491e9bf	-226.50701359270712
64	0xc06c5c8b68245b18	-226.89201743221997
65	0xc06c134abb177185	-224.60287241534039
66	0xc06c25e80b8eb6da	-225.18457582353477
67	0xc06c0d400eeebd9e	-224.4140696204094
68	0xc06c9ec006e7c8aa	-228.960940792754
69	0xc06c8eedf4f7e0a2	-228.46654747403687
70	0xc06c8b1b4617f1ef	-228.3470793216397
71	0xc06cbbf42f42fa45	-229.87355769235197
72	0xc06c6fc143ec8488	-227.49234195895065
73	0xc06c456979970e45	-226.16912536147188
74	0xc06c4252898316f9	-226.07257533648934
75	0xc06c3248c31d4cd4	-225.57138210032156
76	0xc06c4b83c45a17a1	-226.3598348388305
77	0xc06c2b15231b465b	-225.34633021666636
78	0xc06c1b051201b22f	-224.84436893779045
79	0xc06c236d5bb275a9	-225.10709938865082
80	0xc06c4122af27ade2	-226.035483911036
81	0xc06c3de16d9a423c	-225.93376808289202
82	0xc06c53d5c0f7c026	-226.6198429907683
83	0xc06c65d0552bfab7	-227.18168123807638
84	0xc06c7031390fccaf	-227.50600865445946
85	0xc06c78fe5ba3b03d	-227.78104955644986
86	0xc06c26225e249f2d	-225.19169528153125
87	0xc06c675f75f2c847	-227.23040292185235
88	0xc06c5d77113fb873	-226.92078459210788
89	0xc06c507ba7979756	-226.51509456260345
90	0xc06c359bb1d620a8	-225.67525569745817
91	0xc06c0f942b6be0d4	-224.48683711118667
92	0xc06c115bebe38724	-224.5424708789734
93	0xc06c2833c86fb67e	-225.25632116145056
94	0xc06c3770351bbed1	-225.73244719904918
95	0xc06c1d3c9b8b6b45	-224.9136483881977
96	0xc06c30949cc9a91c	-225.5181411684688
97	0xc06c2e9251d6ae9e	-225.45536128931138
98	0xc06c121e9837fd89	-224.56623469291324
99	0xc06c056c962e50d4	-224.1695052055935
100	0xc06c368705ec2eb6	-225.7039823162974
101	0xc06c48e4d1b8ef92	-226.27793203468588
102	0xc06c2f34fec8b6af	-225.4752191467464
103	0xc06c397498630561	-225.79548281993905
104	0xc06c2048e6ebc1a4	-225.00889917417692
105	0xc06c0d929229a7f9	-224.4241419614407
106	0xc06c1595b77f2ad6	-224.67452597463006
107	0xc06c1c5955e51bab	-224.885905215718
108	0xc06c277c8ef908bc	-225.23395489348866
109	0xc06c198f8b8d45a6	-224.79877259819222
110	0xc06c03d28a6b138b	-224.11945076859806
111	0xc06c28cff321ef9a	-225.27538448932756
112	0xc06c3d4feb3be3fd	-225.91600572297457
113	0xc06c36c0eb07f22b	-225.7110495715327
114	0xc06c13a580bcbc91	-224.61395298826804
115	0xc06c75ce1172a5ac	-227.68140480415366
116	0xc06c3b41a51cfc74	-225.8517633024345
117	0xc06c229e0da0a25d	-225.08179360746263
118	0xc06c835cfe2de865	-228.1051016708981
119	0xc06cb2209b31a7d7	-229.56648025225033
120	0xc06c5e7d62b74802	-226.952805860492
121	0xc06c31e67f5d5100	-225.55938690400944
122	0xc06c2b3fae4e9ee4	-225.35152354579543
123	0xc06c13f1c24616e9	-224.62326158227305
124	0xc06c2fd7c5a01d88	-225.49508935234576
125	0xc06c3884b731a284	-225.76620063490202
126	0xc06c2f8d84d8675f	-225.48602525965086
127	0xc06c131188a12579	-224.59589034532453
128	0xc06c14372bfe31da	-224.6317348446599
129	0xc06c419a4e0a070e	-226.05008604010112
130	0xc06c28b8929d3c8a	-225.27253084860087
131	0xc06c3bd9e1441b0a	-225.8703466730297
132	0xc06c407074ff3296	-226.01372766345293
133	0xc06c4200b22b16dc	-226.06258495727423
134	0xc06c5c5ceb7cf59e	-226.88634275823728
135	0xc06c3279174e20c6	-225.57728162059192
136	0xc06c36a19b4707fd	-225.70722736237795
137	0xc06c1b5467a3de81	-224.85405332570738
138	0xc06c196c80dd3601	-224.79449504094376
139	0xc06c27ca72533d96	-225.24346271760868
140	0xc06c292ebd554d4b	-225.28695551548512
141	0xc06c186957e864f4	-224.76285930051347
142	0xc06c4f14f826a625	-226.4713097338546
143	0xc06c377ec5f75f12	-225.73422525706025
144	0xc06c3d3ad544adf6	-225.9134317723653
145	0xc06c3beebbec360c	-225.87289234290108
146	0xc06c08e0fe82348d	-224.2774651091644
147	0xc06c1585cc63975f	-224.672582811846
148	0xc06c5cdc86f6e153	-226.90191982477936
149	0xc06c4cb719bada41	-226.39735113615646
150	0xc06cb2cbbb433e2a	-229.5873695672356
151	0xc06cd4804d6dabf5	-230.64066192074065
152	0xc06cbe7c823aa7ff	-229.95269881683632
153	0xc06cb892b3cc31c8	-229.76790799981814
154	0xc06c57dc9e58aea0	-226.74568097420433
155	0xc06c63d09a6f3183	-227.11921426503622
156	0xc06c982bda1f5ecf	-228.7553530323698
157	0xc06c8028ac9a150a	-228.00496511549164
158	0xc06c83bd2bcac636	-228.1168421707568
159	0xc06c4d31a0b917c6	-226.41230808402014
160	0xc06c3ac5615fc98c	-225.83659428318458
161	0xc06c762b52266531	-227.69278819560125
162	0xc06c34a01fe3f9d9	-225.64454645659023
163	0xc06c18ad85505f51	-224.77118173310967
164	0xc06c126dbb16a035	-224.57589487475494
165	0xc06c15a021ea9f64	-224.6757974226449
166	0xc06c20823225a1f4	-225.01589305257914
167	0xc06c12c7ca26a357	-224.58688838526243
168	0xc06c1f6d34f69a01	-224.98208091892596
169	0xc06c2068436647f0	-225.01272745110282
170	0xc06c310bbbe90f3b	-225.53268237609322
171	0xc06c07024b420563	-224.21903002638564
172	0xc06c0820bc30e811	-224.25399598648121
173	0xc06c28cf3f701da5	-225.27529880426042
174	0xc06c378033c145f1	-225.73439967869447
175	0xc06c308959765d23	-225.51676629178937
176	0xc06c07ca5bf1791d	-224.2434520450851
177	0xc06c14a07aa50b7d	-224.64458973155334
178	0xc06c0c67bb2e0464	-224.3876624964497
179	0xc06c0a0250e93668	-224.31278272198983
180	0xc06c279fe2e17a6e	-225.2382673648712
181	0xc06c442eb908d788	-226.13070346571863
182	0xc06c032981ebe5f1	-224.09881683420056
183	0xc06c4983be1b76b0	-226.29733186115254
184	0xc06c249ca1555471	-225.1441198984717
185	0xc06c0c9180338f61	-224.39276132650687
186	0xc06c25de655fcde9	-225.18339794837746
187	0xc06c428c3a1754a6	-226.0796175437619
188	0xc06c532e37c1ae4d	-226.59939182117742
189	0xc06c46a2e2d6bb11	-226.2073835557899
190	0xc06c396fcf5bafc3	-225.7948986807588
191	0xc06c23d405414f33	-225.11963141208398
192	0xc06c23735b24ec44	-225.10783154689318
193	0xc06c3942511a5116	-225.78934531345357
194	0xc06c2f6b5a60885f	-225.4818546185879
195	0xc06c22a1ad6648a9	-225.08223600365935
196	0xc06c00bed36cca4b	-224.02329417465293
197	0xc06c1b730b19cdf0	-224.85779337921076
198	0xc06c2ced215fee59	-225.40394657837422
199	0xc06c6a6f94bf8343	-227.3261207333072
200	0xc06c6835a45b7c59	-227.2565480982619
201	0xc06ca12c3ae61f57	-229.0366491789416
202	0xc06cba814582a45b	-229.82828021541613
203	0xc06cc20749704a7c	-230.06338951045825
204	0xc06c74235258dd00	-227.62931172710523
205	0xc06c47c230313ebf	-226.24245462053474
206	0xc06c2ccfc1d539ff	-225.40036098142443
207	0xc06c75aaddabee65	-227.67710765438383
208	0xc06c7f5c5ae5948f	-227.98002381172088
209	0xc06c909f5ee4c614	-228.51945442850467
210	0xc06c952c5e5f50df	-228.66166609398257
211	0xc06c81ca53543ac8	-228.055947937499
212	0xc06cb68057848bd7	-229.7031667317194
213	0xc06c6fc90a58fbf7	-227.49329106693014
214	0xc06c3f1db169d609	-225.97237463637455
215	0xc06c3998bcb13002	-225.79989466292324
216	0xc06c4bc332a27816	-226.36757785541766
217	0xc06c6e06ddf12603	-227.43833825206102
218	0xc06c7882cb73d007	-227.7659661542859
219	0xc06c7d037a681abb	-227.9066745789804
220	0xc06c4d6cacc85a05	-226.41951598292522
221	0xc06c27c3668bb062	-225.24260260851867
222	0xc06c295783ddb277	-225.2919329957983
223	0xc06c3c196c202154	-225.87810331607272
224	0xc06c3296cc31952d	-225.58090791401028
225	0xc06c0e05929aff43	-224.43818025849222
226	0xc06c56164c0d5a50	-226.69022181137052
227	0xc06c72ee5c17f485	-227.5915966480135
228	0xc06c8ec1d7e1a308	-228.46116251058288
229	0xc06c882002f1ff9e	-228.25390765443166
230	0xc06c7d332c3b393e	-227.91249667708502
231	0xc06c6cd9c6792f03	-227.40158389729194
232	0xc06c00f098aff720	-224.02936968200902
233	0xc06c116c242621cf	-224.5444508309142
234	0xc06c362e770b18d6	-225.69317199866663
235	0xc06c689be560a66c	-227.26903027417154
236	0xc06c4b3739d417cd	-226.35049144195946
237	0xc06c7bb0ab5b8d63	-227.86531608468349
238	0xc06c8887395784f6	-228.26650683492306
239	0xc06c872dc7e483b7	-228.22433848029843
240	0xc06c3995195f0948	-225.79945057451027
241	0xc06c328a778fce73	-225.5794027146072
242	0xc06c3308135ab89d	-225.5947357913873
243	0xc06c69639aba6a85	-227.2934087410869
244	0xc06c3e5761d16fe5	-225.94816676049882
245	0xc06c0db89c6a4ae1	-224.42878552208188
246	0xc06c0c4619c5411c	-224.38355721021878
247	0xc06c36ec919c4920	-225.71637802624264
248	0xc06c6fa18feb6e8e	-227.48847194655212
249	0xc06c3ec5f2175a51	-225.96166328965276
250	0xc06c4e4ac99bb548	-226.4466293374228
251	0xc06c48033cf9811b	-226.250395285905
252	0xc06c33c6e314b108	-225.6180282024509
253	0xc06c087134d4e121	-224.26381913736353
254	0xc06c245b00ad9d7d	-225.136108721821
255	0xc06c30578b2a4c93	-225.51068647634074
