chains/ch143_217_353_EE_B50.npz (npz, 897880 bytes, 3 tensors)

chain f8 [16000, 5]
00000000: 2c3e 0a8a d206 a83f 38ce 44c2 ca3e f83f
00000010: 98ff bbf2 a864 03c0 3c88 760e 6f17 ef3f
00000020: e183 35ca dd37 f03f f408 e7ba e8ae aa3f
00000030: f52a e9de bc8e f73f da08 78bf 786c 03c0
00000040: 255c 4bef bdee ee3f bb39 f190 f12e f03f
00000050: 74a1 4e85 117f a83f 0bb0 4498 d3e9 f73f
00000060: 526b 951c de98 03c0 db41 bd08 2402 ef3f
00000070: fec8 420b b426 f03f 2dc6 0742 f84b a83f
00000080: 6f0e 972b e532 f83f 34e4 b83b 9e6a 03c0
00000090: 1a2f f5d3 bacb ee3f 8411 e92f f43a f03f
000000a0: 3cfd 5a41 0948 a63f eb90 adf7 249c f83f
000000b0: 2ff1 dc52 cd64 03c0 8685 7aeb e3ff ee3f
000000c0: ad38 0f65 b6f3 ef3f 442f a084 d463 a03f
000000d0: 6787 b277 f53c f93f b440 e9e2 7c2b 03c0
000000e0: 1922 c65f 1446 ef3f 442b 299e 15b1 ef3f
000000f0: e4d1 3457 a2e4 9e3f 4f35 e242 d644 f93f
00000100: 45b8 5756 9655 03c0 6881 4d3a 2a57 ef3f
00000110: ae06 f1eb e2de ef3f 72ea 05c3 a209 a13f
00000120: 6b03 4120 734b f83f d11a 32f5 889c 03c0
00000130: 3a30 ce17 be89 ef3f 623d d01a acbd ef3f
00000140: 9097 8876 a45a a23f 7a8d 23b7 1756 f83f
00000150: e877 249d 1c68 03c0 5708 33ab 8f9e ef3f
00000160: 55f2 e12d ea95 ef3f 2e35 78a0 26cc a83f
00000170: 063e 71f2 e3bb f73f 1dc4 047a 46ec 02c0
00000180: 2464 8211 0552 ef3f 21b8 c983 f77b ef3f
00000190: 4a74 3e78 3a10 a83f 0108 17ca 7f74 f73f
000001a0: 796b 67ce 1532 03c0 1caa cdb3 fba9 ef3f
000001b0: 808e b16f 661e f03f c2d0 e500 c29a ab3f
000001c0: bf71 5635 7a39 f73f f6b7 0429 df72 03c0
000001d0: 29ee 809b 1014 ef3f 5f57 67fa 540a f03f
000001e0: 877b 4afe 6ced a33f 9b8f 73f1 4734 f83f
000001f0: fedb 5eb2 e63c 03c0 05b0 7c57 6e72 ef3f
00000200: c2ca 21a1 3b4d f03f 4794 c054 b32c a93f
00000210: eb7b 3c45 7095 f83f 4e92 dd7b 8e87 03c0
00000220: 38a8 e4a8 a059 ef3f c08a a2e4 1b65 f03f
00000230: f2df 2098 718c a93f 3680 26ed 2e99 f83f
00000240: 2339 9f76 6887 03c0 c4d0 f5b7 5918 ef3f
00000250: a97b 067e 6ba9 f03f af52 2b93 174d a83f
00000260: 0a7e c354 dfb5 f83f 198e f4e8 f267 03c0
00000270: 1b9f 3391 b54b ef3f b47a 8639 2717 f03f
00000280: f9e9 0a53 b7d5 a73f c96b e06d 9a6f f83f
00000290: 4562 7b73 5186 03c0 2ee9 d1e6 b773 ef3f
000002a0: 4362 a90b f14f f03f b022 9314 4870 a83f
000002b0: 09b6 1b5c 09cb f73f aa53 5334 8fb6 03c0
000002c0: 8453 3302 ae58 ef3f 0efc d924 96e6 ef3f
000002d0: f231 e2a6 b073 a73f 54cb 16d5 11fb f73f
000002e0: 4925 a8fc 6e5f 03c0 d576 f5ca 23c3 ef3f
000002f0: 1e1b 0dd6 8697 ef3f 23c4 62b6 4f1e a93f
00000300: 1a59 74b5 890d f73f 7f12 fbe6 fb7d 03c0
00000310: 10d0 2a94 0268 ef3f dc54 d2e0 973d f03f
00000320: 1817 82f0 502b af3f a586 feb5 e461 f73f
00000330: d189 bd40 0242 03c0 1a06 c282 d756 ef3f
00000340: 57bc 2ffd 4756 ef3f c89f 7e5a 82b2 af3f
00000350: 6671 ac19 ab14 f83f a2ec b325 753a 03c0
00000360: eaf6 692c 773f ef3f 108f af5b 411f ef3f
00000370: 2cdf 1a73 503e b03f ee6e ff74 f29d f83f
00000380: 3c45 3509 be3d 03c0 e03e 5671 641a ef3f
00000390: b468 ba95 10c0 ef3f c606 0412 6b51 b13f
000003a0: f5f1 e910 cd40 f83f c181 54f2 952f 03c0
000003b0: def0 1990 7689 ee3f afaf bc3b 3552 ef3f
000003c0: f920 7690 4cb2 aa3f 7010 f869 e42e f93f
000003d0: 79b1 226a 38be 03c0 476a 1a9e 75db ee3f
000003e0: a007 a497 3ef2 ef3f 8684 df90 67f8 aa3f
000003f0: 17ef 0287 84cc f93f 6102 32d4 8bba 03c0
00000400: 0985 842e c224 ef3f 5499 607c 1c03 f03f
00000410: 5096 c27e 4976 a73f 0a2b cf64 2fb1 f93f
00000420: 8592 35bd 2a96 03c0 3836 5cbd 924b ef3f
00000430: a81e 18d2 1583 f03f 625e b205 2672 a73f
00000440: e344 3af0 f321 f93f 36dc f3a8 bbe5 03c0
00000450: b896 e88d 3e23 ef3f b604 7870 fc98 f03f
00000460: a077 4ce6 2dc8 ab3f 24e3 8924 3a97 f83f
00000470: e49d 2fe9 f9ba 03c0 464a 15d2 b917 ef3f
00000480: 1664 a1cd a5a0 f03f e0dc 531a 5bdd a83f
00000490: c310 ffb8 d315 f83f 6cc6 005f d687 03c0
000004a0: 98ff 76e4 a3e0 ee3f c1cd ca4e affa f03f
000004b0: 5f74 355d f37d a43f b542 3894 5eba f73f
000004c0: 8930 64f1 5a7d 03c0 3f21 2cea e4da ee3f
000004d0: 704e 7ce3 a2de f03f 18f7 792f d5cd a63f
000004e0: a368 fc88 716f f83f cbb3 ae2e 5d2c 03c0
000004f0: 1cbe da3b 96d4 ee3f 86f3 27b7 8263 f03f
00000500: 5cd4 9277 1f8d b03f 22b4 7a28 972c f83f
00000510: c6d6 2471 a398 03c0 7072 77b6 3ba4 ee3f
00000520: cebb ec71 01aa f03f a0ad 6bf5 1f2c b03f
00000530: 791f 6516 04d3 f83f 31c4 d991 d0c5 03c0
00000540: b5c3 fcf0 70a0 ee3f 2753 2671 4656 f03f
00000550: eaa6 799b 8afa ad3f 06a1 5dd3 b2bb f73f
00000560: 9fc5 5e06 98a0 03c0 d621 1387 ea21 ef3f
00000570: fa96 75b6 222d f03f bf72 f551 0935 a83f
00000580: d437 28b5 1d4c f83f 1a7d a97f a183 03c0
00000590: 645c 3a0d e8a4 ee3f a5bb 33f2 8b4d f03f
000005a0: 7eb4 da90 a1ac a83f a780 0f8f 06ba f73f
000005b0: a58b 7eb1 fe21 03c0 1330 f12e dbb3 ee3f
000005c0: 3cdc 394f ddee ef3f c665 50f3 425f ad3f
000005d0: 18c5 8b64 462b f83f 0d6e e75c 6b3c 03c0
000005e0: 88f0 c4e1 3289 ee3f 9479 31b4 8b05 ef3f
000005f0: 6591 93cd 7808 af3f f079 3400 1b10 f83f
00000600: aa38 f057 3803 03c0 aa82 f9be e3a1 ee3f
00000610: 6d3c 7c5c b529 ef3f 314b ae25 e3bd a83f
00000620: c3da 1072 84b9 f83f 8d71 c497 d9da 02c0
00000630: bcaa 075b fa22 ef3f 586c 7339 a3f7 ee3f
00000640: 21f1 2e41 0a3b aa3f 7eae 31ce 0a60 f93f
00000650: 1037 7735 9b23 03c0 20e9 8dc4 69d4 ee3f
00000660: df69 1029 8f80 ef3f e0e6 3e6a 6a35 a93f
00000670: f98f 59ad bc82 f83f 46e5 fa27 fc54 03c0
00000680: c79c b382 44b9 ee3f 6c71 33aa 6318 f03f
00000690: 8901 b8eb 1a80 a63f 8904 22a1 1773 f83f
000006a0: 8c52 cf78 b89a 03c0 7406 a68a ba0b ef3f
000006b0: 8307 7039 2e59 f03f d1de 38a3 32f9 a73f
000006c0: f274 0066 eee9 f73f 9f65 ca4d bb95 03c0
000006d0: 548f f919 c40f ef3f 6dff 86a0 d8f0 ef3f
000006e0: 5aef 8233 f89a aa3f c3f4 ef2d b0c8 f83f
000006f0: 7d89 f60b 5e6b 03c0 9b28 56f5 48b8 ee3f
00000700: 9b5d 47bd 6a82 ef3f c733 d565 d9e1 a53f
00000710: a880 4a94 ca43 f83f 888b 6099 0c6c 03c0
00000720: 0635 980c 0c76 ee3f 0196 5e40 5b1d f03f
00000730: 3305 adab f952 a33f 67bd ef5f c747 f83f
00000740: 900a 05b9 7a55 03c0 d246 e488 1c8b ee3f
00000750: b4da bdd9 5190 f03f 7b84 e818 97a4 ab3f
00000760: 03fe 252d d02b f73f 6f1f eca0 54b2 03c0
00000770: 1eab 932c 2ece ee3f 60d3 2eb5 f67b f03f
00000780: 18d8 3c9a b4c0 a83f 1bac 6fc2 dabf f73f
00000790: 5135 efdd 10cd 03c0 3022 3909 f4ab ee3f
000007a0: bd77 ed27 6028 f03f 31f5 2388 6d11 a93f
000007b0: f6b6 e615 9c3e f73f 2c58 664f ab70 03c0
000007c0: 7563 0622 e284 ee3f 9665 a7a6 b58e f03f
000007d0: 5cc3 0173 1469 ab3f e2eb 7583 99c1 f73f
000007e0: bf00 0d9b 06c0 03c0 9d8c 13ed b880 ee3f
000007f0: d462 523a 369f f03f f6f5 c764 d2f4 ab3f
0.04692705092486124 1.5153300846694844 -2.424150368082291 0.9716105730515276 1.013639249686314 0.05211570054554385 1.4723480899289687 -2.4279646833902975
0.9666433023184068 1.01146084421235 0.047844455263944236 1.4945865581494242 -2.4496423943614127 0.9690113230408842 1.009449047076998 0.0474546032527424
1.5124255850540995 -2.427059618549288 0.9623693599510006 1.014393031263439 0.043518342235524504 1.5381211924478133 -2.4242197488475976 0.968736610335484
0.9985000585382032 0.03201164359060596 1.5773825336150027 -2.396234295600232 0.977304637011062 0.9903667534902998 0.030169045040752254 1.5793058979646337
-2.4167906518478355 0.9793902529454899 0.9959578140480596 0.03327664023068601 1.518420339576745 -2.451433101264549 0.985564276213615 0.9919033549976286
0.035847796887806926 1.521018710504761 -2.425835826564242 0.9881056159722544 0.9870501419205292 0.04843254765374137 1.4833716841129685 -2.3653687985138405
0.9787621824244792 0.9838826726897915 0.04699881284543801 1.465942181981973 -2.399455654650805 0.9894999038490968 1.0074219096212857 0.053915083512863685
1.4515325625899178 -2.431089706856251 0.9711993252926209 1.0025224477189665 0.0389207897580866 1.51276392285306 -2.4047368941496634 0.9827186306697518
1.0188556951731447 0.049169162841544316 1.536484022573627 -2.4411897351258522 0.979690866345897 1.0246848040630283 0.04989962560688345 1.5373982680976161
-2.4411172168103277 0.9717224686596855 1.0413622782577738 0.04746316596507449 1.5444024382667316 -2.4257562827713284 0.9779918514222773 1.0056526419718184
0.046552399527588 1.527246884542125 -2.4405850431469696 0.982875777073138 1.0195169883283064 0.04773164034992783 1.4870694730738043 -2.4641403282098127
0.9795751612642651 0.9968977660900025 0.04580452000763903 1.4987963031569125 -2.421598409539602 0.9925707782783443 0.9872469120681193 0.04905938245190835
1.4408051574769787 -2.4365156216975374 0.9814465421573022 1.01503742047253 0.06087735114947018 1.4613997563505248 -2.4072308595507157 0.9793508104195923
0.9792823739097781 0.06190879206343386 1.5050459864497383 -2.403543753198009 0.976497256036706 0.9725653448808504 0.06345084009342078 1.538561303160289
-2.405147621095834 0.9719717229472415 0.9921954082849624 0.0676485938056671 1.515820566243858 -2.3982352191962666 0.9542801680068143 0.9787851492633218
0.052141564020589067 1.5739483012594313 -2.4678810397946873 0.9642894828751388 0.9983208619816999 0.052676426348406344 1.6124310754666504 -2.4660870149385095
0.9732371243045758 1.000759588097556 0.04582433388104035 1.6057580888615939 -2.4483237058614713 0.97797524437346 1.0320032316975958 0.04579275912800253
1.5707892784014852 -2.487174339239142 0.9730522891665805 1.0373501199067454 0.05426162182105476 1.5369206836023261 -2.4662969796806795 0.971646223372155
1.0392206222952658 0.04856381126767828 1.5053288675708678 -2.4413268491851365 0.9649219000057085 1.061202342779197 0.040023427131679716 1.4830003537974055
-2.436208616132778 0.9642204831771223 1.0543545614390517 0.04453912930055831 1.527207884885265 -2.3966621062340656 0.9634505433113563 1.0242945818456248
0.06465336484218781 1.5108863431189623 -2.4495304908149107 0.9575480045128426 1.0415052843270476 0.0631732916041785 1.5515175700001846 -2.471589221437647
0.9570851046356582 1.0210632724676516 0.058552104452997814 1.4833248383020545 -2.453414964453898 0.9728901518038195 1.0110194327657482 0.04727963567231574
1.5185830189179699 -2.4392728780363884 0.9576301821097215 1.0189322911280467 0.0481920708965413 1.4829164112380029 -2.3915990702384584 0.9594551007116955
0.9979082629569187 0.057367412759230116 1.510565178640098 -2.404501653492622 0.9542478951984927 0.9694269675635945 0.06061151036718363 1.503931999970174
-2.3765723104653107 0.9572619180654176 0.9738413626054246 0.04832372508021477 1.5452923255631255 -2.3568603379082504 0.9730197694710436 0.9677291986548751
0.051231689888910255 1.5859478048759281 -2.3923858811384733 0.9634293402625964 0.9844432642014985 0.04923565432495791 1.5319182178000104 -2.416496574730135
0.9601156761899795 1.00595442280527 0.04394611480165895 1.5280987066510383 -2.4505471647519865 0.9701817234019487 1.0217725986153432 0.046823103355959746
1.4946121200985627 -2.4481111600295686 0.9706745631524236 0.9981501708316337 0.05196357373048839 1.5489961428095718 -2.427425473653044 0.9599957267503386
0.9846700379229562 0.042738717728390045 1.5165506165140332 -2.4277584059322557 0.9519100423800928 1.0071671022827788 0.037742426115537596 1.5175241229552172
-2.4167379812873335 0.9544813798586012 1.0352343087703675 0.053990098753509984 1.4481965793237357 -2.4620754787501293 0.9626685019150931 1.0302645757157833
0.04834522612365805 1.4843394847073401 -2.4751298273683138 0.9584903888836092 1.0098573264763069 0.04896108900900698 1.4527855735317963 -2.430014248190693
0.9537211098241715 1.0348412046354034 0.05353607086079279 1.4847655425244217 -2.468762599310224 0.9532131796262494 1.038870075053798 0.054602217485790236

weight f8 [16000]
00000000: 0000 0000 0000 1840 0000 0000 0000 3140
00000010: 0000 0000 0000 1040 0000 0000 0000 1440
00000020: 0000 0000 0000 2e40 0000 0000 0000 0040
00000030: 0000 0000 0000 0040 0000 0000 0000 1040
00000040: 0000 0000 0000 0040 0000 0000 0000 f03f
00000050: 0000 0000 0000 0840 0000 0000 0000 1840
00000060: 0000 0000 0000 0840 0000 0000 0000 1c40
00000070: 0000 0000 0000 1040 0000 0000 0000 1040
00000080: 0000 0000 0000 0040 0000 0000 0000 2240
00000090: 0000 0000 0000 0840 0000 0000 0000 1c40
000000a0: 0000 0000 0000 0040 0000 0000 0000 f03f
000000b0: 0000 0000 0000 1840 0000 0000 0000 f03f
000000c0: 0000 0000 0000 0040 0000 0000 0000 0840
000000d0: 0000 0000 0000 0840 0000 0000 0000 f03f
000000e0: 0000 0000 0000 2240 0000 0000 0000 0840
000000f0: 0000 0000 0000 0040 0000 0000 0000 0040
00000100: 0000 0000 0000 f03f 0000 0000 0000 0040
00000110: 0000 0000 0000 f03f 0000 0000 0000 0040
00000120: 0000 0000 0000 0840 0000 0000 0000 1840
00000130: 0000 0000 0000 1c40 0000 0000 0000 0040
00000140: 0000 0000 0000 0040 0000 0000 0000 0040
00000150: 0000 0000 0000 2a40 0000 0000 0000 0040
00000160: 0000 0000 0000 0840 0000 0000 0000 0040
00000170: 0000 0000 0000 f03f 0000 0000 0000 f03f
00000180: 0000 0000 0000 1440 0000 0000 0000 1040
00000190: 0000 0000 0000 0040 0000 0000 0000 0040
000001a0: 0000 0000 0000 1040 0000 0000 0000 0840
000001b0: 0000 0000 0000 1040 0000 0000 0000 f03f
000001c0: 0000 0000 0000 1040 0000 0000 0000 1040
000001d0: 0000 0000 0000 2040 0000 0000 0000 f03f
000001e0: 0000 0000 0000 0840 0000 0000 0000 1040
000001f0: 0000 0000 0000 f03f 0000 0000 0000 1040
00000200: 0000 0000 0000 2640 0000 0000 0000 0040
00000210: 0000 0000 0000 f03f 0000 0000 0000 0840
00000220: 0000 0000 0000 1040 0000 0000 0000 0840
00000230: 0000 0000 0000 0840 0000 0000 0000 f03f
00000240: 0000 0000 0000 1040 0000 0000 0000 f03f
00000250: 0000 0000 0000 1440 0000 0000 0000 f03f
00000260: 0000 0000 0000 0840 0000 0000 0000 0040
00000270: 0000 0000 0000 0040 0000 0000 0000 1440
00000280: 0000 0000 0000 1440 0000 0000 0000 1840
00000290: 0000 0000 0000 f03f 0000 0000 0000 0040
000002a0: 0000 0000 0000 0040 0000 0000 0000 f03f
000002b0: 0000 0000 0000 1840 0000 0000 0000 2440
000002c0: 0000 0000 0000 0040 0000 0000 0000 f03f
000002d0: 0000 0000 0000 1440 0000 0000 0000 0040
000002e0: 0000 0000 0000 f03f 0000 0000 0000 0840
000002f0: 0000 0000 0000 0040 0000 0000 0000 2e40
00000300: 0000 0000 0000 0040 0000 0000 0000 0840
00000310: 0000 0000 0000 f03f 0000 0000 0000 1440
00000320: 0000 0000 0000 f03f 0000 0000 0000 1040
00000330: 0000 0000 0000 0040 0000 0000 0000 f03f
00000340: 0000 0000 0000 0040 0000 0000 0000 f03f
00000350: 0000 0000 0000 f03f 0000 0000 0000 0840
00000360: 0000 0000 0000 f03f 0000 0000 0000 1840
00000370: 0000 0000 0000 0840 0000 0000 0000 f03f
00000380: 0000 0000 0000 0040 0000 0000 0000 0040
00000390: 0000 0000 0000 0040 0000 0000 0000 0840
000003a0: 0000 0000 0000 0840 0000 0000 0000 f03f
000003b0: 0000 0000 0000 1440 0000 0000 0000 1440
000003c0: 0000 0000 0000 f03f 0000 0000 0000 0840
000003d0: 0000 0000 0000 f03f 0000 0000 0000 0040
000003e0: 0000 0000 0000 f03f 0000 0000 0000 f03f
000003f0: 0000 0000 0000 0040 0000 0000 0000 f03f
00000400: 0000 0000 0000 0840 0000 0000 0000 f03f
00000410: 0000 0000 0000 1840 0000 0000 0000 0840
00000420: 0000 0000 0000 0040 0000 0000 0000 0040
00000430: 0000 0000 0000 0040 0000 0000 0000 0040
00000440: 0000 0000 0000 1040 0000 0000 0000 2840
00000450: 0000 0000 0000 f03f 0000 0000 0000 1c40
00000460: 0000 0000 0000 f03f 0000 0000 0000 0040
00000470: 0000 0000 0000 1040 0000 0000 0000 2440
00000480: 0000 0000 0000 0040 0000 0000 0000 f03f
00000490: 0000 0000 0000 0040 0000 0000 0000 f03f
000004a0: 0000 0000 0000 1040 0000 0000 0000 f03f
000004b0: 0000 0000 0000 0040 0000 0000 0000 2440
000004c0: 0000 0000 0000 0040 0000 0000 0000 1840
000004d0: 0000 0000 0000 1040 0000 0000 0000 0040
000004e0: 0000 0000 0000 f03f 0000 0000 0000 f03f
000004f0: 0000 0000 0000 2240 0000 0000 0000 0840
00000500: 0000 0000 0000 f03f 0000 0000 0000 1440
00000510: 0000 0000 0000 1040 0000 0000 0000 0040
00000520: 0000 0000 0000 f03f 0000 0000 0000 0840
00000530: 0000 0000 0000 f03f 0000 0000 0000 f03f
00000540: 0000 0000 0000 0840 0000 0000 0000 1040
00000550: 0000 0000 0000 1440 0000 0000 0000 1040
00000560: 0000 0000 0000 1440 0000 0000 0000 0040
00000570: 0000 0000 0000 f03f 0000 0000 0000 0040
00000580: 0000 0000 0000 f03f 0000 0000 0000 0840
00000590: 0000 0000 0000 1040 0000 0000 0000 0040
000005a0: 0000 0000 0000 1040 0000 0000 0000 2040
000005b0: 0000 0000 0000 f03f 0000 0000 0000 0040
000005c0: 0000 0000 0000 f03f 0000 0000 0000 f03f
000005d0: 0000 0000 0000 f03f 0000 0000 0000 f03f
000005e0: 0000 0000 0000 2040 0000 0000 0000 f03f
000005f0: 0000 0000 0000 f03f 0000 0000 0000 f03f
00000600: 0000 0000 0000 f03f 0000 0000 0000 0040
00000610: 0000 0000 0000 f03f 0000 0000 0000 2040
00000620: 0000 0000 0000 2040 0000 0000 0000 1840
00000630: 0000 0000 0000 0840 0000 0000 0000 f03f
00000640: 0000 0000 0000 1040 0000 0000 0000 2240
00000650: 0000 0000 0000 0040 0000 0000 0000 0040
00000660: 0000 0000 0000 f03f 0000 0000 0000 1440
00000670: 0000 0000 0000 f03f 0000 0000 0000 2640
00000680: 0000 0000 0000 0040 0000 0000 0000 1840
00000690: 0000 0000 0000 f03f 0000 0000 0000 f03f
000006a0: 0000 0000 0000 0040 0000 0000 0000 2040
000006b0: 0000 0000 0000 1440 0000 0000 0000 2840
000006c0: 0000 0000 0000 2040 0000 0000 0000 f03f
000006d0: 0000 0000 0000 f03f 0000 0000 0000 1840
000006e0: 0000 0000 0000 f03f 0000 0000 0000 f03f
000006f0: 0000 0000 0000 1040 0000 0000 0000 1440
00000700: 0000 0000 0000 1440 0000 0000 0000 f03f
00000710: 0000 0000 0000 f03f 0000 0000 0000 2040
00000720: 0000 0000 0000 0040 0000 0000 0000 1c40
00000730: 0000 0000 0000 2040 0000 0000 0000 0040
00000740: 0000 0000 0000 f03f 0000 0000 0000 0040
00000750: 0000 0000 0000 1c40 0000 0000 0000 0840
00000760: 0000 0000 0000 0840 0000 0000 0000 0840
00000770: 0000 0000 0000 0840 0000 0000 0000 0040
00000780: 0000 0000 0000 2440 0000 0000 0000 0040
00000790: 0000 0000 0000 0840 0000 0000 0000 0040
000007a0: 0000 0000 0000 0040 0000 0000 0000 1c40
000007b0: 0000 0000 0000 2a40 0000 0000 0000 0840
000007c0: 0000 0000 0000 0840 0000 0000 0000 f03f
000007d0: 0000 0000 0000 1040 0000 0000 0000 1440
000007e0: 0000 0000 0000 1c40 0000 0000 0000 1040
000007f0: 0000 0000 0000 3340 0000 0000 0000 f03f
6.0 17.0 4.0 5.0 15.0 2.0 2.0 4.0
2.0 1.0 3.0 6.0 3.0 7.0 4.0 4.0
2.0 9.0 3.0 7.0 2.0 1.0 6.0 1.0
2.0 3.0 3.0 1.0 9.0 3.0 2.0 2.0
1.0 2.0 1.0 2.0 3.0 6.0 7.0 2.0
2.0 2.0 13.0 2.0 3.0 2.0 1.0 1.0
5.0 4.0 2.0 2.0 4.0 3.0 4.0 1.0
4.0 4.0 8.0 1.0 3.0 4.0 1.0 4.0
11.0 2.0 1.0 3.0 4.0 3.0 3.0 1.0
4.0 1.0 5.0 1.0 3.0 2.0 2.0 5.0
5.0 6.0 1.0 2.0 2.0 1.0 6.0 10.0
2.0 1.0 5.0 2.0 1.0 3.0 2.0 15.0
2.0 3.0 1.0 5.0 1.0 4.0 2.0 1.0
2.0 1.0 1.0 3.0 1.0 6.0 3.0 1.0
2.0 2.0 2.0 3.0 3.0 1.0 5.0 5.0
1.0 3.0 1.0 2.0 1.0 1.0 2.0 1.0
3.0 1.0 6.0 3.0 2.0 2.0 2.0 2.0
4.0 12.0 1.0 7.0 1.0 2.0 4.0 10.0
2.0 1.0 2.0 1.0 4.0 1.0 2.0 10.0
2.0 6.0 4.0 2.0 1.0 1.0 9.0 3.0
1.0 5.0 4.0 2.0 1.0 3.0 1.0 1.0
3.0 4.0 5.0 4.0 5.0 2.0 1.0 2.0
1.0 3.0 4.0 2.0 4.0 8.0 1.0 2.0
1.0 1.0 1.0 1.0 8.0 1.0 1.0 1.0
1.0 2.0 1.0 8.0 8.0 6.0 3.0 1.0
4.0 9.0 2.0 2.0 1.0 5.0 1.0 11.0
2.0 6.0 1.0 1.0 2.0 8.0 5.0 12.0
8.0 1.0 1.0 6.0 1.0 1.0 4.0 5.0
5.0 1.0 1.0 8.0 2.0 7.0 8.0 2.0
1.0 2.0 7.0 3.0 3.0 3.0 3.0 2.0
10.0 2.0 3.0 2.0 2.0 7.0 13.0 3.0
3.0 1.0 4.0 5.0 7.0 4.0 19.0 1.0

lkl f8 [16000]
00000000: 3c55 4c63 24b2 47c0 c750 18e0 7108 48c0
00000010: dc54 1950 d802 48c0 70d3 59dd 31eb 47c0
00000020: 4055 c039 e826 48c0 a4d5 ca04 3c29 4ac0
00000030: a969 b9e5 1457 4ac0 2c8d c459 9e42 4ac0
00000040: abda fc11 ebe0 49c0 a972 ac27 861f 49c0
00000050: 9a39 eb08 e9e0 48c0 1bcd a13b c26f 48c0
00000060: c254 bee8 9c65 48c0 e5f7 48a9 6604 48c0
00000070: 1225 6fe5 397a 48c0 b2e5 bf0a 8be6 47c0
00000080: a605 002d eafd 47c0 eee7 bcff ff99 48c0
00000090: 0905 46d1 2a42 49c0 2979 afaf 3ee6 48c0
000000a0: a178 3974 fe51 49c0 8b32 73e3 bd72 49c0
000000b0: 3e94 bfe1 c25d 49c0 c8ce 8e00 1c4c 4ac0
000000c0: 0409 24ea f3eb 48c0 86b1 8418 55f7 49c0
000000d0: 2f92 3a92 5078 49c0 a9ae e6f2 503f 49c0
000000e0: 3213 71fe 26e0 48c0 e26f 3b26 3993 49c0
000000f0: 8834 60a2 5ab7 49c0 a980 15d5 8d12 48c0
00000100: 7a8c 38b5 9846 4ac0 d732 298a 7109 4ac0
00000110: 2476 a957 5829 48c0 5e71 1a39 583d 48c0
00000120: fcb4 1f5a e493 48c0 1fc4 3e24 3cc0 49c0
00000130: 52f3 1cf7 c7c5 49c0 34db 40a5 8bf9 49c0
00000140: fc3d b5f6 1973 49c0 e668 631a bb09 48c0
00000150: b648 c11c 5807 48c0 8db4 0ffc 5442 48c0
00000160: 9361 fbf8 20c0 48c0 9e51 6551 ef02 49c0
00000170: a345 92a8 cb68 49c0 e06b 757b 200b 49c0
00000180: b537 cc6e 53eb 48c0 a480 d286 d171 49c0
00000190: 7394 09a5 6969 49c0 5ed1 98c4 9580 49c0
000001a0: 2d74 4675 d010 4ac0 79e5 1f37 1f6b 4ac0
000001b0: 2b20 2048 e855 49c0 7ab6 13f9 b5a4 49c0
000001c0: c9a0 dc11 5f22 49c0 7954 84dd 6d31 48c0
000001d0: a54b d54e fa64 48c0 7b84 14d9 0454 48c0
000001e0: 1084 b41e 056e 48c0 3ec8 3025 87e3 49c0
000001f0: 5f95 2f76 97c1 48c0 b85c 0f66 eb13 49c0
00000200: 3781 ffd1 b4be 48c0 e894 53f6 fd38 49c0
00000210: 3c61 bb15 bea4 49c0 2cb2 d2f2 ea7d 49c0
00000220: 68f1 6f42 9926 49c0 7618 7057 d128 49c0
00000230: bdf8 a4e5 1eaf 48c0 9e27 7c55 411d 49c0
00000240: e666 3dbb 3a3b 49c0 2853 6e8e bbcc 48c0
00000250: 0b18 c09c b183 48c0 ade8 f57d d22a 48c0
00000260: ac9d 6269 e43a 49c0 5606 c7b5 a03d 48c0
00000270: 88cf a9ed bf7c 49c0 b6e3 12ba 1791 49c0
00000280: f6b6 0672 a507 48c0 2b35 b012 6e42 48c0
00000290: c12e 9584 a575 48c0 d3e6 5115 135b 48c0
000002a0: 8f65 16fe aa72 48c0 1833 6e89 f91b 49c0
000002b0: 2cd3 5d36 908b 48c0 dc47 3ad1 75d9 48c0
000002c0: 012b 208d f6d7 48c0 ba6d aebd e26c 49c0
000002d0: ca97 8bcb f911 48c0 0e01 b1c7 7922 48c0
000002e0: 0ef2 9226 8f86 48c0 f4b9 38fc 99a2 48c0
000002f0: de2b d23b 315a 48c0 99c0 63e4 3a37 48c0
00000300: eda1 47a6 c1ac 48c0 b6c1 e313 1225 49c0
00000310: b9a9 5a93 9a4e 48c0 f3bd c03c 1501 49c0
00000320: 2859 d54d 83fb 47c0 30f4 3cae a4b1 48c0
00000330: b428 1ba3 93d8 48c0 15e4 27b9 5609 49c0
00000340: 0329 3d1d ea3e 49c0 68da 9ed6 3a07 49c0
00000350: 87e2 0f78 a7a4 48c0 40be 20da c9eb 48c0
00000360: c350 ca36 d934 48c0 6e92 0ef4 f4f8 47c0
00000370: 5e5a 361d ae4e 48c0 5faf 4272 e51c 48c0
00000380: 1b60 c81a 2593 48c0 0c15 cf2a 81b4 48c0
00000390: 9f71 4a67 22ff 48c0 9a16 98e1 5fe4 48c0
000003a0: 3b83 a2f9 a0fd 48c0 35d5 dcf3 39a6 48c0
000003b0: e254 d14a 1928 49c0 2e5d 819a 10ab 4ac0
000003c0: 911b 3435 7d4e 4ac0 baeb 5975 16fd 4ac0
000003d0: a3b3 7c8b 5178 4bc0 8477 7fff e57c 4bc0
000003e0: 5236 c3b1 deba 4bc0 9b0a 0254 1782 4ac0
000003f0: 923f bb41 f658 4bc0 8160 d669 9356 4bc0
00000400: 9322 a68b 77d2 4ac0 d81c 1f48 e13e 4ac0
00000410: 841d cc0d 31c9 49c0 7842 d7ce f07d 49c0
00000420: bb92 0f37 ed46 49c0 0791 6ec4 de7c 49c0
00000430: 430d 3ab1 70f4 49c0 0c1f c4dd 8a39 4ac0
00000440: 1aeb 2f34 8b5b 49c0 cf4c 069a 3bd2 48c0
00000450: 0017 455a d236 49c0 f623 d8cb 6f9f 49c0
00000460: ded7 8325 7393 49c0 2b7e 347f ca7b 49c0
00000470: f93f 99e2 c657 49c0 b98b 17df d273 49c0
00000480: 9475 a9c4 475d 4bc0 912f 61c9 9922 4bc0
00000490: 014d bbb6 eeec 4ac0 c0ec a990 83e9 49c0
000004a0: f45d e3fa 62e7 49c0 4253 a2df 8242 49c0
000004b0: b571 8b1f a40a 48c0 11df edac 8739 48c0
000004c0: 09c1 0cd2 2ae2 47c0 0f89 121d 55ad 48c0
000004d0: feaa 8b3f c5a6 48c0 8c9f 2604 1905 49c0
000004e0: 74a1 6cd0 d96b 48c0 6fde 3aa6 341a 48c0
000004f0: 2fa0 6d4f c31c 48c0 30d0 adfc 6c50 49c0
00000500: 6389 c28c b5f9 49c0 9d15 df16 36b2 49c0
00000510: d69a d2db 507b 49c0 e7ca ccb2 4626 49c0
00000520: 4be8 efff f623 4bc0 0300 d190 10b1 4ac0
00000530: 6b54 6bfa 31f7 49c0 89ed 1e69 7700 4ac0
00000540: bc03 f622 7a83 4ac0 674f 70a3 0f7f 49c0
00000550: ec50 ee32 f7e3 48c0 bf77 5705 ca23 49c0
00000560: e125 c0b7 5bb2 49c0 e6cb 5da2 66ad 4ac0
00000570: b6dd b15a 5ba0 49c0 33ad de8a a008 48c0
00000580: 112f 425c 5dc7 48c0 aaaa f14c cf13 48c0
00000590: 0a24 c3d4 df96 48c0 9afb 3ea8 b532 48c0
000005a0: 9f93 9589 037d 48c0 17b2 e4c3 9a3c 48c0
000005b0: 4de7 a88f 37e2 47c0 56db 48a1 34de 48c0
000005c0: 8c93 d5c4 8d09 48c0 cb7e 2f09 c8f3 47c0
000005d0: 6b94 dfa6 1d70 48c0 a297 f00e cfa0 49c0
000005e0: 6703 636b 4964 4ac0 9587 59dc 2437 4ac0
000005f0: d321 0a8c 4e4e 48c0 6d77 2f7b ae6f 48c0
00000600: 25e6 8989 9884 48c0 956b 7a5a 5ddb 48c0
00000610: fc76 88ad d3bf 48c0 3117 4a83 c514 49c0
00000620: 32e0 6f4c 9516 48c0 1ee3 ddbd 457c 48c0
00000630: 13e2 05c8 7f6d 49c0 8fe8 0bcf 57f1 48c0
00000640: 8723 5271 6695 49c0 de91 73b1 5bcb 49c0
00000650: 437a 2df9 2420 4ac0 b43f 94c4 cfc8 49c0
00000660: 676d 5251 3daa 48c0 bc0a d3e5 16d2 48c0
00000670: b323 6312 4621 48c0 95db fe1f 3945 48c0
00000680: a88e 7af1 edc0 48c0 0621 c72f 6142 49c0
00000690: 2190 a3fc 06dc 49c0 4e8e 2157 5d2a 4cc0
000006a0: 85be 7d9d a20a 4ac0 e053 a051 b571 49c0
000006b0: 2f75 4a8c 40d0 48c0 4c44 981c 35e8 47c0
000006c0: 3017 a4ed 490a 49c0 b0d8 74f7 f443 49c0
000006d0: 1a5d 91f1 8a01 4ac0 9fa4 194c 6c75 4ac0
000006e0: 82a8 7901 a8f1 49c0 8284 5446 574e 48c0
000006f0: 542b 6e11 e051 48c0 7644 2bd0 13da 48c0
00000700: 760a 7a77 7394 48c0 7254 43b6 b02b 48c0
00000710: 9fd2 4b0c d3b2 48c0 ddc4 6845 e453 48c0
00000720: 0991 02fb 9ada 48c0 6fd7 c97b 2210 48c0
00000730: 074c 7400 31b9 48c0 9ec7 257b ebcb 48c0
00000740: 7520 a873 e22f 49c0 39fa 59bd b9c0 48c0
00000750: 2df2 8249 b0dd 48c0 7f87 b03f a207 49c0
00000760: 65e1 030c de7b 49c0 cc94 b8fd 4df3 4ac0
00000770: f06b a662 7393 4ac0 a112 4067 cfb1 4ac0
00000780: 2b22 74b4 7749 48c0 fa13 2a33 bdce 49c0
00000790: 3e1d 0bc8 15ec 48c0 75e8 a99e f763 4ac0
000007a0: 1801 3693 70ee 48c0 f879 78f2 72dc 48c0
000007b0: ddb1 f0e9 975f 48c0 2eb1 bea8 10e7 48c0
000007c0: ae2f 611e ece4 48c0 6ed1 f404 3b0f 49c0
000007d0: 5896 c448 7a3a 49c0 4fba e2d2 f706 49c0
000007e0: 6db7 4adf 7f1b 48c0 89fe 6d45 2e2a 49c0
000007f0: 5be4 8184 590b 48c0 9418 c3d8 047d 48c0
-47.391735470077464 -48.06597520053179 -48.022226345414055 -47.83745924840957 -48.30396196261654 -52.32214412597685 -52.68032523682934 -52.52045747849692
-51.7571737751617 -50.24628158493335 -49.75711165891262 -48.873115018848885 -48.793850987372494 -48.034382973317214 -48.954891852636266 -47.80111822481139
-47.983708977709554 -49.20312496875691 -50.516931685628215 -49.798788033180536 -50.640577819883454 -50.89641993641734 -50.732509821457356 -52.594604558687536
-49.843381183238336 -51.93228441695378 -50.939958838080535 -50.49465786231787 -49.75118999978294 -51.15018155958366 -51.432453438735195 -48.14495338010722
-52.551535275088966 -52.07377745639467 -48.323008496994845 -48.47925485411791 -49.15540625141327 -51.501835375449666 -51.54516495622251 -51.9495741430932
-50.899229849335796 -48.07602243284218 -48.057376474739996 -48.518218524616806 -49.50100624346228 -50.02292840430458 -50.818715163633236 -50.08692877992121
-49.83848366710246 -50.88920674589579 -50.82353651969688 -51.00457055532273 -52.13136163654449 -52.83689011628571 -50.67115117615352 -51.28680337393321
-50.26852629921775 -48.38616532288956 -48.788888792179286 -48.65639794828254 -48.85953124822856 -51.77756180650657 -49.51243474315083 -50.15562129736048
-49.489893197782685 -50.4452503116716 -51.28705093049436 -50.983732560042284 -50.301552109393754 -50.318888597234874 -49.36813040309196 -50.2285563331818
-50.462729840260906 -49.59947376620249 -49.028857797427996 -48.334548707077694 -50.46009557070951 -48.48146698205953 -50.97460718909775 -51.13353658602084
-48.059736493376406 -48.51898416141406 -48.91911370548542 -48.71151987551789 -48.89584327787008 -50.218552759941474 -49.090338512242255 -49.69890799852121
-49.68721164770796 -50.85066958443663 -48.140435641441925 -48.26934143202571 -49.05124361205172 -49.27032425660937 -48.70462749254487 -48.43148474570007
-49.34965971467668 -50.28961418744022 -48.61409227301505 -50.00846061145048 -47.9649445811977 -49.38783815361273 -49.692005527745465 -50.072959084012986
-50.491519598830585 -50.056483104290976 -49.28636074805859 -49.84209753607547 -48.412878845965245 -47.94497538291476 -48.61468854097323 -48.22575214630228
-49.149569843139226 -49.41019187079846 -49.993237410878685 -49.78417606283365 -49.98147507128893 -49.29864357264379 -50.31327185841816 -53.33644419972039
-52.6131960396225 -53.977247876078266 -54.93998855198813 -54.97576898311584 -55.45992109329076 -53.01633691882781 -54.695015160016865 -54.67637370078683
-53.644273239250786 -52.49125005263494 -51.57180950609748 -50.98391137610173 -50.55411422977837 -50.97554831885105 -51.90968909582673 -52.44955036236033
-50.71518566455616 -49.64244389827365 -50.428294452414775 -51.245599251305904 -51.15195149362238 -50.96711721480491 -50.68575699313073 -50.90487278604218
-54.72875269197826 -54.27031819577599 -53.85103496690318 -51.824327547999474 -51.80770813085465 -50.51961894441639 -48.08313364323423 -48.44945298781216
-47.76693177817112 -49.35415995984123 -49.30289453811382 -50.039825934275626 -48.84258466057045 -48.204731730217524 -48.2247103963167 -50.62832602011656
-51.95085296152936 -51.3922756757049 -50.96340511115493 -50.29903254508627 -54.28097533430317 -53.383318044710926 -51.931212713629826 -52.00364412317419
-53.027164812206564 -50.99266474708457 -49.780981413235935 -50.27960268755805 -51.39342400438523 -53.354694648551046 -51.25278791127077 -48.06739936707381
-49.55753663283952 -48.15476381111269 -49.178705783160765 -48.39616873812993 -48.9766704540591 -48.47347305933743 -47.76732059237711 -49.7359811406847
-48.07463894299062 -47.90454211062532 -48.87590490262013 -51.256318919636456 -52.78349058470376 -52.43081240054668 -48.611772065112426 -48.87251224343968
-49.035905067761895 -49.71378642060805 -49.498647395737834 -50.162277613808676 -48.17643123114284 -48.97087834677062 -50.85546207701932 -49.88549221116511
-51.16718880186732 -51.588735753470004 -52.25112833710275 -51.56884057272637 -49.329996266601306 -49.641323783920114 -48.259950922401366 -48.540805816118485
-49.507261452524574 -50.5185909006414 -51.718963222374676 -56.33097352159949 -52.08308762206892 -50.88834591225145 -49.62696984897263 -47.81412084040548
-50.08038111221538 -50.53091328816788 -52.01205272291027 -52.91736747028448 -51.88793962898582 -48.61203841330372 -48.63965051535948 -49.70372964966457
-49.15977376421954 -48.34133032119361 -49.397065674803564 -48.655403782040345 -49.70785462975807 -48.126052354388655 -49.44680791548313 -49.59312381119456
-50.374098260014684 -49.50566832440786 -49.73194235700462 -50.059638940044344 -50.9677138346622 -53.90081759941822 -53.15195878149086 -53.38914194706491
-48.573965603547855 -51.6151489215335 -49.844414716174 -52.78099425598422 -49.86281051766326 -49.722257908655536 -48.74682354214358 -49.80519589720858
-49.78845576997206 -50.11898862794884 -50.456856819143184 -50.054437981326025 -48.21483985088603 -50.329537085254806 -48.08866936056503 -48.9767104103677
