chains/ch143_217_353_545_TE_B80.npz (npz, 897880 bytes, 3 tensors)

chain f8 [16000, 5]
0.11524627465090388 1.5139256667285026 -2.4266922253028542 0.9908943149375383 0.973609859842965 0.11894997886071096 1.4715580196365055 -2.3997962007518567
0.9806924599817581 0.9784517588761174 0.11452628832200636 1.4718767567238982 -2.4229787790486377 0.993963943074529 0.9881813318392053 0.08883295003885042
1.5287032410347325 -2.34796618674997 0.9837333915971085 1.0068218642711697 0.09754247979762679 1.539769720324766 -2.412154772657343 0.987995763202741
1.0271686116702825 0.1066550939076738 1.496017684045103 -2.4426167456133054 0.9801036289046897 1.0367134154870639 0.1321644026742605 1.4967894920501084
-2.4546463842947284 0.9671327528103052 1.0304761935275373 0.12415323592443347 1.460747759144819 -2.349908404880555 0.9695454459019615 1.0101817618227715
0.13900785908356483 1.4173810452569242 -2.386880767311479 0.956848828841905 1.0151271465045943 0.12866187082393546 1.456900235761367 -2.3944276248492313
0.9613540353897764 0.9823370876475255 0.1360354390960831 1.4637243765464616 -2.3606357297675413 0.9742868473346119 0.9990893602724714 0.1166335312306056
1.4817666341026527 -2.372425834901826 0.9956295385251439 0.9971812174628867 0.1120812150727457 1.5073055505721813 -2.453019033660132 0.9814812042355631
1.0200916612087176 0.11614327194912834 1.5110841025391586 -2.457601764934195 0.9883979668872122 1.0110557104716518 0.1396452660947359 1.461259085544102
-2.469068923594018 0.9975331085322015 0.9936751353101347 0.1329171101828071 1.469371671701965 -2.4475814472333464 1.00258939381474 0.9939309750701774
0.13991801023035577 1.5031575254370475 -2.4451933212514816 0.9809028447406092 0.9893375647886125 0.1276990646362863 1.5270628577084475 -2.4173717952895366
0.9852058624042228 0.9950777881861447 0.12158214490636801 1.5394766282575731 -2.4700167148664547 0.9786872038532554 1.008874295885753 0.12706025705496507
1.5026475906890178 -2.4119324342112827 0.9869955765685765 1.0026150596856171 0.14290806317788574 1.499783660977501 -2.4651826196011557 0.9839328878458258
0.9922758481332538 0.11633884348850165 1.5454090384415353 -2.4491238694687434 1.000324858033908 1.0246629302105768 0.10263430724063712 1.556798618234196
-2.480259609209044 0.9859183224712323 1.035070418472711 0.11710343127885141 1.4859242711348108 -2.4642810877269214 0.9861593614846802 1.0449418467491745
0.1023914728468034 1.5032676868723427 -2.4757466307815923 0.9857976286132726 1.04274448194289 0.11340203053597225 1.5106682068351396 -2.470022855336632
0.9840977050459027 1.0147181276101416 0.11591042192603435 1.511087054509882 -2.4584129211891734 0.9905539143681736 1.0070952885892925 0.11710303103175251
1.5277878799965545 -2.404539652519006 0.9916248969312819 1.0008760270461976 0.11645421154042505 1.5205513934768016 -2.4113152690708164 0.9861848452218223
0.9743613974147817 0.14479985143389196 1.458235175528775 -2.4266508453854736 0.9919240618439026 0.9862352158292929 0.11033752251748341 1.4866243961663062
-2.401938191533327 1.0006719483926978 0.9743331349349358 0.10648322334157603 1.5049549520028835 -2.4328212648598915 0.985151876595599 0.9723547954387232
0.11087148272740434 1.5221687031958502 -2.4869752865149968 0.982337603332077 0.9716727137906043 0.12232315138610185 1.5004669816272507 -2.4793489385294296
0.9682777720892563 0.9586389117912969 0.1155578218261493 1.4825419262372255 -2.498802005609774 0.9895178687080051 0.9763848246809318 0.12100460660905836
1.4480362676201723 -2.4581362196451475 1.0086154135065435 0.9835770112653476 0.11441034075942096 1.4431993978882907 -2.410519900586121 1.0029254247335353
0.9752057037098354 0.10340852852016018 1.4654942805425093 -2.438761767008491 0.9968361269219143 0.9994827392991988 0.11451979701495993 1.4662083439733289
-2.435394195434349 0.9934898350838398 0.9913253724757302 0.11367539244866333 1.435408576017339 -2.409954613259952 0.9929466317533855 0.9747108788971496
0.11166989372372928 1.48871179647834 -2.387432449288192 0.9972207513097148 0.9655380514919382 0.10883971267352566 1.486762805334501 -2.415414127057539
0.9865137120752059 0.9663999089867341 0.08667534955471609 1.5018725645055437 -2.4173759494350158 0.9688021735242566 0.9967686605528104 0.08546451968750245
1.5339241715079415 -2.4129252302234874 0.9457037994579636 0.9941900486895928 0.08791384095564378 1.5469266832669732 -2.4377911602209497 0.9558658050322203
1.0055402159949294 0.09299997555265674 1.5698483407429527 -2.477449168933853 0.9735840885654358 0.9829524649737852 0.14481946190730263 1.5268082768030455
-2.510496517273876 0.9726048293699976 0.9847971371146975 0.13769976889367905 1.5075347656011182 -2.4561766791367297 0.962135708110206 0.9762772109809179
0.15010438958608915 1.4648734635313827 -2.458200093481592 0.959016556489387 0.995106606166075 0.15381820299420745 1.4792314318797353 -2.502381087269647
0.9497818264242763 0.9892013313909721 0.1577551349831616 1.4750863464249064 -2.5117680225052634 0.965109806675383 1.0172732780278275 0.13579249461387471
00000000: 0989 9ca4 c780 bd3f 5ac8 b21e 0a39 f83f
00000010: d710 099d dd69 03c0 a15e 8efe 67b5 ef3f
00000020: 74d6 62dd cf27 ef3f a40f 117d 8173 be3f
00000030: c715 086c 808b f73f ad5a ba59 c832 03c0
00000040: 2ac6 6127 d561 ef3f 71c5 2210 7a4f ef3f
00000050: 9d12 e046 9851 bd3f 72f2 5da4 ce8c f73f
00000060: c853 b7b2 4262 03c0 db10 9d78 8dce ef3f
00000070: 2b8c d874 2e9f ef3f 4a5c 3997 c1bd b63f
00000080: bb88 9887 9175 f83f bda3 017f a2c8 02c0
00000090: 5891 1c73 be7a ef3f 2c14 3f3e f11b f03f
000000a0: a298 b340 8bf8 b83f ada7 0293 e5a2 f83f
000000b0: fba0 2bcd 174c 03c0 ca5a 714a a99d ef3f
000000c0: 1aa0 a95a 486f f03f 5007 498c bf4d bb3f
000000d0: ce61 333d b0ef f73f 9c91 f8a5 7a8a 03c0
000000e0: 1fc5 1a49 025d ef3f 5f76 6dce 6096 f03f
000000f0: 9e35 975d c3ea c03f 6ea0 d589 d9f2 f73f
00000100: f552 bea4 1da3 03c0 29be 0663 c0f2 ee3f
00000110: 101e e89a d47c f03f 7eee fca7 81c8 bf3f
00000120: 6eb7 d30a 395f f73f c875 1cc7 9ccc 02c0
00000130: 264f c42b 8406 ef3f 21b6 e059 b429 f03f
00000140: 4850 5370 02cb c13f a094 35bf 97ad f63f
00000150: fa6e 98f1 5418 03c0 b6f0 626f 819e ee3f
00000160: f64d 78f6 f53d f03f 552a b7ff fd77 c03f
00000170: 8013 229f 764f f73f 66ee aaab c927 03c0
00000180: 0f0e bc89 69c3 ee3f 1c02 2330 4e6f ef3f
00000190: ede0 01f9 9b69 c13f 2c00 7a40 6a6b f73f
000001a0: 29f7 48fc 94e2 02c0 0b34 479c 5b2d ef3f
000001b0: c3db 0440 8af8 ef3f 48a0 40f2 b1db bd3f
000001c0: f565 1cee 50b5 f73f f1b5 6865 bafa 02c0
000001d0: c2b4 5c7a 32dc ef3f b408 a695 e8e8 ef3f
000001e0: 1fbf 3bc1 5ab1 bc3f b496 cc6c ec1d f83f
000001f0: 4c49 7071 c89f 03c0 f792 3a45 4b68 ef3f
00000200: 2305 3da2 4b52 f03f 4904 acc2 90bb bd3f
00000210: 4394 1e86 662d f83f bddf 371d 2ba9 03c0
00000220: b9d4 e6c5 f4a0 ef3f 7f8e aec0 482d f03f
00000230: 9384 7565 e5df c13f 0a51 f634 5161 f73f
00000240: f63f 3335 a7c0 03c0 3656 ba8d caeb ef3f
00000250: 442c 20cc 2fcc ef3f aa30 a888 6d03 c13f
00000260: 840f bade 8b82 f73f ff4e f194 a594 03c0
00000270: 2b03 1c2d 9b0a f03f b90c 0d55 48ce ef3f
00000280: 5cc7 0757 d5e8 c13f 84d0 c7e7 ee0c f83f
00000290: c361 1984 c18f 03c0 66db d65c 8e63 ef3f
000002a0: 7a15 af40 a7a8 ef3f 9fdb 2b65 7158 c03f
000002b0: 91b4 8c76 d96e f83f b854 1806 c756 03c0
000002c0: cc50 db71 ce86 ef3f 4589 a75f add7 ef3f
000002d0: 8a7f 26e8 0120 bf3f 7a29 b53e b2a1 f83f
000002e0: f365 971f 98c2 03c0 8307 b2d3 6751 ef3f
000002f0: 5dab a95f 5924 f03f 2112 56b0 8243 c03f
00000300: aac2 3633 d80a f83f 05cb 683b a34b 03c0
00000310: 1214 55bf 7795 ef3f a13a bd16 b60a f03f
00000320: 2c84 d7b8 cf4a c23f 8893 ef26 1dff f73f
00000330: 2ad6 4eaa b1b8 03c0 8a36 d8d2 607c ef3f
00000340: c1f9 8a47 b9c0 ef3f a89e 09e8 61c8 bd3f
00000350: 87c9 f0d3 feb9 f83f 12c5 5941 ce97 03c0
00000360: 881a 6aa3 5401 f03f ead8 eaf4 0465 f03f
00000370: a5d0 0bf1 3d46 ba3f bc61 fcaa a5e8 f83f
00000380: 0324 9959 92d7 03c0 e550 f194 a48c ef3f
00000390: 755b c6ff a58f f03f 9b90 978f 7dfa bd3f
000003a0: d6b4 4d87 58c6 f73f ea81 bf00 d9b6 03c0
000003b0: f811 c713 9e8e ef3f 1c27 20f1 14b8 f03f
000003c0: c12b 44db 5336 ba3f 2601 046b 620d f83f
000003d0: ee1c e33f 54ce 03c0 9ac9 eb77 a78b ef3f
000003e0: 8077 80d6 14af f03f e4b5 735c ea07 bd3f
000003f0: 166c f76c b22b f83f d458 c057 9bc2 03c0
00000400: afb4 6778 ba7d ef3f 11e7 4b13 493c f03f
00000410: d418 702f 4eac bd3f 6d76 889e 692d f83f
00000420: 1392 c464 d4aa 03c0 da5a 641f 9eb2 ef3f
00000430: a825 07f3 0f1d f03f c439 8bd8 76fa bd3f
00000440: 4bf7 3cb4 d171 f83f e108 0c49 7f3c 03c0
00000450: e703 c722 64bb ef3f a638 b894 9603 f03f
00000460: f32e 0c76 f1cf bd3f e4eb adb2 2d54 f83f
00000470: 6a09 e8a8 5f4a 03c0 ca3b 4185 d38e ef3f
00000480: fd33 0cf4 f72d ef3f 98e6 2f31 cd88 c23f
00000490: d55d 4c68 ee54 f73f 4fee 1deb c769 03c0
000004a0: 7985 b787 d7bd ef3f 60cf c427 3d8f ef3f
000004b0: 20f8 bb72 143f bc3f 4185 afa9 36c9 f73f
000004c0: 3331 dd5e 2b37 03c0 96f0 c596 c002 f03f
000004d0: f08c beae bc2d ef3f b221 d309 7c42 bb3f
000004e0: e1e3 cca4 4b14 f83f 55b1 ccfe 6a76 03c0
000004f0: a946 723a 5d86 ef3f 2994 d0cd 871d ef3f
00000500: 098c 5fd0 1262 bc3f d688 f391 cd5a f83f
00000510: 4e56 8c4c 53e5 03c0 4027 fe44 4f6f ef3f
00000520: c8ad 0460 f117 ef3f 1139 bfee 9150 bf3f
00000530: eb11 6daa e901 f83f 87d9 72e5 b4d5 03c0
00000540: a925 92aa 21fc ee3f fd21 da82 2bad ee3f
00000550: 8351 8a89 3295 bd3f 2234 02e2 7db8 f73f
00000560: 7d2f eae7 8bfd 03c0 7612 9d60 21aa ef3f
00000570: e716 4a63 8b3e ef3f cb1e 0d6c 28fa be3f
00000580: d49b cd13 282b f73f 6fe9 8352 43aa 03c0
00000590: b008 74ea 4923 f03f 4b6d 0f7f 7679 ef3f
000005a0: 3bcc e2ff fe49 bd3f f697 7840 5817 f73f
000005b0: 1aff 5aa8 be48 03c0 4aeb b887 fb0b f03f
000005c0: 1ace 8997 e234 ef3f 4b1f 1f38 fb78 ba3f
000005d0: 667b 7621 aa72 f73f 0a4b 8087 9582 03c0
000005e0: cb3a 93e0 14e6 ef3f 159c c639 c3fb ef3f
000005f0: e67e ec5e 2b51 bd3f e4cd 67e1 9675 f73f
00000600: f211 b2f3 af7b 03c0 29fe d231 abca ef3f
00000610: 114e cffc efb8 ef3f 314e ed9c d419 bd3f
00000620: 4647 a6fb 6ef7 f63f d85d c648 9647 03c0
00000630: 90bb c103 38c6 ef3f c765 7dde d430 ef3f
00000640: 21c0 7ded 6596 bc3f bab3 f075 c3d1 f73f
00000650: d2d0 182f 7619 03c0 9b91 387e 3be9 ef3f
00000660: 2f72 460e b0e5 ee3f 2057 705e ebdc bb3f
00000670: 6422 9dcb c7c9 f73f 7211 50a4 c452 03c0
00000680: ec64 4d34 8591 ef3f a292 7e80 bfec ee3f
00000690: aef5 b40f 5b30 b63f b2f9 b486 ab07 f83f
000006a0: c8ae a733 c956 03c0 a192 726a 6d00 ef3f
000006b0: c310 d863 87e5 ef3f 27b3 06b5 00e1 b53f
000006c0: 62ba 7212 f48a f83f 7306 3cbe ab4d 03c0
000006d0: 26ff 4b9d 3443 ee3f a32c 24a6 67d0 ef3f
000006e0: 262e c57f 8581 b63f fa0f 9f31 36c0 f83f
000006f0: d703 dda6 9880 03c0 954c 7fe2 7396 ee3f
00000700: 0c2d 6856 b116 f03f a207 87ad d8ce b73f
00000710: c9bb 324b 191e f93f 1396 b0de d0d1 03c0
00000720: a96c 89d1 9927 ef3f 43b8 52ba 5874 ef3f
00000730: dfab 5bb2 7189 c23f 6119 0284 ce6d f83f
00000740: 3a4e b332 7f15 04c0 f46c c229 941f ef3f
00000750: 0644 2349 7583 ef3f 8355 0862 25a0 c13f
00000760: f06f 3dc6 dc1e f83f 9bb8 70f5 3fa6 03c0
00000770: 58b5 14d3 d0c9 ee3f c2c7 9fb4 a93d ef3f
00000780: d70f 21e2 9e36 c33f 1f54 2a28 1f70 f73f
00000790: 7c38 84cf 64aa 03c0 f738 4e7d 43b0 ee3f
000007a0: fd89 30cf e9d7 ef3f c0de b19b 50b0 c33f
000007b0: 2d38 f293 eeaa f73f cf9d 1f60 e004 04c0
000007c0: 307a 5adb 9c64 ee3f f97b ef8c 89a7 ef3f
000007d0: e7ad c3fc 5131 c43f d3bc 0a24 f499 f73f
000007e0: bc63 3ed5 1918 04c0 6507 17f6 2de2 ee3f
000007f0: 7796 4358 c046 f03f 2255 b401 a661 c13f

weight f8 [16000]
3.0 5.0 5.0 1.0 2.0 8.0 1.0 3.0
1.0 1.0 1.0 7.0 3.0 2.0 4.0 1.0
11.0 4.0 2.0 13.0 6.0 4.0 1.0 5.0
4.0 1.0 1.0 7.0 1.0 1.0 4.0 3.0
7.0 3.0 1.0 2.0 3.0 3.0 1.0 3.0
4.0 3.0 5.0 3.0 6.0 3.0 2.0 5.0
4.0 6.0 8.0 2.0 3.0 2.0 2.0 1.0
2.0 1.0 1.0 2.0 1.0 1.0 2.0 1.0
3.0 2.0 1.0 3.0 2.0 1.0 1.0 2.0
1.0 1.0 2.0 9.0 5.0 5.0 2.0 1.0
1.0 1.0 1.0 1.0 3.0 2.0 1.0 1.0
1.0 1.0 10.0 10.0 4.0 1.0 3.0 4.0
3.0 1.0 2.0 1.0 3.0 1.0 1.0 2.0
2.0 1.0 2.0 1.0 2.0 3.0 2.0 9.0
9.0 3.0 3.0 2.0 2.0 1.0 4.0 1.0
1.0 2.0 1.0 1.0 1.0 1.0 5.0 2.0
1.0 1.0 1.0 3.0 2.0 3.0 3.0 3.0
1.0 5.0 5.0 7.0 4.0 1.0 4.0 1.0
1.0 4.0 1.0 11.0 1.0 2.0 3.0 5.0
7.0 6.0 2.0 1.0 2.0 1.0 1.0 1.0
3.0 4.0 1.0 1.0 1.0 2.0 1.0 6.0
2.0 1.0 5.0 3.0 3.0 9.0 5.0 1.0
8.0 3.0 2.0 1.0 8.0 3.0 2.0 1.0
2.0 5.0 1.0 2.0 3.0 3.0 1.0 1.0
4.0 1.0 4.0 4.0 1.0 5.0 5.0 4.0
1.0 2.0 2.0 2.0 2.0 1.0 1.0 1.0
1.0 4.0 3.0 3.0 8.0 1.0 1.0 16.0
8.0 2.0 6.0 3.0 12.0 2.0 2.0 1.0
1.0 2.0 2.0 7.0 2.0 3.0 2.0 7.0
6.0 2.0 4.0 9.0 1.0 4.0 3.0 3.0
5.0 3.0 5.0 3.0 3.0 1.0 1.0 4.0
4.0 4.0 2.0 12.0 14.0 8.0 2.0 3.0
00000000: 0000 0000 0000 0840 0000 0000 0000 1440
00000010: 0000 0000 0000 1440 0000 0000 0000 f03f
00000020: 0000 0000 0000 0040 0000 0000 0000 2040
00000030: 0000 0000 0000 f03f 0000 0000 0000 0840
00000040: 0000 0000 0000 f03f 0000 0000 0000 f03f
00000050: 0000 0000 0000 f03f 0000 0000 0000 1c40
00000060: 0000 0000 0000 0840 0000 0000 0000 0040
00000070: 0000 0000 0000 1040 0000 0000 0000 f03f
00000080: 0000 0000 0000 2640 0000 0000 0000 1040
00000090: 0000 0000 0000 0040 0000 0000 0000 2a40
000000a0: 0000 0000 0000 1840 0000 0000 0000 1040
000000b0: 0000 0000 0000 f03f 0000 0000 0000 1440
000000c0: 0000 0000 0000 1040 0000 0000 0000 f03f
000000d0: 0000 0000 0000 f03f 0000 0000 0000 1c40
000000e0: 0000 0000 0000 f03f 0000 0000 0000 f03f
000000f0: 0000 0000 0000 1040 0000 0000 0000 0840
00000100: 0000 0000 0000 1c40 0000 0000 0000 0840
00000110: 0000 0000 0000 f03f 0000 0000 0000 0040
00000120: 0000 0000 0000 0840 0000 0000 0000 0840
00000130: 0000 0000 0000 f03f 0000 0000 0000 0840
00000140: 0000 0000 0000 1040 0000 0000 0000 0840
00000150: 0000 0000 0000 1440 0000 0000 0000 0840
00000160: 0000 0000 0000 1840 0000 0000 0000 0840
00000170: 0000 0000 0000 0040 0000 0000 0000 1440
00000180: 0000 0000 0000 1040 0000 0000 0000 1840
00000190: 0000 0000 0000 2040 0000 0000 0000 0040
000001a0: 0000 0000 0000 0840 0000 0000 0000 0040
000001b0: 0000 0000 0000 0040 0000 0000 0000 f03f
000001c0: 0000 0000 0000 0040 0000 0000 0000 f03f
000001d0: 0000 0000 0000 f03f 0000 0000 0000 0040
000001e0: 0000 0000 0000 f03f 0000 0000 0000 f03f
000001f0: 0000 0000 0000 0040 0000 0000 0000 f03f
00000200: 0000 0000 0000 0840 0000 0000 0000 0040
00000210: 0000 0000 0000 f03f 0000 0000 0000 0840
00000220: 0000 0000 0000 0040 0000 0000 0000 f03f
00000230: 0000 0000 0000 f03f 0000 0000 0000 0040
00000240: 0000 0000 0000 f03f 0000 0000 0000 f03f
00000250: 0000 0000 0000 0040 0000 0000 0000 2240
00000260: 0000 0000 0000 1440 0000 0000 0000 1440
00000270: 0000 0000 0000 0040 0000 0000 0000 f03f
00000280: 0000 0000 0000 f03f 0000 0000 0000 f03f
00000290: 0000 0000 0000 f03f 0000 0000 0000 f03f
000002a0: 0000 0000 0000 0840 0000 0000 0000 0040
000002b0: 0000 0000 0000 f03f 0000 0000 0000 f03f
000002c0: 0000 0000 0000 f03f 0000 0000 0000 f03f
000002d0: 0000 0000 0000 2440 0000 0000 0000 2440
000002e0: 0000 0000 0000 1040 0000 0000 0000 f03f
000002f0: 0000 0000 0000 0840 0000 0000 0000 1040
00000300: 0000 0000 0000 0840 0000 0000 0000 f03f
00000310: 0000 0000 0000 0040 0000 0000 0000 f03f
00000320: 0000 0000 0000 0840 0000 0000 0000 f03f
00000330: 0000 0000 0000 f03f 0000 0000 0000 0040
00000340: 0000 0000 0000 0040 0000 0000 0000 f03f
00000350: 0000 0000 0000 0040 0000 0000 0000 f03f
00000360: 0000 0000 0000 0040 0000 0000 0000 0840
00000370: 0000 0000 0000 0040 0000 0000 0000 2240
00000380: 0000 0000 0000 2240 0000 0000 0000 0840
00000390: 0000 0000 0000 0840 0000 0000 0000 0040
000003a0: 0000 0000 0000 0040 0000 0000 0000 f03f
000003b0: 0000 0000 0000 1040 0000 0000 0000 f03f
000003c0: 0000 0000 0000 f03f 0000 0000 0000 0040
000003d0: 0000 0000 0000 f03f 0000 0000 0000 f03f
000003e0: 0000 0000 0000 f03f 0000 0000 0000 f03f
000003f0: 0000 0000 0000 1440 0000 0000 0000 0040
00000400: 0000 0000 0000 f03f 0000 0000 0000 f03f
00000410: 0000 0000 0000 f03f 0000 0000 0000 0840
00000420: 0000 0000 0000 0040 0000 0000 0000 0840
00000430: 0000 0000 0000 0840 0000 0000 0000 0840
00000440: 0000 0000 0000 f03f 0000 0000 0000 1440
00000450: 0000 0000 0000 1440 0000 0000 0000 1c40
00000460: 0000 0000 0000 1040 0000 0000 0000 f03f
00000470: 0000 0000 0000 1040 0000 0000 0000 f03f
00000480: 0000 0000 0000 f03f 0000 0000 0000 1040
00000490: 0000 0000 0000 f03f 0000 0000 0000 2640
000004a0: 0000 0000 0000 f03f 0000 0000 0000 0040
000004b0: 0000 0000 0000 0840 0000 0000 0000 1440
000004c0: 0000 0000 0000 1c40 0000 0000 0000 1840
000004d0: 0000 0000 0000 0040 0000 0000 0000 f03f
000004e0: 0000 0000 0000 0040 0000 0000 0000 f03f
000004f0: 0000 0000 0000 f03f 0000 0000 0000 f03f
00000500: 0000 0000 0000 0840 0000 0000 0000 1040
00000510: 0000 0000 0000 f03f 0000 0000 0000 f03f
00000520: 0000 0000 0000 f03f 0000 0000 0000 0040
00000530: 0000 0000 0000 f03f 0000 0000 0000 1840
00000540: 0000 0000 0000 0040 0000 0000 0000 f03f
00000550: 0000 0000 0000 1440 0000 0000 0000 0840
00000560: 0000 0000 0000 0840 0000 0000 0000 2240
00000570: 0000 0000 0000 1440 0000 0000 0000 f03f
00000580: 0000 0000 0000 2040 0000 0000 0000 0840
00000590: 0000 0000 0000 0040 0000 0000 0000 f03f
000005a0: 0000 0000 0000 2040 0000 0000 0000 0840
000005b0: 0000 0000 0000 0040 0000 0000 0000 f03f
000005c0: 0000 0000 0000 0040 0000 0000 0000 1440
000005d0: 0000 0000 0000 f03f 0000 0000 0000 0040
000005e0: 0000 0000 0000 0840 0000 0000 0000 0840
000005f0: 0000 0000 0000 f03f 0000 0000 0000 f03f
00000600: 0000 0000 0000 1040 0000 0000 0000 f03f
00000610: 0000 0000 0000 1040 0000 0000 0000 1040
00000620: 0000 0000 0000 f03f 0000 0000 0000 1440
00000630: 0000 0000 0000 1440 0000 0000 0000 1040
00000640: 0000 0000 0000 f03f 0000 0000 0000 0040
00000650: 0000 0000 0000 0040 0000 0000 0000 0040
00000660: 0000 0000 0000 0040 0000 0000 0000 f03f
00000670: 0000 0000 0000 f03f 0000 0000 0000 f03f
00000680: 0000 0000 0000 f03f 0000 0000 0000 1040
00000690: 0000 0000 0000 0840 0000 0000 0000 0840
000006a0: 0000 0000 0000 2040 0000 0000 0000 f03f
000006b0: 0000 0000 0000 f03f 0000 0000 0000 3040
000006c0: 0000 0000 0000 2040 0000 0000 0000 0040
000006d0: 0000 0000 0000 1840 0000 0000 0000 0840
000006e0: 0000 0000 0000 2840 0000 0000 0000 0040
000006f0: 0000 0000 0000 0040 0000 0000 0000 f03f
00000700: 0000 0000 0000 f03f 0000 0000 0000 0040
00000710: 0000 0000 0000 0040 0000 0000 0000 1c40
00000720: 0000 0000 0000 0040 0000 0000 0000 0840
00000730: 0000 0000 0000 0040 0000 0000 0000 1c40
00000740: 0000 0000 0000 1840 0000 0000 0000 0040
00000750: 0000 0000 0000 1040 0000 0000 0000 2240
00000760: 0000 0000 0000 f03f 0000 0000 0000 1040
00000770: 0000 0000 0000 0840 0000 0000 0000 0840
00000780: 0000 0000 0000 1440 0000 0000 0000 0840
00000790: 0000 0000 0000 1440 0000 0000 0000 0840
000007a0: 0000 0000 0000 0840 0000 0000 0000 f03f
000007b0: 0000 0000 0000 f03f 0000 0000 0000 1040
000007c0: 0000 0000 0000 1040 0000 0000 0000 1040
000007d0: 0000 0000 0000 0040 0000 0000 0000 2840
000007e0: 0000 0000 0000 2c40 0000 0000 0000 2040
000007f0: 0000 0000 0000 0040 0000 0000 0000 0840

lkl f8 [16000]
-85.47860650873568 -85.40877645445177 -85.50034870918256 -86.12368336379491 -84.89282416215347 -85.6306191590668 -86.22518129284022 -87.2700019637085
-89.52004460513604 -86.91562037964603 -87.22019159722052 -85.76368680933605 -84.21226855828571 -84.11458482356842 -86.3868587338592 -86.37619902508585
-85.19414319132416 -84.9420926905784 -84.63428013493727 -84.34791303720348 -85.41045847805725 -86.23306579720568 -86.61071588304765 -86.87201614272364
-87.4481176678935 -84.4315421004084 -84.23139798239946 -84.55163709852076 -85.2184853608827 -86.19681552779865 -87.23282139994794 -85.80124514118845
-86.9223229612181 -88.33030429116434 -88.10264988520618 -89.61169798586016 -89.27571794176352 -86.87349288246243 -85.6634808590092 -88.5746214530913
-87.84392698828465 -86.74621153384648 -86.80388471749232 -89.90535660060836 -87.45986095151393 -87.18159739933128 -87.87754389207345 -86.8452809922321
-87.22945616051526 -90.20368457768625 -88.80496630375363 -89.94526219154623 -91.79390605679653 -91.31608663811184 -89.43976506629473 -88.97832956125735
-90.03999337963229 -88.66164668263811 -89.26806304393773 -88.68747467923265 -88.30125297359122 -87.42438812671982 -86.54480879425056 -84.01556659012758
-84.40797550133846 -88.13691354465053 -86.416417609891 -85.09160105062159 -85.29692854006635 -85.56961044784423 -84.6981658539623 -84.43684645558244
-85.673703989883 -84.4060652020725 -84.96542398197647 -84.46627278404122 -84.74630129742563 -85.36101641529324 -87.06455599875466 -85.40795994364937
-87.8451610447258 -87.51568597779405 -85.94999702695233 -85.87976138396083 -83.88561971641606 -84.06065982794907 -83.7460790964732 -85.86939732754132
-85.2423851905691 -84.99855884261811 -83.98753367385767 -85.02969028146974 -84.78477582634144 -88.22833245769027 -89.12273016917882 -89.40284506852291
-87.16161543967661 -88.22048818332298 -84.80903695750357 -85.19261924270994 -85.50528854968587 -87.090433344085 -87.70837986308099 -88.52064891378109
-85.2275196984631 -85.60039894383826 -86.20555087843212 -86.49211533289242 -85.0092960410596 -84.84516892702338 -84.71392923796296 -85.38290452892336
-86.71325183730269 -85.82850102698426 -86.07175690586394 -88.9327610402974 -90.19998424878625 -89.4602717546836 -89.33015871929634 -88.11582695745228
-87.76433210296506 -91.26267681399631 -92.53864248864761 -90.14669152235275 -89.04328247348663 -87.95380724890698 -89.40760681370678 -92.09412743076827
-90.78563625072098 -88.731996351428 -88.31661827841873 -87.37254039138566 -87.91804828947697 -87.47090735131488 -86.70316629857987 -86.28857405395867
-85.09712642802043 -84.65984675713757 -85.90118697839142 -85.40037434020752 -84.08438423109222 -84.37608778360006 -84.44988759031432 -84.60786133264742
-85.12680996479045 -84.92266103342374 -85.67848230252905 -84.76755446475875 -86.16401137162504 -87.42206571185889 -88.11668180713183 -86.75614624953268
-84.5494185218894 -85.17100532301744 -85.74387970629898 -86.8589830470761 -86.20577943683584 -85.69023698862044 -84.8376022417758 -84.96948184447834
-85.98252056573216 -85.34191996106736 -84.4127962606911 -84.04397371986403 -84.92972593523243 -85.0610558508644 -84.69699528828566 -85.42655445050923
-84.95341817957174 -85.5566278306548 -85.42293483841489 -84.86245839136667 -84.39094045752182 -85.50027067060434 -85.66352487399605 -84.50515417525017
-86.466367547501 -88.24355516300719 -87.36358447366369 -87.32501474915415 -87.92771118567917 -88.47398877665236 -88.37708240610093 -88.56527435341907
-88.94708251426383 -88.34319244197592 -87.47941018365816 -87.0048198267418 -85.19532206144727 -85.69759661615807 -89.19861865462414 -90.57539363748363
-88.21350008604774 -87.21507463625377 -86.46358789001826 -85.76595578449162 -88.79528005513794 -91.53316862830621 -89.94837206108349 -88.69134889771651
-89.74035125470785 -87.57520762214152 -87.5485021420795 -88.5433488733612 -88.96578543976175 -89.12566537987742 -88.69293151709928 -86.15475629053196
-88.38112659530344 -89.31361018887453 -86.66394282155724 -85.03097218040942 -84.63127445613658 -84.46733675111986 -85.01883325419215 -83.99781302686519
-84.90446332906895 -84.71449404362976 -84.07253706804656 -85.0120700406877 -86.7178782475242 -85.95651576307127 -87.94684357441884 -87.00735972078819
-87.37985919663416 -85.06515832597964 -84.79340061405026 -84.31104257108534 -86.8347508934414 -86.19419324588101 -84.31829843581296 -84.83728698546295
-85.30836167801974 -85.1299722885153 -85.86272215129688 -85.62509331060409 -86.10428171677567 -86.49531564837827 -84.8539685031851 -84.31301727325308
-84.40826437872401 -84.60939970500417 -86.42085406678704 -86.6367444977495 -87.18881516692998 -85.84640508768577 -85.9222342559264 -85.81589641136156
-84.15602526224936 -85.3354054001353 -85.0964609217012 -86.26112503798903 -85.05113397681235 -86.73894759898877 -86.86082606858048 -86.2653670138463
00000000: 0aab 317d a15e 55c0 b1cf b764 295a 55c0
00000010: 3ca2 97b6 0560 55c0 bda3 a06d ea87 55c0
00000020: c761 f407 2439 55c0 111b 7610 5c68 55c0
00000030: dd1a cc5e 698e 55c0 f6fe 50b6 47d1 55c0
00000040: 50e1 2a69 4861 56c0 5f88 3886 99ba 55c0
00000050: a23a 7f9e 17ce 55c0 099f a33e e070 55c0
00000060: 99f3 dcce 950d 55c0 0976 955b 5507 55c0
00000070: 3986 224b c298 55c0 f961 13a5 1398 55c0
00000080: 9d5e 90d7 6c4c 55c0 6ff5 233f 4b3c 55c0
00000090: b703 b50b 9828 55c0 0629 0b35 4416 55c0
000000a0: cce7 a2f3 445a 55c0 2234 ce8c ea8e 55c0
000000b0: 9835 12f8 15a7 55c0 41a5 cb1c cfb7 55c0
000000c0: 3117 baf5 addc 55c0 7a06 c262 9e1b 55c0
000000d0: 07b1 7b39 cf0e 55c0 0c5a b005 4e23 55c0
000000e0: 57e9 05aa fb4d 55c0 5fcf 27a0 988c 55c0
000000f0: 76a5 ba8b e6ce 55c0 ee5e b399 4773 55c0
00000100: 06b2 e256 07bb 55c0 e011 9cb4 2315 56c0
00000110: 84f9 d2d0 9106 56c0 1a13 4f0f 2667 56c0
00000120: ddb2 dd5c a551 56c0 c1dd b04e e7b7 55c0
00000130: dbbd 6b78 766a 55c0 db26 0f99 c624 56c0
00000140: 3db9 57e6 02f6 55c0 3171 05ee c1af 55c0
00000150: 8fd8 e2d8 72b3 55c0 29b5 cf5c f179 56c0
00000160: 6ddd a05c 6edd 55c0 a8ca b24a 9fcb 55c0
00000170: a450 dbad 29f8 55c0 4f64 7215 19b6 55c0
00000180: d751 e468 afce 55c0 2bf7 092b 098d 56c0
00000190: 3f40 6391 8433 56c0 87b5 fd2c 7f7c 56c0
000001a0: 6582 595b cff2 56c0 2659 73c3 3ad4 56c0
000001b0: 2f6a 601c 255c 56c0 dd93 97f3 9c3e 56c0
000001c0: f164 6440 8f82 56c0 01dc 536b 582a 56c0
000001d0: a4be e5f1 2751 56c0 7808 cc95 ff2b 56c0
000001e0: 6959 8dba 4713 56c0 a144 d12c 29db 55c0
000001f0: 4778 b425 dea2 55c0 86e0 020b ff00 55c0
00000200: 58f4 4645 1c1a 55c0 d229 0731 c308 56c0
00000210: 76fd 0b96 a69a 55c0 bc2c a7ca dc45 55c0
00000220: 6035 90e0 0053 55c0 db3c 617f 7464 55c0
00000230: ed7c d5bf ae2c 55c0 6806 d64a f51b 55c0
00000240: dcee 56f7 1d6b 55c0 7bbc e6f8 fc19 55c0
00000250: 3c57 ab81 c93d 55c0 349e cd69 d71d 55c0
00000260: f359 8466 c32f 55c0 3b40 98e4 1a57 55c0
00000270: 5cda 7baf 21c4 55c0 5503 0604 1c5a 55c0
00000280: d5bc 591e 17f6 55c0 6668 c2ff 00e1 55c0
00000290: ae83 54c0 cc7c 55c0 4f19 b102 4e78 55c0
000002a0: c9ac 51fe adf8 54c0 394e c2d9 e103 55c0
000002b0: 39e5 89c2 bfef 54c0 4441 b034 a477 55c0
000002c0: dba1 2c3d 834f 55c0 4a0b 5963 e83f 55c0
000002d0: b73a 70c0 33ff 54c0 fbfa 1072 e641 55c0
000002e0: fc34 63c4 3932 55c0 4899 bdff 9c0e 56c0
000002f0: c2b6 a3cf da47 56c0 4aaa ae36 c859 56c0
00000300: 24fc 48e8 57ca 55c0 b521 787a 1c0e 56c0
00000310: ec6e f242 c733 55c0 3f01 a9df 534c 55c0
00000320: 6cfc c8a5 5660 55c0 08d4 efa8 c9c5 55c0
00000330: fb44 7e18 56ed 55c0 d058 d24f 5221 56c0
00000340: 1106 c8ae 8f4e 55c0 a615 b1ef 6c66 55c0
00000350: ec21 dfbe 278d 55c0 8528 4fd1 7e9f 55c0
00000360: 5415 6c4e 9840 55c0 4b4a 693f 1736 55c0
00000370: 622d 4204 b12d 55c0 d54d ff81 8158 55c0
00000380: bac1 08eb a5ad 55c0 63e6 2b29 0675 55c0
00000390: a8fc 46aa 9784 55c0 dbc3 5c5b b23b 56c0
000003a0: 2210 bc8a cc8c 56c0 df68 a917 755d 56c0
000003b0: 7d77 0952 2155 56c0 2d90 78b5 6907 56c0
000003c0: 2461 32d1 eaf0 55c0 0662 69b2 cfd0 56c0
000003d0: 903e 581e 7922 57c0 c1c6 d664 6389 56c0
000003e0: 5d07 da23 c542 56c0 912f 8f2d 0bfd 55c0
000003f0: d59f e33a 165a 56c0 9933 0f2f 0606 57c0
00000400: 84d9 44dd 47b2 56c0 2c8b 3907 d92e 56c0
00000410: f4c7 4f79 4314 56c0 305c a7b3 d7d7 55c0
00000420: f3dc 9c4d c1fa 55c0 fa55 9658 23de 55c0
00000430: 3203 38ad 00ad 55c0 810e 4fff 7792 55c0
00000440: 34fb c351 3746 55c0 c391 e4ed 3a2a 55c0
00000450: 6cf1 250c ad79 55c0 5456 b2bb 9f59 55c0
00000460: b535 1e8d 6605 55c0 31bf 7ed2 1118 55c0
00000470: aed1 51f5 ca1c 55c0 500e 3833 e726 55c0
00000480: 3ee5 8aa7 1d48 55c0 4ef6 dce0 0c3b 55c0
00000490: bb11 0941 6c6b 55c0 6802 c39c 1f31 55c0
000004a0: 4e53 8d29 7f8a 55c0 9a4c e71f 03db 55c0
000004b0: d76a f8b6 7707 56c0 192f 3db3 64b0 55c0
000004c0: 39d5 4dac 2923 55c0 5173 4fc0 f14a 55c0
000004d0: 95ad a0b9 9b6f 55c0 a8c0 0794 f9b6 55c0
000004e0: 8dd9 837d 2b8d 55c0 5127 c3d7 2c6c 55c0
000004f0: efde 6e46 9b35 55c0 6a06 94fd 0b3e 55c0
00000500: e45d f09d e17e 55c0 92a8 4204 e255 55c0
00000510: 14e5 0141 6b1a 55c0 c42c 2677 d002 55c0
00000520: 3e84 35a1 803b 55c0 4bac cc56 e843 55c0
00000530: cb29 2092 9b2c 55c0 a0b9 09ab 4c5b 55c0
00000540: 0a2b afcd 043d 55c0 2c2d 56ca 9f63 55c0
00000550: 2fd5 485d 115b 55c0 2945 ae84 3237 55c0
00000560: 54ef 1f2b 0519 55c0 3159 466f 0460 55c0
00000570: 5179 0831 776a 55c0 ca88 2d72 5420 55c0
00000580: ae1b 45f7 d89d 55c0 d2f8 6468 960f 56c0
00000590: 03ee cff7 44d7 55c0 6c95 a90a cdd4 55c0
000005a0: 07a8 bc9e 5ffb 55c0 2699 05d5 551e 56c0
000005b0: 6e86 3e1e 2218 56c0 f54c 7b74 2d24 56c0
000005c0: 1a58 faff 9c3c 56c0 57a1 6edd f615 56c0
000005d0: 980b 0da8 aede 55c0 9e8e d1f7 4ec0 55c0
000005e0: 9d86 1a28 804c 55c0 bf0c 476c a56c 55c0
000005f0: 1e7f 042b b64c 56c0 65d4 d53f d3a4 56c0
00000600: 2bd1 43fc a90d 56c0 2e3a 68c8 c3cd 55c0
00000610: ce9c 8a6c ab9d 55c0 b524 696b 0571 55c0
00000620: a0fe 50de e532 56c0 0475 4f6f 1fe2 56c0
00000630: ccb2 ba20 b27c 56c0 5b74 720f 3f2c 56c0
00000640: 75a1 3aea 616f 56c0 7f60 a133 d0e4 55c0
00000650: 1d81 baa8 1ae3 55c0 e859 5a3a c622 56c0
00000660: b3ae bb6d cf3d 56c0 0734 cee6 0a48 56c0
00000670: c813 6ffd 582c 56c0 d8ab ed86 e789 55c0
00000680: b49d cd60 6418 56c0 253a 7830 1254 56c0
00000690: 2640 080a 7eaa 55c0 6f7c bd72 fb41 55c0
000006a0: 09fa f9cc 6628 55c0 d691 67d8 e81d 55c0
000006b0: 48b5 6490 3441 55c0 297a 2b2b dcff 54c0
000006c0: 13b2 28ba e239 55c0 e7a4 3945 ba2d 55c0
000006d0: 7ec0 8372 a404 55c0 f780 6bc1 c540 55c0
000006e0: 14e8 9ab7 f1ad 55c0 f91f e48d 377d 55c0
000006f0: a0a3 ca15 99fc 55c0 f305 e894 78c0 55c0
00000700: 3aa8 f29c 4fd8 55c0 42c9 d38d 2b44 55c0
00000710: 387e 5e13 c732 55c0 6b9e 191f e813 55c0
00000720: cee8 028f 6cb5 55c0 6f0a 82a9 6d8c 55c0
00000730: d10b 6700 5f14 55c0 82fb 261c 9635 55c0
00000740: ce9b 9e32 bc53 55c0 cf23 4a77 5148 55c0
00000750: b656 f8d6 3677 55c0 8c7f 5f87 0168 55c0
00000760: d3c7 388d ac86 55c0 d4be 6740 b39f 55c0
00000770: 9f3f 826b a736 55c0 20ed 9979 0814 55c0
00000780: 73af ea00 211a 55c0 d6cb 9e67 0027 55c0
00000790: 4b4f e545 ef9a 55c0 7e6f fe6b c0a8 55c0
000007a0: ffbc 358c 15cc 55c0 d1b1 3e80 2b76 55c0
000007b0: 1b1d d4e2 057b 55c0 30ee 94a5 3774 55c0
000007c0: 7ead 6151 fc09 55c0 e81e 3648 7755 55c0
000007d0: 1d03 6e6a 2c46 55c0 1995 ca45 b690 55c0
000007e0: e787 71c7 4543 55c0 54c7 deea 4aaf 55c0
000007f0: 3c06 39c6 17b7 55c0 0d7a edc5 fb90 55c0
