chains/ch143_217_353_545_TE_B50EXT.npz (npz, 897880 bytes, 3 tensors)

chain f8 [16000, 5]
0	0x3fbd80c7a49c8909	0.11524627465090388
1	0x3ff8390a1eb2c85a	1.5139256667285026
2	0xc00369dd9d0910d7	-2.4266922253028542
3	0x3fefb567fe8e5ea1	0.9908943149375383
4	0x3fef27cfdd62d674	0.973609859842965
5	0x3fb9942969a3b50d	0.09991701916779423
6	0x3ffa197fb0787ebb	1.6312252896677097
7	0xc003642a3034f28e	-2.4239085928114212
8	0x3fef1829fec32f66	0.9716997123555131
9	0x3fee09f282fddaec	0.938714271395694
10	0x3fb5684f3f4f04ea	0.08362288756963535
11	0x3ff9e66ca70a8fe3	1.6187559628533499
12	0xc002e83d1ee95a0b	-2.3633978285754487
13	0x3fef375aabddc835	0.9755071026577357
14	0x3fefd0ffccd0ea55	0.9942625999750115
15	0x3fb702c9408a369e	0.08988626313859036
16	0x3ff9498e41079de6	1.580457929632638
17	0xc003432d09f2e764	-2.407800748563135
18	0x3fee77427c978d0e	0.9520580705106185
19	0x3feeb07098cf6061	0.9590380653926439
20	0x3fbc9635da1db67f	0.11166702818965211
21	0x3ff96a0a70bddca3	1.5883888629885312
22	0xc003fb7c8665deca	-2.497796106323084
23	0x3fee00b816802ea2	0.9375877799479506
24	0x3fee24d0e74a6ba4	0.9419941441914159
25	0x3fbe11311eefefc6	0.11744982724479688
26	0x3ff9337baf25fc8e	1.5750691262944971
27	0xc00421ba40ec5eab	-2.516468531812128
28	0x3fee874867beb907	0.9540140177030317
29	0x3fee64ff5ab91e90	0.949828793710326
30	0x3fbf05db9e449b6a	0.12118313421215779
31	0x3ff7a56450a19724	1.4778788709313142
32	0xc0038d5beb1f49ee	-2.44402297677265
33	0x3fee4e082bf801a0	0.9470253809704907
34	0x3fef88bffbb06357	0.9854431072045412
35	0x3fc0e2e1846ec741	0.13192385641519347
36	0x3ff7cab7794a5251	1.4869913804915493
37	0xc00432a693469f48	-2.524731779663771
38	0x3fef1158f13b4014	0.9708676063110055
39	0x3fef7d3e30d39c8d	0.9840384439129523
40	0x3fbe0dd86686e1b0	0.11739876273248373
41	0x3ff7bdb945a003e6	1.4838192672470938
42	0xc003aeca6c95276f	-2.4603470309274864
43	0x3fef46005126e8ea	0.9772950730323633
44	0x3ff08bb830d28969	1.0341112048268661
45	0x3fc31164e27f7be5	0.148968325228423
46	0x3ff6d62227d12692	1.4272786670066222
47	0xc003c3c5477af0bd	-2.4705911239999225
48	0x3fef57e7309d3819	0.9794803571219318
49	0x3feea0b033091041	0.9571152684006919
50	0x3fc7c1c044c2e53b	0.185600312781199
51	0x3ff56b403a5c76b2	1.3386842994436106
52	0xc003e9b9b5b2f8b0	-2.4891237445109127
53	0x3fef03302104c6ea	0.969139160623141
54	0x3feeeabb67ee43d1	0.9661538152596397
55	0x3fc244433bf23521	0.1427082102494888
56	0x3ff652fb719ca6e1	1.3952593267408064
57	0xc003a3f4dacdacd9	-2.455056867028912
58	0x3fef44d82502e6a2	0.9771538470151493
59	0x3fefb52cd7af9124	0.9908661091435857
60	0x3fc295870deb2d6b	0.14518821887609631
61	0x3ff796cd94c0a990	1.4743171511314337
62	0xc00488755291c188	-2.5666300249797054
63	0x3feee48b328efe5e	0.9653984057876632
64	0x3fef373f85b36c7d	0.9754941569657515
65	0x3fbca20e2e5eddc5	0.11184776908964185
66	0x3ff965ce23c7b06e	1.5873547933252001
67	0xc003c9ccc31dc222	-2.4735350841003916
68	0x3fef906e8dc4311d	0.986380841147852
69	0x3fef2e12144b8981	0.9743738552463556
70	0x3fbc7c9e0dbbf19f	0.1112765105753568
71	0x3ff89872266ecff4	1.537218237045633
72	0xc002ccb974f8ebae	-2.349963106008963
73	0x3fef42b539d16421	0.9768930558449292
74	0x3ff029e2aea576ff	1.01022594662885
75	0x3fc13766d84c0328	0.13450322686551286
76	0x3ff8285a076830f3	1.5098514832816903
77	0xc0042ce77ea8059a	-2.5219259161974152
78	0x3fef37394f2c275c	0.9754911943757452
79	0x3ff09f8290eff1ed	1.0389428769695954
80	0x3fc017eda34585aa	0.12573023292774838
81	0x3ff78dc00a7b1a0d	1.4721069726380194
82	0xc00410fa5877cdb7	-2.5082899962960385
83	0x3fef8aa730dec613	0.9856754259582793
84	0x3ff06d2674041e98	1.0266479999426448
85	0x3fb82bcce0dd3e06	0.09441833963250454
86	0x3ffa08409799a5ab	1.6270147249109452
87	0xc002fc4e03181d1f	-2.373195671246904
88	0x3feee40ea7dda4b9	0.9653390196446231
89	0x3feffdf408e862b4	0.9997501539210902
90	0x3fc178f081fab3ac	0.13650328013082225
91	0x3ff86743bcb244eb	1.5252110835029338
92	0xc00365a433a1b7b0	-2.4246295961119912
93	0x3fef167a43667329	0.9714938465509465
94	0x3fef4ff86cc85ad3	0.9785120129261834
95	0x3fc3b0dac7b17bb1	0.15383467436455825
96	0x3ff7c78d9f61efe4	1.4862190461999427
97	0xc0041d1bd230b993	-2.5142132207030925
98	0x3feeeae0e5edb309	0.9661716929236671
99	0x3fef94f0e728c2cd	0.9869312777355731
100	0x3fc3278ac4890f73	0.14964422794775664
101	0x3ff748d6d9fd3ae5	1.455283023376688
102	0xc003a2be6db66c35	-2.4544647761627183
103	0x3feee08c319c529b	0.9649105996091579
104	0x3fef7370c912b996	0.9828418662271357
105	0x3fc59038df5f5fc6	0.16846381098616642
106	0x3ff64526b4739238	1.391882614983059
107	0xc003b8e893c228c4	-2.465287355768938
108	0x3fee8a444ed21930	0.9543782748667464
109	0x3fef4673788479b0	0.9773499826294962
110	0x3fbc6cf7171c7fe5	0.11103767694703455
111	0x3ff8fa8afeb24c51	1.5611677121239789
112	0xc003d62d7b3975bb	-2.4795789362821927
113	0x3fef0c265a652554	0.9702331319360078
114	0x3feec802217969e8	0.9619150785250072
115	0x3fc55581b2c115a5	0.16667195537790494
116	0x3ff5d6220660467d	1.3647785424294903
117	0xc0030c0ac07a0fc1	-2.380879882550261
118	0x3feee2ff3b514725	0.9652095945877802
119	0x3feeee3baa79b4ad	0.9665811853025353
120	0x3fc46ff8d8d9f729	0.15966711605499853
121	0x3ff714d7c743e937	1.4425885947990318
122	0xc0042f7c3a85c80d	-2.523186166007696
123	0x3fef6723fdb12d60	0.981340404026394
124	0x3fef5c3bbc718545	0.980008953145593
125	0x3fc3ed61dbf998eb	0.15568183175054826
126	0x3ff67c941e777e7e	1.4054146947964052
127	0xc003b6cd55ef2a20	-2.464258834229682
128	0x3fef41c633250541	0.9767790793340866
129	0x3ff067bf347174a5	1.025328831535526
130	0x3fbf94aa98a74c1e	0.12336221911327569
131	0x3ff7329cc48be979	1.4498565366362455
132	0xc0032f0b05a160df	-2.3979702415345936
133	0x3feefef99d6868d8	0.9686248850223604
134	0x3ff0cc8776950fb4	1.049933875286098
135	0x3fc0a94d2ad1f444	0.13016666975809887
136	0x3ff6f79cfff97a65	1.4354524611477697
137	0xc002f67fe96ab0bd	-2.370361159866745
138	0x3fef01dbea33c0fc	0.9689769338856702
139	0x3ff063c5c3039bca	1.0243585221994516
140	0x3fbff95415944562	0.12489820029101886
141	0x3ff78789d19b47cc	1.470590418601648
142	0xc003ab27f98ff7a9	-2.4585723397312518
143	0x3fef52d3cd7133c7	0.9788607609312913
144	0x3ff0585e95d61fde	1.021574578569918
145	0x3fc1ef2fb2000a40	0.14011188689626586
146	0x3ff6617df17e04fe	1.3988017495433378
147	0xc0044ffb31ea0463	-2.5390533351460802
148	0x3feefb4acff814a1	0.9681753217597767
149	0x3ff0400d227de84b	1.0156375262581772
150	0x3fb529c9ef0ee4c8	0.0826688965452319
151	0x3ff92d14ec2d3fdf	1.5735062814383054
152	0xc003b45667352b12	-2.463055425939623
153	0x3fee94ecc7c9821d	0.9556793119518862
154	0x3ff0287fd1be8ec9	1.0098875229968363
155	0x3fb586f1956a0dd7	0.08409032724198738
156	0x3ff981c0b55d71db	1.594177921731094
157	0xc0041808f85b569d	-2.511735859191346
158	0x3fee30dedc452b7e	0.9434656431343311
159	0x3ff048bdcd7b4454	1.0177591349240815
160	0x3fc29c1307265e63	0.14538801049342273
161	0x3ff79096835a1094	1.4727997904711048
162	0xc00530d8ffb301ad	-2.648851392412516
163	0x3fee83f4ac050daf	0.9536078796158359
164	0x3ff0a2632793b63d	1.0396453424431364
165	0x3fc13ba2de1d58aa	0.1346324524444687
166	0x3ff7ae75172da502	1.4800921349909122
167	0xc0045e029259f19a	-2.5459033425997406
168	0x3fee2665f5644532	0.9421872895056025
169	0x3ff08233247334f0	1.0317870544270669
170	0x3fc0fea2c710c11c	0.13277086944572936
171	0x3ff7f1c69cd6538f	1.4965273024037946
172	0xc002d2394cc2c529	-2.3526483532847533
173	0x3feeaa8552862aa8	0.9583155261801339
174	0x3ff034d658430f67	1.012899727605111
175	0x3fbcbcd6d5378d82	0.11225645738118398
176	0x3ff80a174598b9da	1.5024636000267635
177	0xc00281adcd6f6eb7	-2.313319783175611
178	0x3feed49ad9953712	0.9634527444520435
179	0x3fef4e2e35c8e63c	0.9782935190662054
180	0x3fb89bbb1702b282	0.09612626373081848
181	0x3ffa36eb3ef8da43	1.6384079418036357
182	0xc0035671794b8fc5	-2.417208621614892
183	0x3fee794f6cc436e0	0.9523083805413215
184	0x3fef7d032f345a13	0.9840103074992065
185	0x3fbc93502b33fac2	0.11162282042276231
186	0x3ff84f95220ab142	1.5194293336636098
187	0xc002813106c74bbc	-2.3130817918367637
188	0x3feef580e3b8caa3	0.9674686858837344
189	0x3fefebef0f6d7c53	0.9975505162546007
190	0x3fbd8614f420df25	0.11532717666784416
191	0x3ff89b58add2a391	1.5379263677552653
192	0xc00294ddb4a99ba8	-2.3226884950886024
193	0x3feea76e0b518846	0.9579382153572247
194	0x3fef81914f60934e	0.9845663595520848
195	0x3fc7235e2f26fc6e	0.1807668428645885
196	0x3ff60a2130ba56b5	1.3774730590279607
197	0xc003a93e0e77de55	-2.457637894661995
198	0x3fef231714088f35	0.9730334655073195
199	0x3fefb15ed39b2425	0.9904016621522983
200	0x3fc3ec7cd40f38dc	0.15565452913728606
201	0x3ff8362333bec233	1.5132171651167823
202	0xc003b2ec2d156ce9	-2.4623645326770327
203	0x3fef5fe5804bc198	0.9804561143665067
204	0x3fef21e5a93dd3e9	0.972887831258615
205	0x3fc694a970692cbc	0.17641180027781
206	0x3ff768615a481bb7	1.4629834677341316
207	0xc004c6c7e10082a9	-2.5970609262734183
208	0x3fef4669ba422a0e	0.9773453367100176
209	0x3fecf28761830ee0	0.9046055702715101
210	0x3fc629bc16b04b23	0.17314864261478488
211	0x3ff59f4979b50c0e	1.3513884309948057
212	0xc003826eb3200f23	-2.4386877054365796
213	0x3fefa9fa5028f1b8	0.9894992414115711
214	0x3fecdf978cafe2d8	0.9022939441484494
215	0x3fc3e3705fa11819	0.1553783862056555
216	0x3ff71218adaa0d67	1.4419180663834028
217	0xc0040bf7602ea574	-2.505842925475628
218	0x3fefeee4c4eb0898	0.9979118200356139
219	0x3fec372b877b9569	0.8817346235415872
220	0x3fbf24ad46a17de8	0.12165339445481715
221	0x3ff73b4c312743f5	1.451976959233659
222	0xc001bb84c64a0e84	-2.216561841139823
223	0x3fef30366589a248	0.9746353133351215
224	0x3fec639b52260b46	0.8871590237107305
225	0x3fb6e899d16aa866	0.08948670733175987
226	0x3ff818a04a7a5c6a	1.5060122403426939
227	0xc0016c9fc6c2150d	-2.1780391242961117
228	0x3fef0daf950e53ea	0.9704206382035612
229	0x3fecd4e3e20b7fcd	0.9009875693263837
230	0x3fb6b076d8d31713	0.08863013070648788
231	0x3ff99e02e9231b75	1.6010769946021501
232	0xc002747c9994a8e4	-2.3068782804958676
233	0x3feea4cd0ad578c7	0.9576173030470948
234	0x3feb7d932727aeac	0.8590789570566435
235	0x3fc24232feea191e	0.1426452393245165
236	0x3ff6f2071b8f8730	1.4340888096416613
237	0xc002ab8629c64438	-2.3337519897109154
238	0x3fee36489a585e45	0.9441264166407072
239	0x3fedb2d41b48d8ec	0.9280796559239923
240	0x3fbadd33228c67f0	0.10493774026363645
241	0x3ff8a1b34c507c61	1.5394776326209227
242	0xc0023480547e50b5	-2.275635395150028
243	0x3feea35609912d58	0.9574384867532144
244	0x3fed8bccc032da41	0.9233154062156431
245	0x3fbb31d6496d65cc	0.106229203154178
246	0x3ff997e06a6e8ca0	1.599579253911351
247	0xc0031796c38dfaf7	-2.3865180280403098
248	0x3feebf44cab61053	0.9608482321932662
249	0x3fef273b67e61bc2	0.9735390691065435
250	0x3fbc2d33a2fcd816	0.11006472329322067
251	0x3ff95f51a2854035	1.5857712124307117
252	0xc00331b24974b4bc	-2.3992658365956157
253	0x3feee6ff759ed024	0.9656979844353413
254	0x3fef758aacae02b6	0.9830983517313914
255	0x3fc39d4e8a7dd1b6	0.15323812258033137

weight f8 [16000]
0	0x4010000000000000	4.0
1	0x3ff0000000000000	1.0
2	0x4008000000000000	3.0
3	0x3ff0000000000000	1.0
4	0x4010000000000000	4.0
5	0x4014000000000000	5.0
6	0x4018000000000000	6.0
7	0x4020000000000000	8.0
8	0x402c000000000000	14.0
9	0x4000000000000000	2.0
10	0x4010000000000000	4.0
11	0x3ff0000000000000	1.0
12	0x3ff0000000000000	1.0
13	0x4008000000000000	3.0
14	0x4008000000000000	3.0
15	0x4032000000000000	18.0
16	0x4000000000000000	2.0
17	0x4032000000000000	18.0
18	0x4000000000000000	2.0
19	0x4022000000000000	9.0
20	0x4014000000000000	5.0
21	0x3ff0000000000000	1.0
22	0x402e000000000000	15.0
23	0x4014000000000000	5.0
24	0x4014000000000000	5.0
25	0x4000000000000000	2.0
26	0x4000000000000000	2.0
27	0x4010000000000000	4.0
28	0x3ff0000000000000	1.0
29	0x4008000000000000	3.0
30	0x4000000000000000	2.0
31	0x4000000000000000	2.0
32	0x4000000000000000	2.0
33	0x4008000000000000	3.0
34	0x3ff0000000000000	1.0
35	0x4000000000000000	2.0
36	0x4024000000000000	10.0
37	0x3ff0000000000000	1.0
38	0x4008000000000000	3.0
39	0x4008000000000000	3.0
40	0x3ff0000000000000	1.0
41	0x3ff0000000000000	1.0
42	0x4010000000000000	4.0
43	0x3ff0000000000000	1.0
44	0x4014000000000000	5.0
45	0x4008000000000000	3.0
46	0x3ff0000000000000	1.0
47	0x3ff0000000000000	1.0
48	0x4000000000000000	2.0
49	0x3ff0000000000000	1.0
50	0x401c000000000000	7.0
51	0x4026000000000000	11.0
52	0x401c000000000000	7.0
53	0x4008000000000000	3.0
54	0x4010000000000000	4.0
55	0x4000000000000000	2.0
56	0x3ff0000000000000	1.0
57	0x4008000000000000	3.0
58	0x4010000000000000	4.0
59	0x4008000000000000	3.0
60	0x401c000000000000	7.0
61	0x3ff0000000000000	1.0
62	0x4008000000000000	3.0
63	0x4000000000000000	2.0
64	0x4008000000000000	3.0
65	0x4008000000000000	3.0
66	0x4014000000000000	5.0
67	0x3ff0000000000000	1.0
68	0x4014000000000000	5.0
69	0x4000000000000000	2.0
70	0x4000000000000000	2.0
71	0x4000000000000000	2.0
72	0x401c000000000000	7.0
73	0x3ff0000000000000	1.0
74	0x3ff0000000000000	1.0
75	0x4000000000000000	2.0
76	0x3ff0000000000000	1.0
77	0x3ff0000000000000	1.0
78	0x4024000000000000	10.0
79	0x4008000000000000	3.0
80	0x4008000000000000	3.0
81	0x3ff0000000000000	1.0
82	0x3ff0000000000000	1.0
83	0x3ff0000000000000	1.0
84	0x4000000000000000	2.0
85	0x4000000000000000	2.0
86	0x4014000000000000	5.0
87	0x4008000000000000	3.0
88	0x4000000000000000	2.0
89	0x4008000000000000	3.0
90	0x4000000000000000	2.0
91	0x4014000000000000	5.0
92	0x4014000000000000	5.0
93	0x4008000000000000	3.0
94	0x3ff0000000000000	1.0
95	0x4008000000000000	3.0
96	0x3ff0000000000000	1.0
97	0x4010000000000000	4.0
98	0x3ff0000000000000	1.0
99	0x3ff0000000000000	1.0
100	0x4008000000000000	3.0
101	0x4024000000000000	10.0
102	0x3ff0000000000000	1.0
103	0x3ff0000000000000	1.0
104	0x3ff0000000000000	1.0
105	0x4010000000000000	4.0
106	0x4000000000000000	2.0
107	0x4022000000000000	9.0
108	0x4008000000000000	3.0
109	0x4000000000000000	2.0
110	0x4000000000000000	2.0
111	0x4010000000000000	4.0
112	0x3ff0000000000000	1.0
113	0x4010000000000000	4.0
114	0x4014000000000000	5.0
115	0x4000000000000000	2.0
116	0x4010000000000000	4.0
117	0x4018000000000000	6.0
118	0x4008000000000000	3.0
119	0x3ff0000000000000	1.0
120	0x4010000000000000	4.0
121	0x4010000000000000	4.0
122	0x401c000000000000	7.0
123	0x3ff0000000000000	1.0
124	0x4000000000000000	2.0
125	0x4018000000000000	6.0
126	0x4010000000000000	4.0
127	0x3ff0000000000000	1.0
128	0x4024000000000000	10.0
129	0x3ff0000000000000	1.0
130	0x4008000000000000	3.0
131	0x402c000000000000	14.0
132	0x4000000000000000	2.0
133	0x4008000000000000	3.0
134	0x4018000000000000	6.0
135	0x4008000000000000	3.0
136	0x4020000000000000	8.0
137	0x4014000000000000	5.0
138	0x3ff0000000000000	1.0
139	0x4010000000000000	4.0
140	0x4020000000000000	8.0
141	0x4018000000000000	6.0
142	0x4000000000000000	2.0
143	0x3ff0000000000000	1.0
144	0x4008000000000000	3.0
145	0x402a000000000000	13.0
146	0x3ff0000000000000	1.0
147	0x4026000000000000	11.0
148	0x401c000000000000	7.0
149	0x4010000000000000	4.0
150	0x4000000000000000	2.0
151	0x4008000000000000	3.0
152	0x4018000000000000	6.0
153	0x4010000000000000	4.0
154	0x3ff0000000000000	1.0
155	0x402c000000000000	14.0
156	0x4018000000000000	6.0
157	0x4018000000000000	6.0
158	0x4010000000000000	4.0
159	0x4010000000000000	4.0
160	0x3ff0000000000000	1.0
161	0x3ff0000000000000	1.0
162	0x4014000000000000	5.0
163	0x4008000000000000	3.0
164	0x3ff0000000000000	1.0
165	0x3ff0000000000000	1.0
166	0x4000000000000000	2.0
167	0x4000000000000000	2.0
168	0x4008000000000000	3.0
169	0x4026000000000000	11.0
170	0x4008000000000000	3.0
171	0x4000000000000000	2.0
172	0x4024000000000000	10.0
173	0x3ff0000000000000	1.0
174	0x4028000000000000	12.0
175	0x4010000000000000	4.0
176	0x4014000000000000	5.0
177	0x4008000000000000	3.0
178	0x4028000000000000	12.0
179	0x4020000000000000	8.0
180	0x4008000000000000	3.0
181	0x3ff0000000000000	1.0
182	0x4000000000000000	2.0
183	0x401c000000000000	7.0
184	0x4008000000000000	3.0
185	0x4014000000000000	5.0
186	0x4010000000000000	4.0
187	0x4028000000000000	12.0
188	0x4022000000000000	9.0
189	0x4018000000000000	6.0
190	0x4008000000000000	3.0
191	0x4010000000000000	4.0
192	0x4010000000000000	4.0
193	0x3ff0000000000000	1.0
194	0x4014000000000000	5.0
195	0x4000000000000000	2.0
196	0x4008000000000000	3.0
197	0x3ff0000000000000	1.0
198	0x4018000000000000	6.0
199	0x3ff0000000000000	1.0
200	0x3ff0000000000000	1.0
201	0x4008000000000000	3.0
202	0x4008000000000000	3.0
203	0x401c000000000000	7.0
204	0x4022000000000000	9.0
205	0x3ff0000000000000	1.0
206	0x4018000000000000	6.0
207	0x4008000000000000	3.0
208	0x3ff0000000000000	1.0
209	0x3ff0000000000000	1.0
210	0x4010000000000000	4.0
211	0x3ff0000000000000	1.0
212	0x3ff0000000000000	1.0
213	0x4000000000000000	2.0
214	0x4000000000000000	2.0
215	0x3ff0000000000000	1.0
216	0x4010000000000000	4.0
217	0x4010000000000000	4.0
218	0x4010000000000000	4.0
219	0x4028000000000000	12.0
220	0x4000000000000000	2.0
221	0x3ff0000000000000	1.0
222	0x4018000000000000	6.0
223	0x4008000000000000	3.0
224	0x4008000000000000	3.0
225	0x3ff0000000000000	1.0
226	0x4000000000000000	2.0
227	0x4020000000000000	8.0
228	0x4008000000000000	3.0
229	0x3ff0000000000000	1.0
230	0x3ff0000000000000	1.0
231	0x4008000000000000	3.0
232	0x4008000000000000	3.0
233	0x4000000000000000	2.0
234	0x4026000000000000	11.0
235	0x3ff0000000000000	1.0
236	0x3ff0000000000000	1.0
237	0x4010000000000000	4.0
238	0x4000000000000000	2.0
239	0x4022000000000000	9.0
240	0x4000000000000000	2.0
241	0x3ff0000000000000	1.0
242	0x401c000000000000	7.0
243	0x4000000000000000	2.0
244	0x401c000000000000	7.0
245	0x4000000000000000	2.0
246	0x3ff0000000000000	1.0
247	0x3ff0000000000000	1.0
248	0x4000000000000000	2.0
249	0x3ff0000000000000	1.0
250	0x3ff0000000000000	1.0
251	0x3ff0000000000000	1.0
252	0x3ff0000000000000	1.0
253	0x4008000000000000	3.0
254	0x4018000000000000	6.0
255	0x4010000000000000	4.0

lkl f8 [16000]
0	0xc05e1389b278ada5	-120.30527936730375
1	0xc05e0201fcc14454	-120.03137129663202
2	0xc05dfc09d2d19cc7	-119.93809957952463
3	0xc05e0e295c55d6a9	-120.22127445585888
4	0xc05e64d02c7c2eee	-121.57520591857221
5	0xc05df08e0cfcb27f	-119.7586700885531
6	0xc05e02697bf5570a	-120.03768824538216
7	0xc05dd7934b7593c5	-119.3683651588645
8	0xc05e3105624ad3f0	-120.7659536104909
9	0xc05e003ab2fbe84a	-120.00358271217661
10	0xc05e3d6292b556dc	-120.95914142331043
11	0xc05e156ac36c952e	-120.33464131931098
12	0xc05df7f7a6c6b3e6	-119.87449044613422
13	0xc05dfa61ef76e43b	-119.91222750292302
14	0xc05e277dd8795a2f	-120.61705600596245
15	0xc05e44f1e1fb8dc8	-121.07726335111431
16	0xc05e5a5be681ee43	-121.41185915649935
17	0xc05e0d3c9fadf511	-120.20682517993943
18	0xc05e04c3322778e4	-120.07441381315908
19	0xc05de398ab914fa9	-119.5561932486586
20	0xc05dce0936f3e50d	-119.21931241815419
21	0xc05e0c5900247825	-120.19293216287095
22	0xc05dbe3cc301ea65	-118.97245860278197
23	0xc05e30de8c915146	-120.76358331862602
24	0xc05e0759baad0b49	-120.11485163592182
25	0xc05e3a4c107fd5c6	-120.91089260562794
26	0xc05e7414ba9cd177	-121.81376519502906
27	0xc05e2dd0e2d9a4d7	-120.71587439779556
28	0xc05e0c24d9facf86	-120.18974923604227
29	0xc05e82b07418a25b	-122.04201986699756
30	0xc05e803ad6f751a3	-122.0035912909721
31	0xc05eeafe831b8375	-123.67178418814531
32	0xc05f08dfdd43ce85	-124.13866359349966
33	0xc05ea88bdd6e1112	-122.63353667973232
34	0xc05e9319490692a3	-122.29841828958392
35	0xc05e05512f23e64e	-120.0830800867636
36	0xc05e062162501923	-120.09578759977425
37	0xc05e2ccadf500a45	-120.6998823434488
38	0xc05e4ebd3c28a001	-121.23029998748099
39	0xc05e2e0bedc6c11c	-120.7194780770264
40	0xc05e76bccad590e7	-121.85527296882684
41	0xc05ef1d89ab01f4b	-123.7788454742378
42	0xc05f49d1b2c77659	-125.15342397192707
43	0xc05fda015493ddb0	-127.40633120002781
44	0xc05fc24b28a01d47	-127.03583732258004
45	0xc05f876a47d20bc0	-126.1158618499021
46	0xc05fb26dfd9df400	-126.78796329903707
47	0xc05ea6dd564c32eb	-122.6072593444948
48	0xc05e93c584e699c6	-122.30893061179731
49	0xc05df417ced89790	-119.8139531245381
50	0xc05de254db5ddb28	-119.53642925420411
51	0xc05dda58bc2ac84c	-119.4116659562871
52	0xc05df627c58423c9	-119.8461774626186
53	0xc05e4ec036050244	-121.23048162926813
54	0xc05def63b27bad5a	-119.74046003415916
55	0xc05e4b2765e7eb04	-121.17427966736074
56	0xc05e5a85dce83e52	-121.41442034416221
57	0xc05eec3a07001a6e	-123.6910417080887
58	0xc05e97d0b9c8bbbd	-122.37211460688464
59	0xc05e3259871e8767	-120.7867143438467
60	0xc05e3064bf99ce5a	-120.75614919681666
61	0xc05df47f14288402	-119.82025627094848
62	0xc05deef8c443e6de	-119.73393351203
63	0xc05e68538003844c	-121.63009643882214
64	0xc05eb6dfe7e22501	-122.85741612514904
65	0xc05e72495119ef69	-121.78572490246519
66	0xc05ebcbf18f0305f	-122.94916366058304
67	0xc05e8240186b9da2	-122.03516207227088
68	0xc05e42386ee48a0a	-121.03469440763743
69	0xc05e112a3be83b39	-120.26820275954096
70	0xc05dec1a47a8166c	-119.68910399832538
71	0xc05e0401ef75e703	-120.06261812700181
72	0xc05e45aa8e0a4d9b	-121.08853484159629
73	0xc05e2f4423e753c3	-120.7385339507155
74	0xc05dd21cd7be719a	-119.28301042173408
75	0xc05e18f4ecff6039	-120.38994908274698
76	0xc05dfd64368c427f	-119.95924152085534
77	0xc05df3d7c02f9b28	-119.81004337929755
78	0xc05deeb49428cfa9	-119.72977165208307
79	0xc05dbbde93075887	-118.93545985905995
80	0xc05e7059de9dc7b6	-121.755485204775
81	0xc05dc0b8dc1b79a0	-119.01128294642558
82	0xc05e345f47dcdb59	-120.81831547325181
83	0xc05e709a328e5c5e	-121.75941146757529
84	0xc05e9f11a6381d93	-122.48545222740204
85	0xc05f30a821efd50e	-124.7602619974243
86	0xc05dc5e2167b3e41	-119.0919243053004
87	0xc05db6330b89a1cf	-118.84686554375297
88	0xc05f0cbc62758ad6	-124.19899808386558
89	0xc05f5bc4c97c1102	-125.43388592830527
90	0xc05e8676fb75bdb7	-122.10101210115577
91	0xc05e5d6a120c0e66	-121.45959902932518
92	0xc05e5199f4f063d6	-121.27502177692017
93	0xc05e5e372337a51f	-121.47211533006747
94	0xc05e8dffac296ebd	-122.21873001142644
95	0xc05ea56f58d7bcd9	-122.58492108410009
96	0xc05e163a61428681	-120.34731322762129
97	0xc05dc86ea3e1c07e	-119.13175293966376
98	0xc05f0a3fcc571314	-124.16014393332836
99	0xc05f177215f8d0ae	-124.36633824632983
100	0xc05e521299d50358	-121.28238530923898
101	0xc05df7ff981b0e93	-119.8749752296665
102	0xc05dec53dff622d2	-119.69261931454392
103	0xc05e182f5fa36fea	-120.37789145432149
104	0xc05e3f1f21a27469	-120.98627510895462
105	0xc05e017e2aa4ae62	-120.02332559663913
106	0xc05dc9c5fab98c55	-119.15270870323123
107	0xc05e100b79af8ee5	-120.25070039886812
108	0xc05e75e172ad6b01	-121.84188525138235
109	0xc05e53183531ecbe	-121.29835252643076
110	0xc05efa15b28ebf25	-123.90757430973152
111	0xc05ebaa2d3f19d52	-122.91618822665376
112	0xc05ed398fcb0e60d	-123.30621258998163
113	0xc05e74157d911b16	-121.81381167574395
114	0xc05e3c7a03838611	-120.94494712680923
115	0xc05e6acd81049e4c	-121.66879296732913
116	0xc05ef97c537e2ebd	-123.89821326563374
117	0xc05f46d193a3719e	-125.1065415474063
118	0xc05ed552ce8a1712	-123.33317912564624
119	0xc05ec117a88a66dc	-123.01706899181175
120	0xc05e7ab6eba2e376	-121.91741457850534
121	0xc05e46063306795d	-121.09412837631449
122	0xc05e0bfdd242e31f	-120.18736702472641
123	0xc05deb4253c10139	-119.67592328880427
124	0xc05e3f5ccd60cdc6	-120.99003920033928
125	0xc05e425273430c18	-121.0362823633917
126	0xc05e752d947d2cfa	-121.8309069845599
127	0xc05e34b7ac258f80	-120.82371047657034
128	0xc05ea1c7dfd1594d	-122.52782435840818
129	0xc05ecea29b883b3d	-123.22867477706764
130	0xc05e90c910c960dc	-122.26227206865173
131	0xc05e7bf6ab978b71	-121.93693055915152
132	0xc05ec8157a4fe675	-123.12631089976078
133	0xc05e9b2a329e1ecd	-122.42445054475247
134	0xc05e5bbb39434906	-121.43330222674203
135	0xc05e8d34fab1b77e	-122.20635859828141
136	0xc05ea4be80112dc8	-122.57412721326466
137	0xc05e8e49ef582648	-122.22326263054231
138	0xc05ebc6e0a00a9ec	-122.94421625199146
139	0xc05ea9ccb7c65e5d	-122.65311998722014
140	0xc05eb7fe26c2b9d5	-122.87488717094614
141	0xc05ea37aace4778b	-122.55436250983455
142	0xc05e7ce97b06dca1	-121.95175052328206
143	0xc05f16bb2ed7f56f	-124.35517474260062
144	0xc05f0a357faee9cc	-124.15951530534147
145	0xc05df274887bc9d1	-119.78836261833864
146	0xc05e110553316dfd	-120.26595001055826
147	0xc05dedb38b0aac26	-119.71408344309074
148	0xc05e3937a399967a	-120.89402093886193
149	0xc05e3e4d847b6a55	-120.9734812932232
150	0xc05e2a4f97c80259	-120.66110796482225
151	0xc05e52aa5bd02e48	-121.29164786653666
152	0xc05e60e7e3b835f5	-121.51415341367085
153	0xc05e0f0ce55cfbad	-120.23516210632688
154	0xc05df2d4a72570cf	-119.79422930389704
155	0xc05e01e34a013e89	-120.02949762460243
156	0xc05e0ae2b955a1be	-120.17008813250047
157	0xc05e0d7c4d7ef8c5	-120.21071183585725
158	0xc05e083ee19ad8ea	-120.1288379680806
159	0xc05dca993f9d3edf	-119.1656035457231
160	0xc05e1e11f3fd42f8	-120.46984576923921
161	0xc05e52564fca2c3a	-121.2865180467933
162	0xc05e2e75169df5fd	-120.72589650560253
163	0xc05e1e2447ce7d08	-120.47096438565143
164	0xc05ec1d614db4f13	-123.0286914960564
165	0xc05e83972229de5c	-122.0560994538186
166	0xc05e6c5c0348b00d	-121.69311601732643
167	0xc05e98049fe47c96	-122.37528226197387
168	0xc05e9d87abd3df56	-122.46140571299233
169	0xc05e60071d545c77	-121.50043423880003
170	0xc05e7e77cbe2adcb	-121.97606179367646
171	0xc05eb8b34eb0d4bd	-122.88594405430463
172	0xc05e4f42998c1189	-121.23843992880406
173	0xc05e63bb02672963	-121.5582891471327
174	0xc05e2c4802ab8fcb	-120.69189516786643
175	0xc05dff03a697e966	-119.98459782443169
176	0xc05e59acd02a1b0d	-121.40117267715341
177	0xc05eec2f904999d2	-123.69040305316528
178	0xc05e17c2124845f8	-120.3712201791567
179	0xc05e550751465fb3	-121.32857162353939
180	0xc05e0a1001df7803	-120.15722700904011
181	0xc05e64ed6fc34e5d	-121.57699197838652
182	0xc05e61e4c5e95e9c	-121.52958820142743
183	0xc05e2a3596e38552	-120.65952083796336
184	0xc05e878e86a88d6b	-122.11807409725377
185	0xc05e5f77182b86ee	-121.49164394617739
186	0xc05e251fd33c786f	-120.58006745248143
187	0xc05dd982a01b85bd	-119.3985977429174
188	0xc05dd77d1e36e7bd	-119.3670115982231
189	0xc05e0f64017bebcd	-120.2404788694541
190	0xc05e3cef05622346	-120.95208868583458
191	0xc05edc39cb479655	-123.44102746954862
192	0xc05e7448a413bb78	-121.81693365027411
193	0xc05e46c3516a5868	-121.10567126641547
194	0xc05dce2a6711de57	-119.2213380503175
195	0xc05db355481002ab	-118.80208016932981
196	0xc05f12737d35ff1a	-124.28829889557929
197	0xc05edfd813518099	-123.49756319960797
198	0xc05efd5001fd6f20	-123.95800828694746
199	0xc05f241acd6757a5	-124.56413588611629
200	0xc05f3b834cd6a211	-124.92988892517339
201	0xc05f0e341a764f48	-124.22193013719254
202	0xc05e72c55525011b	-121.79329422582343
203	0xc05e7d11beeb7909	-121.95420811648741
204	0xc05e728095eefb5d	-121.78909824693751
205	0xc05ea4bddeaf71f0	-122.57408873685176
206	0xc05e6093aa677b4f	-121.50901279550202
207	0xc05ed6925520db53	-123.35268142899194
208	0xc05f7b0ad0be6af8	-125.92253511996739
209	0xc05f9d79eb7fcaa7	-126.46056640128755
210	0xc05f784968918cb6	-125.87948049749215
211	0xc05fafcd97816b68	-126.74692332876805
212	0xc05f8febdaff05e5	-126.2487704744777
213	0xc05f4529b07f1c97	-125.08066952145815
214	0xc05f049ce2e8b115	-124.07207558368493
215	0xc05eff3e00b1b9f7	-123.98815934520813
216	0xc05e8d88cff65c1d	-122.21147536333633
217	0xc05eafb5691deb44	-122.7454474250963
218	0xc05e1ea1e33242b1	-120.47863082798246
219	0xc05e1be006fafc86	-120.4355485392608
220	0xc05e03fbc0b133ff	-120.0622407656192
221	0xc05e149daa6df5d9	-120.32212315309825
222	0xc05e8eb0492c1de5	-122.22950963314322
223	0xc05e88b591e3d9ee	-122.13608214617827
224	0xc05e5d7b89e6a29f	-121.46066520235989
225	0xc05e45c6e66453be	-121.0902648906476
226	0xc05e190ffa77ed5a	-120.39160024367939
227	0xc05e2c11b61922f1	-120.68858101324783
228	0xc05e222ab9f2fa8e	-120.53385781029121
229	0xc05df27c90e2055b	-119.78885290214878
230	0xc05e05b70ba6d59f	-120.08929721157482
231	0xc05e0910bb270f0f	-120.14164618315066
232	0xc05e44d112aae6a3	-121.07526079835456
233	0xc05e96002502c8ac	-122.34375882408011
234	0xc05e91388c20e980	-122.26907637800286
235	0xc05ef5369f7170a8	-123.83145891264087
236	0xc05ea94090460866	-122.64456564749852
237	0xc05e9fb0d09bbf76	-122.49516692361598
238	0xc05ea9de67cfe166	-122.65419955540492
239	0xc05ea1708b0a0b5a	-122.52249408703702
240	0xc05eea7b25196f6c	-123.66376616939459
241	0xc05e48962b6f3431	-121.13416562900308
242	0xc05eaa0e71e57d2b	-122.65713164721517
243	0xc05e5e056f8f5435	-121.469081773729
244	0xc05de0829b675685	-119.50797162143324
245	0xc05dd575ff26a36f	-119.33532694600375
246	0xc05e96b55c7d9b95	-122.35481941477185
247	0xc05ea2365920ce2b	-122.5345671482434
248	0xc05e7e920cec2be9	-121.97766421378732
249	0xc05eb7b02221dcab	-122.87012532526812
250	0xc05e9c4e5ba166eb	-122.44228258859555
251	0xc05edbb76dde4be5	-123.43307062824859
252	0xc05e312a7086abf6	-120.76821530486617
253	0xc05e1138585e1201	-120.26906403719478
254	0xc05e20d0617d6374	-120.5127185558793
255	0xc05e31653acbdf17	-120.77180356892892
