chains/ch143_217_353_545_TE_B50.npz (npz, 897880 bytes, 3 tensors)

chain f8 [16000, 5]
0.11524627465090388 1.5139256667285026 -2.4266922253028542 0.9908943149375383 0.973609859842965 0.11193415387988888 1.547034814465028 -2.4094556488570427
0.980387600640672 0.9634634171991239 0.10112477205885168 1.537453356909443 -2.4153611646203417 0.9906666497006501 1.0019008224303199 0.09084080093588215
1.5389428006230286 -2.4380181498818367 0.9748765405930704 0.9945034496811729 0.1285298785288823 1.4705120460968772 -2.443385090489578 0.9616132935797393
0.9837874626149035 0.12153078801244482 1.4419118066293377 -2.405500929312547 0.9732137730814538 0.9805051935640974 0.11880557135139254 1.4427042442393871
-2.4143719157989176 0.9782784180734098 0.9845003275168548 0.10874184486358757 1.4728349076810103 -2.4066589094263406 0.9698532762600502 0.9985107947918462
0.11770876973538477 1.4581417866757929 -2.4184790835693466 0.9650593293374194 0.9745328218539265 0.11712714723787689 1.4991391736425073 -2.397666799710848
0.971013450152863 1.0028811579427752 0.10409530216742656 1.5343861575650406 -2.4282734553881604 0.9610495131956723 1.0019280951373815 0.10381481522944357
1.5041742228901278 -2.389099823746329 0.9741466292362128 0.9994413488242684 0.11863848480099293 1.5005984604778153 -2.4096832659100604 0.9835463737231807
1.0021238454176966 0.13982411298706393 1.4906789341019597 -2.406990712309043 0.9868788327098924 0.9857144487062593 0.14533881991706124 1.4891113640462725
-2.4280756632380585 0.9733543666923109 0.9775418122422616 0.13488844528701735 1.4554170285200247 -2.433620692534679 0.9812985796325298 0.9820228183100633
0.12623372913784695 1.4388194730721025 -2.3891358041921786 0.9650374602151608 0.9843233037162551 0.11185822822742714 1.4628823646191758 -2.3727196929119376
0.9696630811188295 0.9905744866797713 0.11019465288551859 1.4870599954208719 -2.355225395048576 0.9833720094269706 0.9899804879433393 0.12281701236948107
1.4755832801719975 -2.3795585797926315 0.9679328554462123 1.015283383517086 0.10809797423722341 1.5273661827145697 -2.3733664098981513 0.9660916592759263
1.017988274631425 0.1058567446203047 1.5155284177608386 -2.394943387086727 0.9718255007340888 1.0052414611972391 0.11067942558660981 1.4986123405818552
-2.3620783706325947 0.987917849147794 0.9941148683301316 0.11839454431686319 1.5239073871776216 -2.380579681184387 0.9855029412708443 0.9978769512276715
0.1390972854209709 1.4934631466629773 -2.399364209579425 0.971566421252492 1.0084041338291647 0.148815497533078 1.457400401253893 -2.456950015663181
0.9754647620400374 1.010614259708104 0.13403822810870814 1.4563373399326804 -2.38383437695849 0.9723305299986479 1.0195891058995046 0.12078841736749917
1.4353805723040605 -2.3795348225446653 0.9767023939543711 1.008645860788956 0.09990104707455576 1.499442341315321 -2.4097142475666415 0.9866865456496169
0.9907035430392422 0.10887608558698349 1.5036990164934565 -2.406073396000427 0.9941435692586091 0.9662153029216208 0.13857912452852658 1.4852257447405213
-2.3840086415454107 1.0001500739024938 0.9639537998901794 0.12804712126482035 1.4957595793540326 -2.446387428564737 0.9958865495083887 0.9745950394987941
0.10904435448199509 1.5423504599520403 -2.36113665842256 0.9657360047994098 1.0006441971088975 0.12009489471092093 1.530366074117901 -2.375083322232107
0.9694724671617162 1.0051519599512166 0.13791836582658348 1.4549543916849328 -2.348743188496925 0.9710778797455022 1.0089487595343731 0.15692090064907854
1.4195867538346874 -2.4771740362480887 0.9717414658532946 1.0232574498930742 0.13312487123764027 1.402885235320006 -2.419738234709995 0.9861887679277515
1.0130331793157918 0.1282154609795579 1.4145528162471324 -2.399157073132924 0.9739508080741371 1.0049405196974346 0.11785802029798573 1.4577620555537054
-2.3759713110376395 0.9792021295760314 1.0269363258442599 0.13148857691852575 1.4308571660197782 -2.4099457720960915 0.9713047077970896 1.0150552534293371
0.15075589866364358 1.4651479823423752 -2.4301824685303255 0.9612379743288273 0.9662891123658011 0.13552915603785917 1.4993426633284161 -2.445473931807771
0.9558693321360153 0.955392641413469 0.15390356777021363 1.4611931406722352 -2.4797948307049 0.9596261261727163 0.9598703201459764 0.12406074235910122
1.4509478284283648 -2.4688163709196744 0.9600116806622166 0.9575884073896977 0.15802135748367216 1.4595360580670607 -2.4616382710212603 0.958797803590402
0.962392078763998 0.16200550417135193 1.4979387910527298 -2.4318002901776037 0.9621940857853336 0.9604787712908428 0.13574977525146364 1.533458521884653
-2.398765796266938 0.9508293718156444 0.9390896063070742 0.09748303875679681 1.578525546893543 -2.3620796107650532 0.9612974455999087 0.9609513209375876
0.08935247069579046 1.5723071494328082 -2.4011644499051994 0.9677160888581942 0.9785864900508245 0.09999221017821183 1.565322625251794 -2.391626257527776
0.9678947840019334 0.9610110941219079 0.1108718624665711 1.55486269338282 -2.4425350328430677 0.9678403982270666 0.9652105638972864 0.11127960542559259
00000000: 0989 9ca4 c780 bd3f 5ac8 b21e 0a39 f83f
00000010: d710 099d dd69 03c0 a15e 8efe 67b5 ef3f
00000020: 74d6 62dd cf27 ef3f b534 387a b7a7 bc3f
00000030: 5d69 de93 a7c0 f83f 1507 e8ae 9046 03c0
00000040: a2fa 44d1 555f ef3f 8e67 783b b1d4 ee3f
00000050: ace7 ce24 50e3 b93f d6d2 f0b0 6899 f83f
00000060: 2d95 d0df a852 03c0 4378 b68b 8ab3 ef3f
00000070: 96c7 2228 c907 f03f c47c 29bd 5741 b73f
00000080: eb72 717c 829f f83f 1560 e6a8 0f81 03c0
00000090: ec83 6f49 3032 ef3f 6679 04e6 f8d2 ef3f
000000a0: 4c92 6bc4 aa73 c03f 1ac3 a5a3 3787 f73f
000000b0: 717e 797b 0d8c 03c0 cb5c ea3d 89c5 ee3f
000000c0: aaaa 44d8 2f7b ef3f 9476 f847 a41c bf3f
000000d0: 4c07 531d 1212 f73f f428 6f45 773e 03c0
000000e0: fcd9 ec35 9124 ef3f 724f 7d6d 4c60 ef3f
000000f0: 656d 89bb 0a6a be3f e1ef ac0b 5115 f73f
00000100: d2e5 1539 a250 03c0 cd40 808a 0e4e ef3f
00000110: fdc1 b2d4 0681 ef3f 1454 656b 81d6 bb3f
00000120: 995a 0e56 bb90 f73f c0e7 e462 d640 03c0
00000130: 6292 eebc 0909 ef3f b1af 0ae9 ccf3 ef3f
00000140: 6643 7774 2922 be3f b241 6b7b 8c54 f73f
00000150: 54ec cf8f 0b59 03c0 6e86 461a c4e1 ee3f
00000160: fbb7 d774 5f2f ef3f f946 dc72 0bfc bd3f
00000170: 0d27 af5b 79fc f73f 60b4 5bee 6b2e 03c0
00000180: db3e 8ccc 8a12 ef3f a638 f21c cd0b f03f
00000190: 17f1 795e fda5 ba3f ccd4 e27f d88c f83f
000001a0: b518 25a2 1a6d 03c0 6563 a0e8 eac0 ee3f
000001b0: 26f0 18c1 e507 f03f af30 4094 9b93 ba3f
000001c0: fdc9 6cfd 1811 f83f 72f5 4e5e e01c 03c0
000001d0: 6180 428d 352c ef3f 320d 6f6c 6cfb ef3f
000001e0: 006b 447c 175f be3f f5e1 0288 7302 f83f
000001f0: de6a 2605 0847 03c0 ceb1 a73e 3679 ef3f
00000200: b3c5 6903 b308 f03f fa5e 3cac c1e5 c13f
00000210: 6add 6c27 d2d9 f73f 0925 b958 8441 03c0
00000220: 0b51 f3ea 8294 ef3f ef6a 0c07 f98a ef3f
00000230: 8506 3163 769a c23f 1ce4 0a70 66d3 f73f
00000240: 5991 eeee b26c 03c0 b197 8b0e b825 ef3f
00000250: e1b2 41c4 0548 ef3f e7d9 8e4a 0644 c13f
00000260: 628f b85d 6349 f73f 4a71 2a20 0e78 03c0
00000270: 4441 6447 cc66 ef3f bb28 121e bb6c ef3f
00000280: 5d4b 2645 6d28 c03f 0615 5b91 6705 f73f
00000290: 1faa 853b f31c 03c0 a03f 613d 96e1 ee3f
000002a0: 1cdd c495 937f ef3f 4c7a 06a8 bda2 bc3f
000002b0: bef3 9e56 f767 f73f 340e 5d76 54fb 02c0
000002c0: 2f68 b1de 7a07 ef3f d554 1144 c9b2 ef3f
000002d0: 2b5e 567e b735 bc3f 625c f86b ffca f73f
000002e0: dc89 7369 80d7 02c0 f14c 8993 c877 ef3f
000002f0: e9a1 6c8f ebad ef3f 09f4 848b ef70 bf3f
00000300: 66cf ad36 fd9b f73f 2501 3902 5609 03c0
00000310: 2cb1 db52 4ef9 ee3f bd0c 06ca 993e f03f
00000320: 8ddb 1c10 4fac bb3f 3168 bc85 1770 f83f
00000330: fb7f 3f87 a7fc 02c0 4ce9 300e 39ea ee3f
00000340: 140e b412 ae49 f03f 208a 3478 6d19 bb3f
00000350: 1610 e7b9 9a3f f83f c178 1a14 d828 03c0
00000360: a84b e2ca 3119 ef3f 6bce 0612 7815 f03f
00000370: c80b 3ca1 7c55 bc3f b6e5 02ef 50fa f73f
00000380: cfa5 4358 89e5 02c0 962e a7e4 059d ef3f
00000390: 953f fefb c9cf ef3f cca1 ddd7 1a4f be3f
000003a0: 9bf8 60b6 ec61 f83f 22ac 215c 6d0b 03c0
000003b0: bcd7 db76 3d89 ef3f a88f dea4 9bee ef3f
000003c0: a137 ec99 f0cd c13f 092e cb9c 39e5 f73f
000003d0: 32b1 dadc e531 03c0 937a a576 1217 ef3f
000003e0: d628 7f5f 6c22 f03f e871 85df 620c c33f
000003f0: 0401 4915 8351 f73f be70 e968 d5a7 03c0
00000400: a498 6be0 0137 ef3f b714 a5db 792b f03f
00000410: 1c02 1227 2a28 c13f 9f45 ef61 284d f73f
00000420: 21f0 00c2 1712 03c0 a7e3 67ea 541d ef3f
00000430: da23 93aa 3c50 f03f d339 545e fdeb be3f
00000440: 58c1 759e 51f7 f63f 152e 948d 4909 03c0
00000450: 92af fe60 2541 ef3f 6f59 95d7 6923 f03f
00000460: bb78 0572 1d93 b93f d8fd a240 b7fd f73f
00000470: 2308 7043 1847 03c0 71fc 9ea9 ef92 ef3f
00000480: e350 acea d7b3 ef3f 919f e99a 4ddf bb3f
00000490: 40de 2db3 260f f83f a9c7 9c68 a33f 03c0
000004a0: 6ed2 af2c 06d0 ef3f d52d de5a 3ceb ee3f
000004b0: 0f11 e1f3 f5bc c13f 8f67 0d12 7cc3 f73f
000004c0: 298d 661f 7312 03c0 150d 285d 9d00 f03f
000004d0: 9343 aca3 b5d8 ee3f edf4 161b d963 c03f
000004e0: 8f11 c098 a1ee f73f a83f 7892 3392 03c0
000004f0: 2946 1578 4dde ef3f 7eb7 afef e12f ef3f
00000500: 1648 50b0 54ea bb3f e26e 07ad 77ad f83f
00000510: 327e ca9d 9be3 02c0 7bdc a531 4fe7 ee3f
00000520: 003d 587d a302 f03f 2731 33fd 89be be3f
00000530: a4e8 f322 617c f83f 6e18 52af 2b00 03c0
00000540: c99f 9a1f eb05 ef3f 2f03 b838 1a15 f03f
00000550: a918 5f1b 4fa7 c13f 7255 9741 7e47 f73f
00000560: 5f60 6ade 39ca 02c0 ce07 ecea 1113 ef3f
00000570: 6fa3 5874 a724 f03f 465f 2cec fb15 c43f
00000580: 66e0 9899 a0b6 f63f a47c 019f 40d1 03c0
00000590: 5a39 008f 8118 ef3f a5dd 2a34 435f f03f
000005a0: f0fb 1f5c 3c0a c13f ded9 dbc9 3772 f63f
000005b0: 7eae 37b8 9f5b 03c0 ccd4 3dbf db8e ef3f
000005c0: a5c9 6e47 6235 f03f 8bd7 df3d 5d69 c03f
000005d0: 27f0 4322 02a2 f63f 7b95 7843 7931 03c0
000005e0: 0beb 92e2 9a2a ef3f 5f69 a882 3c14 f03f
000005f0: 8e4b c076 f12b be3f 143f 1f4e fe52 f73f
00000600: 9320 293f fd01 03c0 c67b 56b4 9f55 ef3f
00000610: 3b35 e9c8 546e f03f abd1 d420 9ed4 c03f
00000620: c5d5 d47b cae4 f63f 1a4a 22a6 9147 03c0
00000630: 0a0f 4e9c ed14 ef3f bbca d193 aa3d f03f
00000640: 8c3f 3823 f84b c33f cb5f bf02 3f71 f73f
00000650: cf33 8d81 0371 03c0 9a4c ed23 76c2 ee3f
00000660: 8af1 0225 d7eb ee3f a325 6bf6 0459 c13f
00000670: aee3 87bb 4efd f73f e6ad 02a3 5490 03c0
00000680: e7c0 1848 7b96 ee3f 8ab7 b696 9392 ee3f
00000690: e0c7 27b3 1cb3 c33f 7b3a 050f 0c61 f73f
000006a0: d756 15ac 9ed6 03c0 4b91 89d9 41b5 ee3f
000006b0: 54b2 2df6 41b7 ee3f b65a 26df 71c2 bf3f
000006c0: 2ed5 f411 1537 f73f 6d6f 27cc 22c0 03c0
000006d0: 651c 876a 6ab8 ee3f 2b8f 9871 90a4 ee3f
000006e0: 6f1f 3b39 0b3a c43f 49b1 4b7b 425a f73f
000006f0: 46f2 e467 6fb1 03c0 91b7 3cbb 78ae ee3f
00000700: 0511 0779 eacb ee3f af0e 18ab 98bc c43f
00000710: 35b3 6faa 8ef7 f73f 9cba e5b5 5374 03c0
00000720: b748 5b40 4bca ee3f 2f49 e6f9 3dbc ee3f
00000730: 427b 92a6 3f60 c13f fb45 94cd 0b89 f83f
00000740: d5d6 2d1f ac30 03c0 06c8 00b8 316d ee3f
00000750: da46 63a5 050d ee3f 5c09 60ff a5f4 b83f
00000760: b9ee fc00 a441 f93f 4646 b6fe 89e5 02c0
00000770: ed8e 52dc f2c2 ee3f b332 0ffc 1cc0 ee3f
00000780: 3189 74b3 cddf b63f 5a4b a18a 2b28 f93f
00000790: 0949 05b5 9535 03c0 eaaf 2ebb 87f7 ee3f
000007a0: 4e6c 629d 9450 ef3f 32f7 91e8 1699 b93f
000007b0: 3a53 b2bc 8f0b f93f 81b1 82f2 0c22 03c0
000007c0: b43b 687b fef8 ee3f c218 8b56 9ac0 ee3f
000007d0: 282d 572f 1962 bc3f 5298 1db4 b7e0 f83f
000007e0: 7f29 abce 4f8a 03c0 7340 446d 8cf8 ee3f
000007f0: 7b29 b643 01e3 ee3f aac3 03fa d17c bc3f

weight f8 [16000]
1.0 2.0 2.0 2.0 3.0 5.0 10.0 9.0
4.0 1.0 5.0 8.0 7.0 1.0 3.0 1.0
2.0 1.0 2.0 9.0 6.0 11.0 3.0 1.0
1.0 1.0 1.0 7.0 1.0 3.0 1.0 1.0
2.0 4.0 2.0 1.0 2.0 2.0 2.0 6.0
3.0 3.0 2.0 3.0 1.0 5.0 5.0 2.0
2.0 3.0 2.0 1.0 4.0 6.0 3.0 3.0
1.0 5.0 2.0 2.0 4.0 2.0 1.0 8.0
4.0 3.0 2.0 3.0 1.0 1.0 7.0 1.0
1.0 5.0 1.0 16.0 17.0 1.0 5.0 12.0
5.0 3.0 2.0 6.0 1.0 2.0 1.0 3.0
1.0 3.0 3.0 1.0 2.0 4.0 1.0 1.0
2.0 13.0 1.0 1.0 3.0 2.0 1.0 3.0
3.0 1.0 4.0 12.0 4.0 5.0 1.0 1.0
1.0 11.0 2.0 4.0 4.0 1.0 5.0 2.0
6.0 4.0 1.0 1.0 1.0 4.0 1.0 5.0
10.0 7.0 12.0 5.0 8.0 2.0 4.0 1.0
6.0 5.0 1.0 1.0 4.0 7.0 2.0 1.0
4.0 3.0 2.0 1.0 2.0 3.0 3.0 4.0
1.0 3.0 9.0 5.0 7.0 3.0 1.0 1.0
1.0 6.0 4.0 3.0 3.0 1.0 2.0 1.0
2.0 1.0 1.0 5.0 15.0 4.0 1.0 2.0
1.0 9.0 4.0 2.0 1.0 1.0 2.0 25.0
9.0 1.0 1.0 1.0 6.0 2.0 4.0 13.0
1.0 1.0 3.0 6.0 4.0 2.0 1.0 10.0
5.0 5.0 3.0 1.0 1.0 5.0 3.0 9.0
3.0 2.0 1.0 3.0 2.0 6.0 3.0 7.0
1.0 3.0 7.0 1.0 2.0 5.0 1.0 3.0
2.0 2.0 2.0 1.0 1.0 9.0 1.0 1.0
4.0 3.0 2.0 4.0 7.0 1.0 3.0 10.0
1.0 3.0 3.0 1.0 4.0 3.0 1.0 1.0
3.0 3.0 5.0 8.0 2.0 4.0 10.0 1.0
00000000: 0000 0000 0000 f03f 0000 0000 0000 0040
00000010: 0000 0000 0000 0040 0000 0000 0000 0040
00000020: 0000 0000 0000 0840 0000 0000 0000 1440
00000030: 0000 0000 0000 2440 0000 0000 0000 2240
00000040: 0000 0000 0000 1040 0000 0000 0000 f03f
00000050: 0000 0000 0000 1440 0000 0000 0000 2040
00000060: 0000 0000 0000 1c40 0000 0000 0000 f03f
00000070: 0000 0000 0000 0840 0000 0000 0000 f03f
00000080: 0000 0000 0000 0040 0000 0000 0000 f03f
00000090: 0000 0000 0000 0040 0000 0000 0000 2240
000000a0: 0000 0000 0000 1840 0000 0000 0000 2640
000000b0: 0000 0000 0000 0840 0000 0000 0000 f03f
000000c0: 0000 0000 0000 f03f 0000 0000 0000 f03f
000000d0: 0000 0000 0000 f03f 0000 0000 0000 1c40
000000e0: 0000 0000 0000 f03f 0000 0000 0000 0840
000000f0: 0000 0000 0000 f03f 0000 0000 0000 f03f
00000100: 0000 0000 0000 0040 0000 0000 0000 1040
00000110: 0000 0000 0000 0040 0000 0000 0000 f03f
00000120: 0000 0000 0000 0040 0000 0000 0000 0040
00000130: 0000 0000 0000 0040 0000 0000 0000 1840
00000140: 0000 0000 0000 0840 0000 0000 0000 0840
00000150: 0000 0000 0000 0040 0000 0000 0000 0840
00000160: 0000 0000 0000 f03f 0000 0000 0000 1440
00000170: 0000 0000 0000 1440 0000 0000 0000 0040
00000180: 0000 0000 0000 0040 0000 0000 0000 0840
00000190: 0000 0000 0000 0040 0000 0000 0000 f03f
000001a0: 0000 0000 0000 1040 0000 0000 0000 1840
000001b0: 0000 0000 0000 0840 0000 0000 0000 0840
000001c0: 0000 0000 0000 f03f 0000 0000 0000 1440
000001d0: 0000 0000 0000 0040 0000 0000 0000 0040
000001e0: 0000 0000 0000 1040 0000 0000 0000 0040
000001f0: 0000 0000 0000 f03f 0000 0000 0000 2040
00000200: 0000 0000 0000 1040 0000 0000 0000 0840
00000210: 0000 0000 0000 0040 0000 0000 0000 0840
00000220: 0000 0000 0000 f03f 0000 0000 0000 f03f
00000230: 0000 0000 0000 1c40 0000 0000 0000 f03f
00000240: 0000 0000 0000 f03f 0000 0000 0000 1440
00000250: 0000 0000 0000 f03f 0000 0000 0000 3040
00000260: 0000 0000 0000 3140 0000 0000 0000 f03f
00000270: 0000 0000 0000 1440 0000 0000 0000 2840
00000280: 0000 0000 0000 1440 0000 0000 0000 0840
00000290: 0000 0000 0000 0040 0000 0000 0000 1840
000002a0: 0000 0000 0000 f03f 0000 0000 0000 0040
000002b0: 0000 0000 0000 f03f 0000 0000 0000 0840
000002c0: 0000 0000 0000 f03f 0000 0000 0000 0840
000002d0: 0000 0000 0000 0840 0000 0000 0000 f03f
000002e0: 0000 0000 0000 0040 0000 0000 0000 1040
000002f0: 0000 0000 0000 f03f 0000 0000 0000 f03f
00000300: 0000 0000 0000 0040 0000 0000 0000 2a40
00000310: 0000 0000 0000 f03f 0000 0000 0000 f03f
00000320: 0000 0000 0000 0840 0000 0000 0000 0040
00000330: 0000 0000 0000 f03f 0000 0000 0000 0840
00000340: 0000 0000 0000 0840 0000 0000 0000 f03f
00000350: 0000 0000 0000 1040 0000 0000 0000 2840
00000360: 0000 0000 0000 1040 0000 0000 0000 1440
00000370: 0000 0000 0000 f03f 0000 0000 0000 f03f
00000380: 0000 0000 0000 f03f 0000 0000 0000 2640
00000390: 0000 0000 0000 0040 0000 0000 0000 1040
000003a0: 0000 0000 0000 1040 0000 0000 0000 f03f
000003b0: 0000 0000 0000 1440 0000 0000 0000 0040
000003c0: 0000 0000 0000 1840 0000 0000 0000 1040
000003d0: 0000 0000 0000 f03f 0000 0000 0000 f03f
000003e0: 0000 0000 0000 f03f 0000 0000 0000 1040
000003f0: 0000 0000 0000 f03f 0000 0000 0000 1440
00000400: 0000 0000 0000 2440 0000 0000 0000 1c40
00000410: 0000 0000 0000 2840 0000 0000 0000 1440
00000420: 0000 0000 0000 2040 0000 0000 0000 0040
00000430: 0000 0000 0000 1040 0000 0000 0000 f03f
00000440: 0000 0000 0000 1840 0000 0000 0000 1440
00000450: 0000 0000 0000 f03f 0000 0000 0000 f03f
00000460: 0000 0000 0000 1040 0000 0000 0000 1c40
00000470: 0000 0000 0000 0040 0000 0000 0000 f03f
00000480: 0000 0000 0000 1040 0000 0000 0000 0840
00000490: 0000 0000 0000 0040 0000 0000 0000 f03f
000004a0: 0000 0000 0000 0040 0000 0000 0000 0840
000004b0: 0000 0000 0000 0840 0000 0000 0000 1040
000004c0: 0000 0000 0000 f03f 0000 0000 0000 0840
000004d0: 0000 0000 0000 2240 0000 0000 0000 1440
000004e0: 0000 0000 0000 1c40 0000 0000 0000 0840
000004f0: 0000 0000 0000 f03f 0000 0000 0000 f03f
00000500: 0000 0000 0000 f03f 0000 0000 0000 1840
00000510: 0000 0000 0000 1040 0000 0000 0000 0840
00000520: 0000 0000 0000 0840 0000 0000 0000 f03f
00000530: 0000 0000 0000 0040 0000 0000 0000 f03f
00000540: 0000 0000 0000 0040 0000 0000 0000 f03f
00000550: 0000 0000 0000 f03f 0000 0000 0000 1440
00000560: 0000 0000 0000 2e40 0000 0000 0000 1040
00000570: 0000 0000 0000 f03f 0000 0000 0000 0040
00000580: 0000 0000 0000 f03f 0000 0000 0000 2240
00000590: 0000 0000 0000 1040 0000 0000 0000 0040
000005a0: 0000 0000 0000 f03f 0000 0000 0000 f03f
000005b0: 0000 0000 0000 0040 0000 0000 0000 3940
000005c0: 0000 0000 0000 2240 0000 0000 0000 f03f
000005d0: 0000 0000 0000 f03f 0000 0000 0000 f03f
000005e0: 0000 0000 0000 1840 0000 0000 0000 0040
000005f0: 0000 0000 0000 1040 0000 0000 0000 2a40
00000600: 0000 0000 0000 f03f 0000 0000 0000 f03f
00000610: 0000 0000 0000 0840 0000 0000 0000 1840
00000620: 0000 0000 0000 1040 0000 0000 0000 0040
00000630: 0000 0000 0000 f03f 0000 0000 0000 2440
00000640: 0000 0000 0000 1440 0000 0000 0000 1440
00000650: 0000 0000 0000 0840 0000 0000 0000 f03f
00000660: 0000 0000 0000 f03f 0000 0000 0000 1440
00000670: 0000 0000 0000 0840 0000 0000 0000 2240
00000680: 0000 0000 0000 0840 0000 0000 0000 0040
00000690: 0000 0000 0000 f03f 0000 0000 0000 0840
000006a0: 0000 0000 0000 0040 0000 0000 0000 1840
000006b0: 0000 0000 0000 0840 0000 0000 0000 1c40
000006c0: 0000 0000 0000 f03f 0000 0000 0000 0840
000006d0: 0000 0000 0000 1c40 0000 0000 0000 f03f
000006e0: 0000 0000 0000 0040 0000 0000 0000 1440
000006f0: 0000 0000 0000 f03f 0000 0000 0000 0840
00000700: 0000 0000 0000 0040 0000 0000 0000 0040
00000710: 0000 0000 0000 0040 0000 0000 0000 f03f
00000720: 0000 0000 0000 f03f 0000 0000 0000 2240
00000730: 0000 0000 0000 f03f 0000 0000 0000 f03f
00000740: 0000 0000 0000 1040 0000 0000 0000 0840
00000750: 0000 0000 0000 0040 0000 0000 0000 1040
00000760: 0000 0000 0000 1c40 0000 0000 0000 f03f
00000770: 0000 0000 0000 0840 0000 0000 0000 2440
00000780: 0000 0000 0000 f03f 0000 0000 0000 0840
00000790: 0000 0000 0000 0840 0000 0000 0000 f03f
000007a0: 0000 0000 0000 1040 0000 0000 0000 0840
000007b0: 0000 0000 0000 f03f 0000 0000 0000 f03f
000007c0: 0000 0000 0000 0840 0000 0000 0000 0840
000007d0: 0000 0000 0000 1440 0000 0000 0000 2040
000007e0: 0000 0000 0000 0040 0000 0000 0000 1040
000007f0: 0000 0000 0000 2440 0000 0000 0000 f03f

lkl f8 [16000]
-121.13940165909314 -121.51303300622 -121.01225634086467 -121.67664772683216 -121.30260323301837 -122.09712442892528 -122.08065515186253 -121.22176704714046
-122.19161015565348 -120.24725442112518 -121.05160239074952 -120.55999991205405 -120.09887599811526 -121.51074070774932 -121.33163629276572 -121.047005735069
-122.5289370510933 -121.89440369614866 -121.74652334479454 -121.97589872756319 -122.10720826758588 -120.40596694430603 -121.55522546664928 -121.08710231001791
-122.04791167888486 -121.89975423821208 -122.82922262873728 -122.84938259843156 -121.3631824625242 -122.55987630862832 -125.01799869321552 -121.96234996269074
-122.10361945783926 -121.88887465452687 -124.40066398186298 -124.98793768392011 -124.79268037851412 -123.48331101409246 -123.29770948432223 -122.79606233144226
-123.0189632311055 -123.61271488564623 -124.3859683910229 -125.34076149522248 -124.18260263246145 -125.76341584506382 -128.25995267869703 -124.66268333013804
-122.23155362288401 -122.72861150779873 -121.71753481462058 -124.42962537664302 -125.98742234885925 -125.55622574069145 -124.87968407294696 -122.08009909497497
-122.23939871171774 -125.3901842330989 -122.15869919926432 -120.97692654916396 -121.57199291870435 -122.65070781460217 -123.0243647779105 -121.65838129823388
-122.60547926449253 -123.93623430959872 -123.59246036656317 -123.24907828244534 -124.9540687679647 -125.41875577710115 -127.17626270003039 -126.59610647359034
-127.28880519701002 -123.79121152865648 -123.3335363433242 -122.64186337395951 -119.93012803915444 -122.10040833672156 -121.53082707333186 -121.03636756152234
-121.22352101463336 -121.67709236859126 -120.87175581930464 -120.94692559767304 -120.42211287201928 -123.70273896416568 -124.09910995695657 -124.19837658184024
-124.31954099679669 -124.5378451724701 -124.88781482748664 -122.50270419731406 -120.7667072100226 -121.40626089611209 -121.83835413924008 -121.04369067401737
-123.6322765876974 -121.20844115974512 -123.01132339429114 -122.33113645595772 -120.96757407464193 -120.87711677692386 -123.3042504684972 -121.93274563430305
-121.894980870995 -122.62185671090485 -120.56288477948901 -120.97021908468874 -121.62203278930144 -122.76562907788023 -123.60473397184728 -120.89035011947932
-121.99259375245174 -121.26710459115442 -121.33312893719456 -121.52229442456726 -121.27395685771985 -120.06719336698029 -120.92668260109296 -120.61432782708845
-121.34351008351206 -123.8852555113599 -125.75163658253545 -126.07347594478172 -122.65225464547092 -122.66897555016796 -121.76860758274114 -120.9580658493275
-122.36430468435992 -121.78003295342118 -120.43536184778931 -120.47271986652282 -120.68365984899842 -121.63352649546425 -122.35788547960775 -120.5988536437327
-120.7596421841111 -121.49305136373243 -121.95371650858175 -120.62319139038094 -121.0176387077349 -120.46587620801373 -123.62936328648416 -122.01515721358983
-122.08913207209096 -121.88733603431875 -121.90837130965312 -122.13902131247843 -122.13209618372672 -122.55878143967338 -124.00292785988611 -125.06508444391841
-122.87988617690782 -123.70408507614185 -122.8088643871344 -121.56267543020685 -121.03791838346952 -122.32805691401941 -122.70295273840603 -122.29975532004335
-122.68468368200497 -123.12074181010999 -123.13504254304785 -120.3419674525983 -123.7657067978192 -122.25331130567575 -120.87481601612453 -121.12036453419928
-121.22192344465871 -121.04505214607971 -122.02215806450073 -124.37762775354273 -123.41463110197067 -124.43188719003068 -120.40619766446909 -120.37581790738034
-120.6791846207792 -120.27596462563737 -122.39747391989565 -122.8411326807402 -122.09653386495843 -121.65616998111095 -120.97513654254233 -119.92912123897025
-120.91974322688915 -120.31754506267455 -121.78624599986816 -123.63152874423103 -122.57518910656319 -122.50419116267504 -122.10422886605224 -121.52989277410094
-121.5535251359911 -120.87837560597274 -120.26775820760935 -121.87321333278288 -124.25662048692656 -122.77837039425442 -121.12443264279442 -121.47479686188825
-121.5231778708011 -120.76547998988703 -122.43417942698775 -122.70644452097362 -121.65110094484282 -120.42790747711888 -121.18000527684423 -120.51402224661061
-119.96817311537966 -120.89441441426972 -121.62636916375831 -121.53859326988966 -121.60634784076623 -120.87720546441743 -120.13763712954196 -120.14673363648345
-120.49062466226435 -121.92551902401557 -122.20699143474506 -121.04662097253168 -121.08872868258737 -121.74319343654051 -120.71403768819296 -123.47689125598474
-123.70628641372899 -122.8961757747942 -123.83040061867435 -124.99970662093651 -125.64432022636726 -124.66017951050928 -126.08537246524659 -125.82590968114019
-126.5664628895587 -126.79940867097864 -123.68850557253045 -122.42202066537865 -120.77063095528854 -123.23544948998531 -123.18946614462499 -124.71879305630048
-123.69867531416527 -122.23658620472206 -120.43913893291086 -120.97111835996043 -123.23368098339554 -124.29320502813691 -125.41021253026568 -125.43355112028958
-124.46790635987887 -120.77034952545256 -120.78591008850668 -119.89284995998068 -120.75655291317615 -120.95855444615205 -120.37910875622568 -122.22179443303901
00000000: 0bb4 eff4 eb48 5ec0 f1de 6388 d560 5ec0
00000010: accb d1ce c840 5ec0 0a6a 4432 4e6b 5ec0
00000020: 945e f3d9 5d53 5ec0 1d78 6149 3786 5ec0
00000030: 39e0 3974 2985 5ec0 1fb3 696e 314e 5ec0
00000040: 3e07 3e57 438c 5ec0 8a21 3504 d30f 5ec0
00000050: 892a 1d74 4d43 5ec0 3e02 df09 d723 5ec0
00000060: ec90 fefb 5306 5ec0 3b21 cbf9 af60 5ec0
00000070: 1ce6 6d87 3955 5ec0 22b6 5724 0243 5ec0
00000080: a805 ca1a daa1 5ec0 5218 00e9 3d79 5ec0
00000090: f5e5 d909 c76f 5ec0 e2c5 ef1f 757e 5ec0
000000a0: 19c9 1080 dc86 5ec0 4b43 c75c fb19 5ec0
000000b0: 8f4a 65d0 8863 5ec0 b63b 9115 9345 5ec0
000000c0: 0b7a 25fc 1083 5ec0 bbe3 cc92 9579 5ec0
000000d0: e8e1 c9fb 11b5 5ec0 8683 d448 5cb6 5ec0
000000e0: 6bc1 a761 3e57 5ec0 49d7 7003 d5a3 5ec0
000000f0: cfae fde3 2641 5fc0 1144 4c24 977d 5ec0
00000100: 87a9 81b3 a186 5ec0 ebdb 8452 e378 5ec0
00000110: 58b2 8a7a a419 5fc0 10bb fa5e 3a3f 5fc0
00000120: 8a79 7b46 bb32 5fc0 b8d4 5191 eede 5ec0
00000130: dfb7 14ac 0dd3 5ec0 cfc7 6baf f2b2 5ec0
00000140: 2d5b 8eb1 36c1 5ec0 dee7 7eb8 36e7 5ec0
00000150: eb2e c4b4 b318 5fc0 dd6d 4d09 cf55 5fc0
00000160: 78a5 f3c2 af0b 5fc0 07f3 21ce db70 5fc0
00000170: 5db0 4788 5108 60c0 06a3 5767 692a 5fc0
00000180: a863 49c6 d18e 5ec0 075f 2992 a1ae 5ec0
00000190: 5ba2 2417 ec6d 5ec0 a98d 6ffb 7e1b 5fc0
000001a0: 29ec 81ed 317f 5fc0 a45d d933 9963 5fc0
000001b0: a207 6dbe 4c38 5fc0 d456 f457 2085 5ec0
000001c0: 1062 f94e 528f 5ec0 c724 4ac7 f858 5fc0
000001d0: 77af af20 288a 5ec0 37d0 eef6 853e 5ec0
000001e0: 3ed8 2f88 9b64 5ec0 f3bd 6332 a5a9 5ec0
000001f0: 3213 4931 8fc1 5ec0 9a0d 50eb 226a 5ec0
00000200: b3d9 192c c0a6 5ec0 a847 4f43 ebfb 5ec0
00000210: 29a4 e2de eae5 5ec0 c84f 09e6 f0cf 5ec0
00000220: c722 7376 0f3d 5fc0 46ea 07e5 cc5a 5fc0
00000230: a708 59e3 47cb 5fc0 4840 c49b 26a6 5fc0
00000240: aa04 cbc8 7bd2 5fc0 0ef3 ad35 a3f2 5ec0
00000250: b6a6 d1a8 58d5 5ec0 01ea 1d4a 14a9 5ec0
00000260: b350 c137 87fb 5dc0 c09d 1617 6d86 5ec0
00000270: acf2 1d12 f961 5ec0 ebd7 9bd8 5342 5ec0
00000280: 6bf4 152b 4e4e 5ec0 1fde 3a7b 556b 5ec0
00000290: b680 ebd8 ca37 5ec0 1070 d26d 9a3c 5ec0
000002a0: c822 b5e5 031b 5ec0 db2d d9ac f9ec 5ec0
000002b0: 88f5 49d1 5706 5fc0 f3d2 b033 b20c 5fc0
000002c0: 46be 145c 7314 5fc0 8484 280e 6c22 5fc0
000002d0: 603d 48f5 d138 5fc0 a7c1 394e 2ca0 5ec0
000002e0: e329 1ebb 1131 5ec0 7c9c b32d 005a 5ec0
000002f0: 27a0 1e98 a775 5ec0 de02 f8d3 cb42 5ec0
00000300: f58b 3838 77e8 5ec0 b80f 9719 574d 5ec0
00000310: 400a c285 b9c0 5ec0 8336 f656 3195 5ec0
00000320: dac2 cfbb ec3d 5ec0 4cea 67ae 2238 5ec0
00000330: 3eff f4d6 78d3 5ec0 60b4 be1a b27b 5ec0
00000340: 06de d85d 4779 5ec0 9b08 1780 cca7 5ec0
00000350: 93d4 e14d 0624 5ec0 5dac c911 183e 5ec0
00000360: b8c5 9d62 cf67 5ec0 2f97 1a11 00b1 5ec0
00000370: 50f7 1df6 b3e6 5ec0 d149 117f fb38 5ec0
00000380: a03f f2a7 867f 5ec0 a9e7 da3d 1851 5ec0
00000390: 85a6 08fc 5155 5ec0 9219 9845 6d61 5ec0
000003a0: fd1a 5882 8851 5ec0 106c 68e5 4c04 5ec0
000003b0: db5d 8ac4 4e3b 5ec0 8797 a925 5127 5ec0
000003c0: f4a1 b711 fc55 5ec0 4079 bb06 a8f8 5ec0
000003d0: e31d 53d0 1a70 5fc0 55f8 72d4 b384 5fc0
000003e0: 8cbd 448a bea9 5ec0 e172 d37e d0aa 5ec0
000003f0: 2cd5 dbdd 3071 5ec0 ab91 6cf3 503d 5ec0
00000400: c046 98c4 5097 5ec0 c32f 560f ec71 5ec0
00000410: 998b f0f7 dc1b 5ec0 a4b8 d30a 411e 5ec0
00000420: 5642 3d15 c12b 5ec0 c8ca b6b2 8b68 5ec0
00000430: 3aa8 7f98 e796 5ec0 08bb 3b9e 5326 5ec0
00000440: d45a 40fa 9d30 5ec0 a89e 4e27 8e5f 5ec0
00000450: e480 f7b0 097d 5ec0 6f35 245e e227 5ec0
00000460: 5e37 1afe 2041 5ec0 d259 71ea d01d 5ec0
00000470: 2a30 f37c 47e8 5ec0 ad2a f655 f880 5ec0
00000480: f2a9 0157 b485 5ec0 87fd 131d ca78 5ec0
00000490: 6ee5 6ac1 227a 5ec0 aea2 a5b9 e588 5ec0
000004a0: 1742 8d43 7488 5ec0 9340 3a13 c3a3 5ec0
000004b0: 529d 55f8 2f00 5fc0 e886 f157 2a44 5fc0
000004c0: 6181 1c0e 50b8 5ec0 61e8 d9ba 0fed 5ec0
000004d0: 0c69 226f c4b3 5ec0 13c0 cedf 0264 5ec0
000004e0: cd3a 3a41 6d42 5ec0 2a3c 6de2 fe94 5ec0
000004f0: 9a85 7b2d fdac 5ec0 d818 f030 2f93 5ec0
00000500: 3d94 81db d1ab 5ec0 aa6b db3b bac7 5ec0
00000510: 637d 7a89 a4c8 5ec0 314d 74cb e215 5ec0
00000520: 56bd 1557 01f1 5ec0 6765 9f40 3690 5ec0
00000530: 66d1 50fc fc37 5ec0 fd7e 720d b447 5ec0
00000540: 9741 64fe 334e 5ec0 ba81 6522 e242 5ec0
00000550: e497 a809 6b81 5ec0 cae1 980d 2b18 5fc0
00000560: 95b7 e350 89da 5ec0 8f2f 2b0a a41b 5fc0
00000570: ce26 7d24 ff19 5ec0 c85c 8d66 0d18 5ec0
00000580: 578c c5c2 772b 5ec0 c97d 8867 a911 5ec0
00000590: bebd 7336 7099 5ec0 10d8 2a1e d5b5 5ec0
000005a0: fd3c 609c 2d86 5ec0 435f 60b0 fe69 5ec0
000005b0: a5d6 19a3 683e 5ec0 5cd9 edb8 76fb 5dc0
000005c0: 360d b212 dd3a 5ec0 62cc 86a8 5214 5ec0
000005d0: da02 beda 5172 5ec0 33bd 89f7 6ae8 5ec0
000005e0: 146d f8e5 cfa4 5ec0 c7a7 02ab 44a0 5ec0
000005f0: 96bf 8caf ab86 5ec0 9ec9 61c3 e961 5ec0
00000600: 2026 b1f4 6c63 5ec0 7450 514e 3738 5ec0
00000610: bc3a 52f3 2211 5ec0 f4ae 2cba e277 5ec0
00000620: 53b5 5578 6c10 5fc0 d5df 0ed2 d0b1 5ec0
00000630: d7d6 54b4 f647 5ec0 6c83 6012 635e 5ec0
00000640: 3a45 09bf 7b61 5ec0 a993 c89f fd30 5ec0
00000650: 8ae0 8198 c99b 5ec0 4981 1463 36ad 5ec0
00000660: a81f 4ca3 ab69 5ec0 20fc 0ad6 621b 5ec0
00000670: d149 da34 854b 5ec0 faa6 90bd e520 5ec0
00000680: 03db 5e8c f6fd 5dc0 0197 f415 3e39 5ec0
00000690: 2664 b06e 1668 5ec0 6501 e84f 7862 5ec0
000006a0: d685 2c67 ce66 5ec0 e762 6322 2438 5ec0
000006b0: 4686 f60b cf08 5ec0 da7a 7a15 6409 5ec0
000006c0: 55c2 fb64 661f 5ec0 41fe 24b4 3b7b 5ec0
000006d0: 0fb2 0059 3f8d 5ec0 3415 88d6 fb42 5ec0
000006e0: 847b 11bb ad45 5ec0 c622 347b 906f 5ec0
000006f0: 9db9 21cb b22d 5ec0 fb0c e762 85de 5ec0
00000700: cf24 eecb 33ed 5ec0 590d a3f1 5ab9 5ec0
00000710: 35f2 a248 25f5 5ec0 16a1 7a31 fb3f 5fc0
00000720: 8419 e78a 3c69 5fc0 1bc8 8f61 402a 5fc0
00000730: a28d 12be 7685 5fc0 9a7c 47b4 db74 5fc0
00000740: 5843 90ed 40a4 5fc0 7e7f fc82 29b3 5fc0
00000750: 7348 ad79 10ec 5ec0 6602 f762 029b 5ec0
00000760: f88f 7f04 5231 5ec0 32d6 bc9a 11cf 5ec0
00000770: 44b7 9b36 20cc 5ec0 c259 97b4 002e 5fc0
00000780: 3137 aa18 b7ec 5ec0 d3fd 763a 248f 5ec0
00000790: 29d0 2eda 1a1c 5ec0 d024 9fcd 263e 5ec0
000007a0: 6258 15a1 f4ce 5ec0 bbb7 05df c312 5fc0
000007b0: a279 0eec 405a 5fc0 6db2 324d bf5b 5fc0
000007c0: 4a51 842d f21d 5fc0 b493 1868 4d31 5ec0
000007d0: e4ee d359 4c32 5ec0 8696 2874 24f9 5dc0
000007e0: 3ff2 e85c 6b30 5ec0 246a bff4 583d 5ec0
000007f0: 7567 5f51 4318 5ec0 9815 47e1 318e 5ec0
