chains/ch143_217_353_EE_B50_EXT.npz (npz, 897880 bytes, 3 tensors)

chain f8 [16000, 5]
00000000: 2de2 522c 4065 a83f cfd9 d25a 8958 f83f
00000010: 5af9 7c49 bb72 03c0 d3f4 ca54 1dcf ee3f
00000020: bda8 5f77 9eaf f03f 060e 021b 03e6 a73f
00000030: 7733 53d7 224f f63f 3fed de5f 1eab 03c0
00000040: cfb3 a3e0 c401 ef3f 9804 e438 1188 f13f
00000050: 7d05 9973 5cec a73f a1f6 1f8f 9e87 f73f
00000060: bc23 c360 cb10 04c0 7b0e 2e09 c927 ee3f
00000070: 8e4d 5dd4 433b f13f 6d02 3553 073d ab3f
00000080: dcbe 04ca fec1 f73f e363 bd25 d3bf 03c0
00000090: 531f 37df ae2e ef3f ed0b f289 908c ef3f
000000a0: f82d fa1b 6ef9 a53f b478 4a51 d593 f83f
000000b0: 853d 03c2 dfba 03c0 e288 5aa2 3b0e ef3f
000000c0: feb4 32a0 b1b4 f03f b9ea 62f7 3bf4 a73f
000000d0: 7b2b 0c1f 3d13 f93f 0320 7afd 9e03 04c0
000000e0: fa72 605d bade ee3f bfb7 5c70 2139 f03f
000000f0: 789f 2043 79d5 a33f 3588 dd36 7ab2 fa3f
00000100: 3883 2ebc ec5d 03c0 989f e354 d826 ef3f
00000110: 5efc 3fb0 8007 f13f 0298 49e5 f2bc ae3f
00000120: f845 5368 c829 f93f b689 ba55 a923 04c0
00000130: 8bec af54 1504 ef3f 75f8 3136 141e f03f
00000140: ca8e 23f1 363b b53f c2be 70d4 bd26 f63f
00000150: 072c f36c 8133 05c0 02ee ac96 a3f5 ee3f
00000160: 1af4 2b92 9895 ee3f 81fd 39ff f059 b43f
00000170: a1c5 3b65 cea9 f63f 9649 68f0 1b4e 04c0
00000180: f239 d675 ed13 ef3f d7fe 7be3 9b06 f03f
00000190: c96d 16a1 dd21 b53f 1073 4b81 e803 f63f
000001a0: 1e20 b0e5 3222 04c0 89ff b607 5eb3 ee3f
000001b0: 4af1 3bd7 bd5d ef3f 17a3 66d1 e24f b23f
000001c0: 08e1 94e5 b3ba f43f 327f dc76 983d 03c0
000001d0: cf83 317b 8a19 ef3f 53bd ce2a 9504 f13f
000001e0: 24a3 9e6e f5c5 af3f 3c65 32b3 8c45 f63f
000001f0: 4130 9e0b 5e47 02c0 7101 b2db 1f22 ef3f
00000200: 910c a18f 8ba0 f03f 16ac cc54 e33c aa3f
00000210: 9aef af36 d0a6 f73f 91f7 ac34 7d37 02c0
00000220: a50c 5f39 af78 ef3f 1190 d5d9 5f23 f13f
00000230: 0bdf ba49 d75d a63f 5ba2 714b 892d f83f
00000240: 7ba2 a94a 1115 03c0 ddac 59e2 e20d ef3f
00000250: 23d8 0713 9431 f13f 50d1 6e8b 82fc a23f
00000260: 601a 8456 6587 f93f 3cea 2a4a 345c 02c0
00000270: aae9 d0c2 a442 ef3f da8f 8386 b509 f13f
00000280: b314 8d11 050a a73f 9341 b510 1647 f63f
00000290: f065 20b0 9e0a 03c0 2d6f d67d f21f ef3f
000002a0: 4490 6e88 d204 f13f 6444 2a50 faf0 a53f
000002b0: 2c7d 8a2d 0455 f73f f3f8 85a3 083f 03c0
000002c0: c70d 0cbd a1c7 ee3f e4f9 5bef 2622 f13f
000002d0: 7e2a fa3b db6c a63f d28d 9f69 9f40 f83f
000002e0: ae71 94b8 8a13 04c0 9903 c542 a69c ee3f
000002f0: 0d34 60e3 4437 f13f aab8 7804 151e ab3f
00000300: 7f09 40a6 45d6 f73f a6b3 a236 2fec 03c0
00000310: 8f06 f2cc cee8 ee3f 4c07 5b8a 0c4f f03f
00000320: 26a5 9a54 0fc2 a33f aeb1 dce8 7f92 f93f
00000330: e5fc fe53 c420 03c0 db5d 2b1e cd88 ee3f
00000340: 5e10 4fdb c9b1 f03f 3cca c363 1d34 ab3f
00000350: 84f2 86d4 7dc8 f63f 665e 042d 2d54 02c0
00000360: 241c a99a 227e ee3f a58b 3299 6300 f13f
00000370: 7639 76f4 d867 a73f cbcc 9334 9d7c f83f
00000380: 5e92 abb8 aa01 02c0 e80b 0bc9 e0b7 ee3f
00000390: 87a2 3e11 5299 f03f ffd3 8203 5845 a93f
000003a0: ded0 4622 1ef8 f73f ba1c 42f0 4b60 03c0
000003b0: 56ae 2147 f330 ef3f 0b25 8dd4 cfed f03f
000003c0: 9fb1 bfa5 12a7 ab3f cacd 0955 abe9 f83f
000003d0: 1cd1 8bbc 9658 03c0 38f1 463d 37b2 ee3f
000003e0: d23a 95a4 4d6d f03f d466 eaa7 628d a93f
000003f0: 07a7 8d35 d547 f83f d2b2 6592 b85e 03c0
00000400: afed 88b3 52cb ee3f b0a5 f906 2b76 f03f
00000410: 61b6 11dd 2057 aa3f 471e 9890 aac5 f73f
00000420: e34b 595e 4ffe 02c0 def7 e953 f61f ee3f
00000430: f7c4 7d4a 153e f03f e0b0 752f a503 a73f
00000440: 657e ff8e c715 f83f 9316 bee5 16be 02c0
00000450: 6636 fafb 4a84 ee3f 12ac 49dc 9de5 f03f
00000460: cb07 1009 7236 a73f dde0 6e6b 2c8d f83f
00000470: 5869 b224 0508 03c0 974a 8396 86fa ed3f
00000480: 69b7 c2a4 d500 f13f 5d41 43b4 1cb6 a43f
00000490: cc70 508b 25ac f63f f846 37f3 a9e3 02c0
000004a0: 00e6 7798 b739 ee3f a027 c469 9a48 f13f
000004b0: c8ef 9621 766e a13f 6c88 2f90 8cb1 f93f
000004c0: 39ee 3fa6 21b9 02c0 8019 0318 ce32 ef3f
000004d0: d22f 4a6a cf71 f03f 6ab5 201b dbfe a63f
000004e0: 1b58 590a 5aaa f83f 07a3 edfb 832d 03c0
000004f0: 7063 5e68 739b ee3f 1af3 c51c bbe6 f03f
00000500: 1580 b539 57f4 a83f abc2 cc20 2151 f83f
00000510: 1f55 4ce0 f388 04c0 dad7 5872 81c4 ee3f
00000520: f81f cf16 67dd f03f 1c06 a88f e8e5 aa3f
00000530: 1565 ef72 ae70 f93f 8806 bf7b 3cf8 04c0
00000540: 700f f0f6 81ec ee3f 0209 147f 8001 f13f
00000550: b1dc 4ed3 78b5 b03f 22ec 72a1 e4bd f73f
00000560: 979b 85c9 0a42 05c0 5745 16b7 6282 ee3f
00000570: 2b21 35b1 f4a9 f03f 2c9c cf9a 931e ad3f
00000580: c71f 8409 17a2 f73f a1d6 ebc3 1cb5 03c0
00000590: e6d8 7bb3 9168 ee3f 9e5b 5587 2c3e f13f
000005a0: a663 5568 ba58 ad3f afb7 e42c 109f f83f
000005b0: c30e 10a1 275c 04c0 1c30 7111 cdbd ee3f
000005c0: 354b 0eef ce1a f13f ea6f a1c2 c4ab ab3f
000005d0: 73eb 9d78 0208 f93f 15fb f8a4 7270 03c0
000005e0: cb03 346f 1b82 ee3f 8818 fe0c aacc f03f
000005f0: 2180 bd3e 5a46 ac3f 5869 6e8d cfaa f83f
00000600: 0c40 2cc4 6668 04c0 178a b663 e886 ee3f
00000610: 9c31 0622 ba4b f13f bbde 7dab b8c7 ae3f
00000620: 8034 a675 1f56 f63f 0555 7343 918c 04c0
00000630: 3d69 d31f 5bc1 ee3f 3950 733b 5c0a f13f
00000640: 818c 369f 7f28 a93f 5420 601c 9987 f63f
00000650: ca95 ef2b 6298 03c0 e666 1488 319b ee3f
00000660: c581 8e7d d090 f13f 896c 0d12 f851 ae3f
00000670: 4ae7 4b33 5c85 f63f afdb 971e 70fb 02c0
00000680: 9c53 eb6d 51df ee3f ed44 cd6c d83d f13f
00000690: 6fa3 0582 6428 ad3f 7ede 47b8 b3fe f53f
000006a0: 06e8 8b77 f628 03c0 0409 8086 886d ef3f
000006b0: 51b3 8085 5f3f f13f 3ecb a8f4 9817 ab3f
000006c0: 9096 f279 7b66 f73f 9748 219f 52e7 03c0
000006d0: ef93 85c0 13d8 ee3f 61a0 0b46 2903 f13f
000006e0: 479e d476 6a27 ab3f ba1c 0018 525e f73f
000006f0: 3170 4eee ffa8 03c0 379a 738e 4983 ee3f
00000700: 2970 966a f4d5 f03f 4162 c230 e14e ad3f
00000710: cb38 4fa6 bd5b f63f a0ca cb63 be4f 02c0
00000720: 5879 f45e f664 ee3f a55a f745 fb63 f03f
00000730: e54f ce9e 6876 a73f a46d 84e5 301e f73f
00000740: dfc5 b3d0 b4f0 02c0 5087 ce26 8179 ee3f
00000750: 90b7 3358 4dc8 f03f db19 1cf7 f326 a43f
00000760: cf9e 149e 1695 fa3f 99b4 25b5 1293 02c0
00000770: 67fe 937d a57c ee3f a3db 9ee7 2d93 f03f
00000780: 1218 68f6 e92a a83f bb41 0a22 4fe2 f93f
00000790: c0e9 3d84 2f61 03c0 ffe5 9c59 4342 ef3f
000007a0: 59d1 a8d8 0214 f03f cc56 9758 8881 aa3f
000007b0: f55a 2eb5 975e f73f add9 f8c0 9c79 02c0
000007c0: edfd 6e1b 30f4 ee3f e8ca c403 3cb4 f03f
000007d0: c4eb 9258 1ea0 a53f 5210 db62 545f f83f
000007e0: 5886 8ec5 4514 02c0 51c1 2429 031a ef3f
000007f0: e805 9438 48d5 f03f 1037 da10 03f7 a43f
0.047647481356254275 1.5216153667257577 -2.4310212842239425 0.9627825409039822 1.0428757346185613 0.04667672829330276 1.3943203364499064 -2.458554028502163
0.9689659488191128 1.0957195493977334 0.04672516738038277 1.4706101980986335 -2.5082004127075077 0.9423566035552108 1.076968984173479 0.053199986369240594
1.4848621264790642 -2.4686644504949853 0.9744486198114636 0.9859087652442874 0.04291862575072608 1.5360921073366116 -2.4662470967520584 0.9704874201745748
1.0441147096383356 0.04678523440221256 1.5671969616693946 -2.501768093385182 0.9646884750141844 1.0139479054591758 0.03873804993082691 1.6685735839059934
-2.42086169259019 0.9734918268195427 1.0643317112697086 0.0600353150264681 1.5727008891302585 -2.5174128243972644 0.9692484525725303 1.0073434941291712
0.0829347933500301 1.3844583795980019 -2.6501492034635734 0.9674852316742888 0.9557612280765426 0.07949739676586455 1.4164565996582967 -2.5381392270875933
0.9711825658321784 1.0016135107143123 0.08254800017169041 1.375954155976789 -2.516698641240523 0.9593954230003742 0.9801930621902468 0.07153146374060913
1.29558171921059 -2.405075958828001 0.9718677908059535 1.0636188194437934 0.062057180169466514 1.3919798850896106 -2.284847346081762 0.9729155817913534
1.0391955957900658 0.051245788671018186 1.4782259117336936 -2.2770942797932965 0.9834819908650344 1.0711363324308005 0.04368469977401731 1.5111172625567153
-2.3852868874567412 0.9704451008705309 1.0746041053184932 0.03708274795590916 1.5955556277782748 -2.2950216097208607 0.9768852047921446 1.0648703817796474
0.044998320000141055 1.3923550274522298 -2.380185485829081 0.9726498086706435 1.0636773423548371 0.042854139600543545 1.4582559374756086 -2.4057781958828115
0.961869115097607 1.0708379125568337 0.04379925830024421 1.515777027693606 -2.5095419330884488 0.9566222480863075 1.075993431269356 0.05296388320526664
1.489812516607884 -2.4903244274523386 0.9659189226951684 1.0192990688814971 0.038589934423109803 1.598266515367054 -2.3909994661513445 0.9541993703123198
1.0434053961517047 0.05313197939712608 1.4239481260148361 -2.2911017910917506 0.9528973599161685 1.0625949844622735 0.045714168397455276 1.530423360233544
-2.250813906417803 0.9599460531829864 1.0374317811603377 0.04935717623576607 1.4980756129198691 -2.422019841210923 0.9747253789223105 1.058059530523965
0.05400903962422209 1.5570481607254458 -2.4182562570732795 0.9592548558062282 1.0266853741665511 0.04990680980445253 1.5175373165060948 -2.421250480393021
0.96231970849424 1.0288496277301924 0.051445986734375955 1.4857583664142042 -2.3741748209954365 0.9414016379303083 1.0151570234123122 0.04494968609182748
1.5053172670231103 -2.3428171108851727 0.953649036544175 1.0560587506286123 0.045337260824467394 1.5344661900144765 -2.3789160601565236 0.936831754656242
1.0627037464105007 0.040451905255056465 1.4170279924356235 -2.3611639977688093 0.9445455530068898 1.0802253848546357 0.03404587898282291 1.6058469421627946
-2.340396212411886 0.974951788805626 1.0277856971688277 0.044913146077628266 1.5415897754915082 -2.39722439593277 0.9564759291125551 1.0563307880358423
0.048739171785882864 1.5198069840663873 -2.5668714068693954 0.9614875062313744 1.05405339155004 0.052535312210249624 1.5900101174978023 -2.6212091128989563
0.9663705657007835 1.0628666843409182 0.065269042576676 1.4838606173132196 -2.657247137441526 0.953416211692608 1.0414931223077228 0.05687390579969817
1.4770727512095492 -2.463433771738736 0.9502647882025286 1.0776791845762328 0.05731756709673812 1.5388337854051135 -2.5449974616074953 0.9606690731684497
1.0690450037115629 0.054044865378017296 1.564455481681503 -2.429906166885653 0.9533822223603406 1.0499668605348536 0.0552242471301272 1.541701843706127
-2.5509772611621937 0.9539682338257219 1.0809880570478532 0.060117503103297186 1.3960260959313757 -2.568636443097264 0.9611030217741142 1.0650293657572674
0.04913710421103535 1.40810500225236 -2.449405997513826 0.956444516926436 1.0978550819928483 0.059219124034563704 1.4075586322564555 -2.3727724447339464
0.9647605082378621 1.0775989770957566 0.05694879615004466 1.3746831129518848 -2.3950013484545734 0.9821207644420444 1.0779719557715064 0.05291440950931879
1.462520099981166 -2.4879505569488845 0.9638766060057814 1.063271783461481 0.05303509426658742 1.4605275094525454 -2.4575193994224027 0.9535262853867782
1.0522350467281376 0.0572424289723057 1.39739766087182 -2.288937358528827 0.9498245100583445 1.0244095547729242 0.045825261483656544 1.444870850135751
-2.3675323777067514 0.952332092089117 1.0489018865004915 0.039359687723891056 1.6613985228558936 -2.321813025677852 0.9527156307885435 1.0359324500729847
0.047202407196934484 1.6177512483301217 -2.422453911914289 0.9768387556316042 1.004885526967959 0.05176950532374533 1.4605938985238798 -2.30938101539069
0.9673080955325851 1.0440025469985645 0.04223723250603187 1.5232738362838245 -2.2598987039680587 0.9719253352723546 1.0520708284460571 0.040947051818063795

weight f8 [16000]
00000000: 0000 0000 0000 0840 0000 0000 0000 2240
00000010: 0000 0000 0000 0040 0000 0000 0000 2240
00000020: 0000 0000 0000 1c40 0000 0000 0000 1040
00000030: 0000 0000 0000 f03f 0000 0000 0000 0840
00000040: 0000 0000 0000 1040 0000 0000 0000 f03f
00000050: 0000 0000 0000 0040 0000 0000 0000 f03f
00000060: 0000 0000 0000 f03f 0000 0000 0000 2440
00000070: 0000 0000 0000 f03f 0000 0000 0000 2240
00000080: 0000 0000 0000 f03f 0000 0000 0000 0040
00000090: 0000 0000 0000 3240 0000 0000 0000 1440
000000a0: 0000 0000 0000 1040 0000 0000 0000 f03f
000000b0: 0000 0000 0000 0040 0000 0000 0000 f03f
000000c0: 0000 0000 0000 f03f 0000 0000 0000 f03f
000000d0: 0000 0000 0000 f03f 0000 0000 0000 2040
000000e0: 0000 0000 0000 1040 0000 0000 0000 f03f
000000f0: 0000 0000 0000 0040 0000 0000 0000 1040
00000100: 0000 0000 0000 0040 0000 0000 0000 1040
00000110: 0000 0000 0000 f03f 0000 0000 0000 1040
00000120: 0000 0000 0000 0040 0000 0000 0000 1040
00000130: 0000 0000 0000 f03f 0000 0000 0000 f03f
00000140: 0000 0000 0000 f03f 0000 0000 0000 1040
00000150: 0000 0000 0000 f03f 0000 0000 0000 f03f
00000160: 0000 0000 0000 0840 0000 0000 0000 0040
00000170: 0000 0000 0000 1040 0000 0000 0000 1840
00000180: 0000 0000 0000 1440 0000 0000 0000 1c40
00000190: 0000 0000 0000 0040 0000 0000 0000 1440
000001a0: 0000 0000 0000 3040 0000 0000 0000 1840
000001b0: 0000 0000 0000 f03f 0000 0000 0000 2840
000001c0: 0000 0000 0000 f03f 0000 0000 0000 0040
000001d0: 0000 0000 0000 3040 0000 0000 0000 1040
000001e0: 0000 0000 0000 f03f 0000 0000 0000 f03f
000001f0: 0000 0000 0000 1840 0000 0000 0000 1c40
00000200: 0000 0000 0000 f03f 0000 0000 0000 1440
00000210: 0000 0000 0000 1040 0000 0000 0000 2e40
00000220: 0000 0000 0000 0040 0000 0000 0000 1040
00000230: 0000 0000 0000 0840 0000 0000 0000 f03f
00000240: 0000 0000 0000 0040 0000 0000 0000 1040
00000250: 0000 0000 0000 f03f 0000 0000 0000 0840
00000260: 0000 0000 0000 f03f 0000 0000 0000 0040
00000270: 0000 0000 0000 1040 0000 0000 0000 2440
00000280: 0000 0000 0000 f03f 0000 0000 0000 1840
00000290: 0000 0000 0000 2a40 0000 0000 0000 1040
000002a0: 0000 0000 0000 1840 0000 0000 0000 0040
000002b0: 0000 0000 0000 0840 0000 0000 0000 2040
000002c0: 0000 0000 0000 1040 0000 0000 0000 0840
000002d0: 0000 0000 0000 1040 0000 0000 0000 1440
000002e0: 0000 0000 0000 1040 0000 0000 0000 2e40
000002f0: 0000 0000 0000 1c40 0000 0000 0000 f03f
00000300: 0000 0000 0000 0840 0000 0000 0000 3140
00000310: 0000 0000 0000 f03f 0000 0000 0000 0040
00000320: 0000 0000 0000 0040 0000 0000 0000 0040
00000330: 0000 0000 0000 f03f 0000 0000 0000 0040
00000340: 0000 0000 0000 0040 0000 0000 0000 1040
00000350: 0000 0000 0000 f03f 0000 0000 0000 1840
00000360: 0000 0000 0000 f03f 0000 0000 0000 0040
00000370: 0000 0000 0000 0840 0000 0000 0000 0040
00000380: 0000 0000 0000 f03f 0000 0000 0000 f03f
00000390: 0000 0000 0000 0840 0000 0000 0000 0040
000003a0: 0000 0000 0000 0040 0000 0000 0000 0840
000003b0: 0000 0000 0000 0040 0000 0000 0000 f03f
000003c0: 0000 0000 0000 0840 0000 0000 0000 2240
000003d0: 0000 0000 0000 f03f 0000 0000 0000 0840
000003e0: 0000 0000 0000 0040 0000 0000 0000 f03f
000003f0: 0000 0000 0000 0040 0000 0000 0000 1840
00000400: 0000 0000 0000 f03f 0000 0000 0000 0040
00000410: 0000 0000 0000 1440 0000 0000 0000 f03f
00000420: 0000 0000 0000 1840 0000 0000 0000 f03f
00000430: 0000 0000 0000 f03f 0000 0000 0000 f03f
00000440: 0000 0000 0000 0040 0000 0000 0000 1c40
00000450: 0000 0000 0000 f03f 0000 0000 0000 0040
00000460: 0000 0000 0000 0040 0000 0000 0000 1440
00000470: 0000 0000 0000 0040 0000 0000 0000 1c40
00000480: 0000 0000 0000 0040 0000 0000 0000 0040
00000490: 0000 0000 0000 f03f 0000 0000 0000 1440
000004a0: 0000 0000 0000 1840 0000 0000 0000 f03f
000004b0: 0000 0000 0000 f03f 0000 0000 0000 2040
000004c0: 0000 0000 0000 f03f 0000 0000 0000 1040
000004d0: 0000 0000 0000 1040 0000 0000 0000 1040
000004e0: 0000 0000 0000 0040 0000 0000 0000 0840
000004f0: 0000 0000 0000 0040 0000 0000 0000 f03f
00000500: 0000 0000 0000 3040 0000 0000 0000 f03f
00000510: 0000 0000 0000 f03f 0000 0000 0000 0040
00000520: 0000 0000 0000 0040 0000 0000 0000 1440
00000530: 0000 0000 0000 2040 0000 0000 0000 0040
00000540: 0000 0000 0000 0040 0000 0000 0000 2240
00000550: 0000 0000 0000 0840 0000 0000 0000 2240
00000560: 0000 0000 0000 1040 0000 0000 0000 1040
00000570: 0000 0000 0000 0840 0000 0000 0000 f03f
00000580: 0000 0000 0000 f03f 0000 0000 0000 f03f
00000590: 0000 0000 0000 0040 0000 0000 0000 0840
000005a0: 0000 0000 0000 f03f 0000 0000 0000 1040
000005b0: 0000 0000 0000 1440 0000 0000 0000 1440
000005c0: 0000 0000 0000 f03f 0000 0000 0000 0840
000005d0: 0000 0000 0000 f03f 0000 0000 0000 f03f
000005e0: 0000 0000 0000 f03f 0000 0000 0000 0040
000005f0: 0000 0000 0000 1440 0000 0000 0000 0840
00000600: 0000 0000 0000 0040 0000 0000 0000 0840
00000610: 0000 0000 0000 1040 0000 0000 0000 f03f
00000620: 0000 0000 0000 0840 0000 0000 0000 f03f
00000630: 0000 0000 0000 1040 0000 0000 0000 0040
00000640: 0000 0000 0000 3040 0000 0000 0000 1040
00000650: 0000 0000 0000 0840 0000 0000 0000 1040
00000660: 0000 0000 0000 f03f 0000 0000 0000 1040
00000670: 0000 0000 0000 1440 0000 0000 0000 1440
00000680: 0000 0000 0000 f03f 0000 0000 0000 f03f
00000690: 0000 0000 0000 f03f 0000 0000 0000 f03f
000006a0: 0000 0000 0000 0840 0000 0000 0000 0040
000006b0: 0000 0000 0000 2440 0000 0000 0000 f03f
000006c0: 0000 0000 0000 1440 0000 0000 0000 3840
000006d0: 0000 0000 0000 0040 0000 0000 0000 f03f
000006e0: 0000 0000 0000 0040 0000 0000 0000 2640
000006f0: 0000 0000 0000 f03f 0000 0000 0000 f03f
00000700: 0000 0000 0000 1040 0000 0000 0000 0840
00000710: 0000 0000 0000 0040 0000 0000 0000 f03f
00000720: 0000 0000 0000 0840 0000 0000 0000 1440
00000730: 0000 0000 0000 f03f 0000 0000 0000 f03f
00000740: 0000 0000 0000 1040 0000 0000 0000 1440
00000750: 0000 0000 0000 f03f 0000 0000 0000 f03f
00000760: 0000 0000 0000 1040 0000 0000 0000 f03f
00000770: 0000 0000 0000 f03f 0000 0000 0000 f03f
00000780: 0000 0000 0000 0840 0000 0000 0000 2240
00000790: 0000 0000 0000 1440 0000 0000 0000 f03f
000007a0: 0000 0000 0000 0840 0000 0000 0000 0840
000007b0: 0000 0000 0000 f03f 0000 0000 0000 1040
000007c0: 0000 0000 0000 0840 0000 0000 0000 0840
000007d0: 0000 0000 0000 f03f 0000 0000 0000 0840
000007e0: 0000 0000 0000 0840 0000 0000 0000 1840
000007f0: 0000 0000 0000 2440 0000 0000 0000 2040
3.0 9.0 2.0 9.0 7.0 4.0 1.0 3.0
4.0 1.0 2.0 1.0 1.0 10.0 1.0 9.0
1.0 2.0 18.0 5.0 4.0 1.0 2.0 1.0
1.0 1.0 1.0 8.0 4.0 1.0 2.0 4.0
2.0 4.0 1.0 4.0 2.0 4.0 1.0 1.0
1.0 4.0 1.0 1.0 3.0 2.0 4.0 6.0
5.0 7.0 2.0 5.0 16.0 6.0 1.0 12.0
1.0 2.0 16.0 4.0 1.0 1.0 6.0 7.0
1.0 5.0 4.0 15.0 2.0 4.0 3.0 1.0
2.0 4.0 1.0 3.0 1.0 2.0 4.0 10.0
1.0 6.0 13.0 4.0 6.0 2.0 3.0 8.0
4.0 3.0 4.0 5.0 4.0 15.0 7.0 1.0
3.0 17.0 1.0 2.0 2.0 2.0 1.0 2.0
2.0 4.0 1.0 6.0 1.0 2.0 3.0 2.0
1.0 1.0 3.0 2.0 2.0 3.0 2.0 1.0
3.0 9.0 1.0 3.0 2.0 1.0 2.0 6.0
1.0 2.0 5.0 1.0 6.0 1.0 1.0 1.0
2.0 7.0 1.0 2.0 2.0 5.0 2.0 7.0
2.0 2.0 1.0 5.0 6.0 1.0 1.0 8.0
1.0 4.0 4.0 4.0 2.0 3.0 2.0 1.0
16.0 1.0 1.0 2.0 2.0 5.0 8.0 2.0
2.0 9.0 3.0 9.0 4.0 4.0 3.0 1.0
1.0 1.0 2.0 3.0 1.0 4.0 5.0 5.0
1.0 3.0 1.0 1.0 1.0 2.0 5.0 3.0
2.0 3.0 4.0 1.0 3.0 1.0 4.0 2.0
16.0 4.0 3.0 4.0 1.0 4.0 5.0 5.0
1.0 1.0 1.0 1.0 3.0 2.0 10.0 1.0
5.0 24.0 2.0 1.0 2.0 11.0 1.0 1.0
4.0 3.0 2.0 1.0 3.0 5.0 1.0 1.0
4.0 5.0 1.0 1.0 4.0 1.0 1.0 1.0
3.0 9.0 5.0 1.0 3.0 3.0 1.0 4.0
3.0 3.0 1.0 3.0 3.0 6.0 10.0 8.0

lkl f8 [16000]
00000000: 01e6 b253 03cc 46c0 af1f 5cd2 fc13 48c0
00000010: 0aab 318c cb22 48c0 1deb 2aa6 24f7 47c0
00000020: 821c 0dad 34ff 46c0 7a43 eaee eb39 47c0
00000030: fb24 fae0 4197 47c0 fadc 8ec7 a717 48c0
00000040: 0673 1926 22f2 4ac0 3aef c30f 6e25 49c0
00000050: 139d 3c90 8f47 49c0 b618 eca1 a125 49c0
00000060: 6a0f 9342 6bef 48c0 3601 e9c6 e54d 49c0
00000070: 7b61 ac49 a924 47c0 6cf4 3763 c0ca 47c0
00000080: 87a5 3c3c 1ae1 47c0 66b6 0b05 a24b 47c0
00000090: 3991 4f51 055e 47c0 ef76 3739 4b22 47c0
000000a0: b0c9 279a 9b24 47c0 6ac8 fff4 4004 48c0
000000b0: 2980 c26d b6cd 47c0 573f 7b1c 4122 47c0
000000c0: badc dbde 0b4f 47c0 d719 0e4b c8dc 46c0
000000d0: 6974 df14 84b8 47c0 05d4 fe85 792a 47c0
000000e0: 5be6 ee6a e5f6 47c0 5cae d1bd 4398 48c0
000000f0: b372 c4b7 99a6 47c0 ef6f bcda 0eed 46c0
00000100: 6061 a211 4161 47c0 6ee6 80df 4e26 48c0
00000110: 9165 dc65 0fa6 48c0 9920 e10f 57c2 47c0
00000120: aeab be78 2ae0 47c0 b1d2 d21d e5a8 47c0
00000130: 8d35 0165 7310 48c0 9d9d 2379 0ef2 47c0
00000140: f565 5711 76f1 47c0 f14c 053e b61a 48c0
00000150: fbd6 cd87 c28d 48c0 90e5 5723 611d 47c0
00000160: b8f0 c4ef 151f 47c0 bd8d de9c 3d1f 48c0
00000170: 70f8 1d0d d165 47c0 4012 2019 08c9 47c0
00000180: 4f97 6549 77b6 47c0 770a b939 5d8c 47c0
00000190: 3a26 95ae 22c7 47c0 ac03 4732 199a 47c0
000001a0: a0b2 1fd8 397a 47c0 82ea 3a3a ffe7 47c0
000001b0: 4792 a333 f13e 48c0 64ff 119b ea1f 48c0
000001c0: 76dd f22e d01c 47c0 1f44 e64f e87b 47c0
000001d0: 3028 5a90 634e 47c0 69fa af01 b6cb 47c0
000001e0: ea30 5a3f 6a1a 48c0 1dbb 6fc3 7903 49c0
000001f0: 2a4e 5336 4f59 47c0 5e7a b32e c96d 47c0
00000200: 4f56 6457 63f7 46c0 2352 1f55 263c 47c0
00000210: cc17 a106 6577 47c0 74fc fe40 851a 48c0
00000220: d6c0 430e d5da 49c0 9d1b 451f ba49 48c0
00000230: 0ed4 9769 1ac8 48c0 fc43 3b0e 0fe5 48c0
00000240: d02a fbd8 c54a 48c0 dccc 1ba5 f015 48c0
00000250: 2fb3 25c8 fcb9 47c0 786e 05b6 634e 48c0
00000260: fceb 4b95 81df 48c0 bba2 7f02 39c2 49c0
00000270: dae6 269d a7b9 48c0 42c9 6e02 a8d3 49c0
00000280: 9b58 aee8 9904 49c0 a903 7842 2973 47c0
00000290: a095 6191 464e 47c0 f8fe 832b 4807 48c0
000002a0: 0d10 96d3 d04b 47c0 dfb9 655f 833c 47c0
000002b0: e493 95f7 aead 47c0 5d08 5943 ed68 47c0
000002c0: 6eb3 2a25 a325 47c0 8c9c 0fb0 061f 47c0
000002d0: 2c7d e913 4c58 48c0 1ca1 af73 5d59 47c0
000002e0: f44d db4b 8bcf 47c0 a22b fd39 f604 48c0
000002f0: 875b f752 5edb 47c0 fa7a 45d9 44b5 47c0
00000300: 59f2 e301 5c58 47c0 5bb9 23e2 5aa6 47c0
00000310: 00b7 aa83 e89d 47c0 2901 809a 85b7 47c0
00000320: 6054 c339 9be9 47c0 7bfa 52f6 f643 47c0
00000330: 2875 7d40 cf2b 48c0 57b6 7004 9656 49c0
00000340: 4e7b d8cc 372a 49c0 fce2 ce7a f525 4ac0
00000350: ab44 b577 ed09 48c0 dad6 eb22 a0fc 47c0
00000360: 9881 fab9 fd43 48c0 9bbb b3ca e25b 48c0
00000370: 1aaa 44fb 4df5 48c0 e456 e7de d43c 49c0
00000380: 13ca c905 b6c2 49c0 c0b8 512b d29d 49c0
00000390: f460 94e1 97be 49c0 16b1 8a13 43ca 49c0
000003a0: 4972 16ee 14bd 49c0 0a60 1d39 1876 49c0
000003b0: 5857 3858 3d4f 49c0 967f 23d4 6771 48c0
000003c0: a3ac e631 c232 47c0 1dc0 ccf8 de0b 47c0
000003d0: 3c14 65f8 752b 47c0 f22a 8072 daf0 47c0
000003e0: 91a0 c6d7 b756 49c0 9b7e 9bbc bf37 49c0
000003f0: 42f6 f6bc 9a5c 49c0 3145 2042 2ad4 49c0
00000400: caf1 0b05 a2ab 49c0 1c52 6977 86bd 48c0
00000410: 96a8 22f2 057a 47c0 cb21 0091 d590 47c0
00000420: 6abf 61d6 9e10 47c0 2499 4575 e453 47c0
00000430: 0478 33a8 e18e 47c0 b1bc 8a19 50a7 47c0
00000440: b19e 097a 41f3 47c0 a46c 0821 1b15 49c0
00000450: f0a8 71d9 a749 49c0 4859 70b3 83be 49c0
00000460: fd79 7b23 222a 4ac0 1c89 f4c7 77d5 49c0
00000470: 8545 ebf5 ccf3 48c0 3cd3 14cf ccd3 48c0
00000480: f639 6672 d31d 48c0 09ce 167b 39e2 48c0
00000490: 7d8e ca65 1691 49c0 488f 44b0 cd44 48c0
000004a0: 39ca 33d0 df42 48c0 2916 c290 8ba0 47c0
000004b0: f454 271d b054 47c0 e438 afdd dfbb 47c0
000004c0: 2aab b1e7 e4d9 49c0 7d75 eada 2463 49c0
000004d0: c1f7 d8ee a804 48c0 6e22 07f7 11f1 47c0
000004e0: ee6e 8803 00dc 47c0 422c c7e5 7ea4 48c0
000004f0: ef16 3550 c00a 49c0 76c3 8013 10e3 48c0
00000500: d2da 2707 3c50 47c0 0316 4a22 0ca3 47c0
00000510: c3b9 c348 745f 47c0 d3e7 c008 8654 49c0
00000520: e61b c9f0 432a 49c0 1c3c ce8c 6171 48c0
00000530: 42ca ef76 4fe6 48c0 af48 7e01 fdae 48c0
00000540: abe4 ebb0 ed7d 48c0 cda2 009c 3ce6 48c0
00000550: 6a09 4288 c2b1 48c0 6bf2 eda6 0fc6 48c0
00000560: 0cdf d6c6 ad83 48c0 9644 8687 a319 48c0
00000570: 86da afa0 6198 47c0 5daa 57a4 80dd 47c0
00000580: ebba a53d f14b 48c0 d922 955b fdd6 48c0
00000590: c9f0 6b17 ced9 49c0 0dea 2a5e 0f46 49c0
000005a0: 4543 554a 183a 48c0 3b4a 599a d4f7 48c0
000005b0: 48fd 5c85 59d6 48c0 184b 8a73 dd11 49c0
000005c0: 753a 51ad db41 48c0 321c 3094 71e3 48c0
000005d0: 3e04 7923 0eda 49c0 5c97 1ecd b11c 4ac0
000005e0: 1941 689a f6b2 48c0 7b2f c3a7 5196 47c0
000005f0: 11a3 9e0e d0aa 47c0 055f 72fe b08b 47c0
00000600: fc7a 1f88 0e90 47c0 a1b9 568a a162 47c0
00000610: cb97 14bb 93eb 47c0 3bd8 081f 6f81 47c0
00000620: 971c a405 6574 47c0 f7a3 fa16 706f 48c0
00000630: 50f2 5efc 51b6 48c0 2d87 da45 0ade 48c0
00000640: 0683 7ee2 88f9 47c0 a0b3 1bef 8d2d 47c0
00000650: 4e30 961b 5296 47c0 302c b6d6 ff60 48c0
00000660: 431d c44c 273d 49c0 93f3 4cab 7287 48c0
00000670: c83f d48a d1ba 47c0 d320 4134 9832 48c0
00000680: 79d6 d030 9916 49c0 0c6c ed6e 2a4c 48c0
00000690: a95c 4e0a 7d87 47c0 0e6c 3097 1f66 47c0
000006a0: b3bd 2217 3b8c 47c0 c70b d309 9015 48c0
000006b0: 20cc 96cc 4de0 47c0 5d95 147f fdd3 47c0
000006c0: 5527 2275 8198 47c0 1cce a21a 8813 48c0
000006d0: c799 c042 3301 48c0 8361 8161 30f5 47c0
000006e0: 007b 72c7 7a1b 48c0 3c6b d06e bc41 47c0
000006f0: 11ac 5614 9c5e 47c0 9af4 c066 d803 47c0
00000700: 4523 81e3 4bba 47c0 d15b 5d02 f2e5 47c0
00000710: 9f1c 42e8 2e02 48c0 eca1 6ea5 e059 47c0
00000720: e1da f8e4 a507 48c0 2a19 3773 bf80 47c0
00000730: e21e 8774 8ff9 47c0 c6c4 78a8 8a5e 48c0
00000740: 4c31 4c9b 6486 47c0 bdeb a1db 3628 47c0
00000750: 4c47 e32e f4fd 46c0 0cfb 4217 1f87 48c0
00000760: fc1d 6452 7490 47c0 5163 497c 6fdf 47c0
00000770: 0eca 0bef 4ed4 47c0 ccaa ea36 1445 47c0
00000780: d9fb 0f25 8044 47c0 1622 cf09 f543 47c0
00000790: 52f1 f64f 2a4f 48c0 fc5d fcfa 2c66 48c0
000007a0: acad e5f9 18a9 49c0 388b e050 07bb 48c0
000007b0: d83d 5cd7 33d6 47c0 7be9 ab27 9885 47c0
000007c0: 20d1 7363 ba85 47c0 28e3 71ae 40ac 47c0
000007d0: ca8f a218 47e4 47c0 548d d620 433f 47c0
000007e0: 7cae 35c8 532e 47c0 b61d 1eb6 2053 47c0
000007f0: 2875 3142 5a20 47c0 70a3 98cb d172 47c0
-45.59385153041149 -48.156153006536776 -48.27183678078843 -47.93080594154001 -45.993795043375044 -46.45251261175777 -47.18169796194157 -48.18480772472135
-53.89166713946001 -50.292421312972195 -50.559068708034964 -50.293995132714755 -49.87046081715273 -50.60857473733124 -46.28641625325232 -47.58399620277564
-47.75861313782939 -46.59088194915675 -46.73453728089448 -46.26792063911659 -46.28599860136762 -48.03323233117483 -47.60712978360272 -46.267612037829785
-46.61754976020298 -45.72486246288798 -47.44153080855251 -46.33183360045226 -47.92887627282172 -49.18956730593047 -47.30156609623136 -45.8520158214668
-46.7597982447503 -48.299282014789114 -49.29734490644035 -47.5182819222693 -47.751296132183924 -47.31949208063214 -48.12852156218569 -47.89106668700263
-47.88641564147466 -48.208686592662964 -49.10749909926195 -46.22952691833336 -46.242856951868305 -48.24406777254942 -46.79544223750497 -47.5705596357916
-47.42551534138203 -47.0965950158615 -47.5557459095257 -47.20389393298623 -46.954890265920085 -47.81247642399559 -48.49173589217076 -48.249347099101925
-46.225103252970186 -46.96802710288488 -46.61241344835469 -47.59149190037426 -48.20636741546498 -50.02715342479335 -46.69772986476558 -46.8577021004064
-45.93271915816569 -46.46991981534327 -46.932770565661116 -48.20719158602233 -51.70962694462075 -48.57599249720008 -49.56330604470723 -49.78952196019961
-48.58416282905603 -48.17140640122827 -47.45302678910081 -48.61241793885432 -49.74614206511612 -51.51736479980669 -49.45042766952038 -51.65356474313241
-50.03594692719454 -46.89969664440225 -46.611528561257046 -48.056889953089865 -46.592310379288485 -46.47275917498677 -47.35690207294081 -46.81974069449709
-46.29404129586224 -46.24239159357339 -48.68982170964077 -46.698164425617705 -47.62143848617771 -48.03876423703993 -47.71381604269032 -47.416163596082654
-46.69030784254273 -47.29964853996599 -47.233658274037225 -47.43376475572797 -47.82504961049631 -46.530974188343826 -48.34226232648717 -50.67645316604165
-50.32982788629907 -52.29655394651306 -48.07755943633068 -47.97363697543706 -48.53118061763524 -48.71785863662736 -49.91644230702168 -50.47524629875059
-51.52117988923069 -51.23297635546032 -51.48901004548125 -51.58017200729425 -51.477201233825845 -50.922614230483376 -50.619059588919015 -48.88598109944648
-46.39655135882756 -46.09274206159191 -46.33953766761303 -47.88166648157302 -50.67748543928713 -50.435538841176104 -50.7234722333783 -51.65753962112138
-51.340881949264784 -49.480666090418 -46.953306452677836 -47.13151752954908 -46.12984733364904 -46.65540948770857 -47.1162615062058 -47.307131951086724
-47.90043569059106 -50.16489041243884 -50.57543485688973 -51.48839419351367 -52.32916682747962 -51.66771792831625 -49.9046924017703 -49.654687771957896
-48.233015346446265 -49.767379175315064 -51.13349602117976 -48.53752711627618 -48.52245523957067 -47.25425919987567 -46.661624569134716 -47.467769346769074
-51.70229812789178 -50.77456222961607 -48.03640542596941 -47.8833607468449 -47.718750421159584 -49.28512260651816 -50.08399393646493 -49.77392810618669
-46.62683190771135 -47.27380779855232 -46.7457362132732 -50.66034039897172 -50.33019838161253 -48.885789490414226 -49.799300067028994 -49.36709612528045
-48.98381625669693 -49.7987246516328 -49.3887491533704 -49.54735266321662 -49.02874074451219 -48.200303021011834 -47.19047936045267 -47.73048834114591
-48.5932995852689 -49.67960686475789 -51.70160191317115 -50.5473439893286 -48.453866283066 -49.93617562637197 -49.67460696259019 -50.139570658231776
-48.514516510641364 -49.77690365170601 -51.70355647477162 -52.22417606347764 -49.39815073099653 -47.1743669226698 -47.33447439905115 -47.09133892616777
-47.125443473216336 -46.77055482134461 -47.84044588571086 -47.01120365077846 -46.90933294785753 -48.87060820806794 -49.42437700878202 -49.73468850298227
-47.94948989083609 -46.35589398243542 -47.17438072999413 -48.75780757804057 -50.47776183677572 -49.05818692452808 -47.45951972354629 -48.39526990108575
-50.176550008746695 -48.59504496186136 -47.05850342584865 -46.79783906807289 -47.09555329510058 -48.16845820240956 -47.75237424243119 -47.656173596430314
-47.19145073096903 -48.15259106587857 -48.00937685398417 -47.915538967298765 -48.21468442048899 -46.51356301476196 -46.73913816673315 -46.03004154607443
-47.455440939002564 -47.79644803579834 -48.01705649593463 -46.70216815855005 -48.05975019599078 -47.00584259214732 -47.94969040486991 -48.73860650917918
-47.04994527073231 -46.314174131453434 -45.98401437852462 -49.05563631792583 -47.12854986084491 -47.74558976729771 -47.65865886760376 -46.539679398139555
-46.53516066818674 -46.53091547597812 -48.61847877080676 -48.79824769327749 -51.32107471194044 -49.461160764351405 -47.67345706943496 -47.04370590109007
-47.04475062518236 -47.3457239204493 -47.7834196847685 -46.49423609234023 -46.36193182583972 -46.64943577261458 -46.25275447287487 -46.89702744439171
