chains/ch143_217_353_EE_B80.npz (npz, 897880 bytes, 3 tensors)

chain f8 [16000, 5]
000000 2c 3e 0a 8a d2 06 a8 3f 38 ce 44 c2 ca 3e f8 3f
       0.04692705092486124 1.5153300846694844
000010 98 ff bb f2 a8 64 03 c0 3c 88 76 0e 6f 17 ef 3f
       -2.424150368082291 0.9716105730515276
000020 e1 83 35 ca dd 37 f0 3f 6b 33 10 54 5c a4 a4 3f
       1.013639249686314 0.040316472303038996
000030 74 6a 83 3d 1b 92 f8 3f 2f ce 9c c2 ec 19 03 c0
       1.5356705096116032 -2.3876586155036175
000040 c9 31 5d 96 2b 54 ef 3f c5 56 6b 3f cb 6f f0 3f
       0.9790246903226542 1.0272934415165065
000050 04 44 af b8 60 91 a9 3f eb ba 00 03 84 e4 f8 3f
       0.04993726973010129 1.5557899586962616
000060 1f 2c 67 a2 60 ed 02 c0 f3 1e a7 88 c4 0b ef 3f
       -2.3659069717155172 0.9701864880562127
000070 c4 0c 5c 2f 07 5e f0 3f 94 21 fa 4f fe 84 aa 3f
       1.0229560708983607 0.05179590917856838
000080 8e 2e fc 08 ba 36 f7 3f 62 b7 16 ce 9f 48 03 c0
       1.450861010644903 -2.4104610539133526
000090 a7 ea 26 e3 54 50 ef 3f 2b a7 0b b6 f4 82 f0 3f
       0.9785561024248935 1.031971655955611
0000a0 9b e4 4d fa c5 6d aa 3f da 4f 1f a1 db 23 f7 3f
       0.051618754200668714 1.4462543767776794
0000b0 a2 07 52 2b 48 64 03 c0 f4 12 3c b0 63 06 ef 3f
       -2.42396577686391 0.9695299570163045
0000c0 45 e9 1e 7d 83 66 f0 3f f6 ab cb 10 3e c6 ac 3f
       1.0250277411965538 0.05619996981643986
0000d0 9c 79 aa 8f 0b 88 f7 3f 91 ea 92 25 2b 8d 03 c0
       1.4707141506147314 -2.4439299521885194
0000e0 a5 f0 40 a2 ad d6 ee 3f 54 a9 69 74 0c 5d f0 3f
       0.9637058419243841 1.0227169558880478
0000f0 19 85 22 73 9f 74 ad 3f 41 ac d4 6f 47 aa f7 3f
       0.05753038673834449 1.4790720337284855
000100 26 8c dc d6 74 24 03 c0 65 36 29 94 0c b1 ef 3f
       -2.3928009782844297 0.9903624433297408
000110 9e 41 6e ba d9 00 f0 3f d0 1d 7f 50 1c 97 aa 3f
       1.0002076418350963 0.05193413241027722
000120 d1 24 07 0d 01 9d f7 3f 70 25 82 3b ac 8f 03 c0
       1.4758310803320465 -2.445152726086853
000130 35 e0 76 0f 3d a2 ef 3f 40 c7 e8 ab 9d fa ef 3f
       0.988554506496263 0.9993427617648436
000140 82 bb e6 c2 e4 70 a8 3f 82 97 24 53 fd a4 f8 3f
       0.0477363098065018 1.5402806518336267
000150 54 48 ea 31 36 96 03 c0 2e 0f 17 c4 c2 99 ef 3f
       -2.44834555622314 0.9875196294674191
000160 09 09 c2 15 94 5a f0 3f a2 86 af 1e 1c 03 a5 3f
       1.0221138811035095 0.0410393512209002
000170 60 da 42 cb f3 1d f8 3f 85 f1 3e d4 66 21 03 c0
       1.507312578190657 -2.3913094121655285
000180 4d 66 ff e3 ee e8 ee 3f 20 97 d9 78 f5 42 f0 3f
       0.965934224422378 1.0163473816587114
000190 ea 44 02 a0 cf 4c a9 3f f2 b6 1e bc d5 62 f8 3f
       0.049414146692592656 1.5241296146809273
0001a0 0d c1 a0 b1 9a 12 03 c0 89 83 72 d3 08 d2 ee 3f
       -2.384084117620779 0.9631389741735897
0001b0 69 6c 89 74 b3 74 f0 3f 73 d5 d3 38 dd 1f ac 3f
       1.0284914543360861 0.054930604159305306
0001c0 1a c4 3f b5 10 59 f8 3f 4c 9e a3 fc dc f7 02 c0
       1.5217444496195243 -2.37102696775745
0001d0 bc 14 e5 05 13 0b ef 3f 31 26 77 2f 58 06 f0 3f
       0.9701018443235152 1.0015489439123366
0001e0 7d 45 c8 eb 48 ed a9 3f 10 da 1e a7 58 77 f8 3f
       0.0506384647197917 1.5291372802872765
0001f0 4c f3 a1 16 ad f2 02 c0 3f b5 1f c2 d1 4f ef 3f
       -2.368494202439626 0.9784935752374294
000200 77 0e b0 8f e4 3c f0 3f 3a 6c 87 c5 5a 45 ac 3f
       1.0148664105226126 0.055216633427072684
000210 fe c4 cb 90 7c e3 f7 3f 9b c4 07 73 b7 68 03 c0
       1.4930387168972739 -2.4261311518426516
000220 5f ca 31 ab da 17 ef 3f 06 06 a2 10 b3 61 f0 3f
       0.9716618865625825 1.0238524102900342
000230 7c 6f 4b d8 10 ca a8 3f 85 0f ef 7c 3f 7a f8 3f
       0.048416639712484305 1.5298457031467205
000240 f3 b6 5e 29 37 2c 03 c0 ef ae 60 53 da 1a ef 3f
       -2.396589587405168 0.9720279339284995
000250 b2 8b c0 29 6a 6a f0 3f ca 13 60 77 a8 d7 a9 3f
       1.0259801512663498 0.05047346551149408
000260 20 cc a3 78 50 96 f8 3f 72 9a 46 16 a1 31 03 c0
       1.5366978371137137 -2.3992330303474825
000270 61 f9 2a 6e f4 30 ef 3f c2 7d 9b 7b b9 1a f0 3f
       0.974725928470246 1.0065245464719372
000280 6c fe 05 51 60 ac ab 3f a3 b3 06 ef 86 6e f8 3f
       0.05404950131469097 1.5269841515503024
000290 4e 66 c1 f0 b5 1d 03 c0 04 6f 78 d2 4f e6 ee 3f
       -2.3895071801205523 0.9656142340422496
0002a0 8b 97 ae 6a 78 64 ef 3f af 67 2d d9 ef e0 a9 3f
       0.9810144504196939 0.050544257412823305
0002b0 39 e2 43 22 fc 9e f8 3f 0e 85 c6 35 a2 29 03 c0
       1.5388146723254421 -2.3953289223869723
0002c0 b5 97 5d 31 ba 43 ef 3f c4 b2 07 f6 bf e0 ef 3f
       0.9770174945995139 0.996185284163936
0002d0 e2 04 25 35 55 d0 ab 3f 1b d2 6a f6 a9 3c f8 3f
       0.054323828446749337 1.5148105264353322
0002e0 c6 35 f9 96 00 62 03 c0 ed 93 f4 29 76 33 ef 3f
       -2.4228526873400567 0.975031930870157
0002f0 13 ca 88 65 7f a3 ef 3f 5d 96 eb cb e9 43 aa 3f
       0.9887082083790254 0.05129938711415314
000300 dc bc 5f d9 5f e5 f7 3f 8d 73 1c 80 e7 67 03 c0
       1.4934996119662207 -2.42573452078654
000310 f1 12 d4 31 69 9c ee 3f c9 b6 da fd fe 16 f0 3f
       0.956593129464265 1.0056142727075204
000320 ec d0 43 a4 a6 56 a8 3f 31 88 40 ae d7 9c f8 3f
       0.04753609423815583 1.5382916266176034
000330 47 18 a9 df 47 71 03 c0 42 c1 d8 ee 30 a0 ee 3f
       -2.43031286940371 0.9570545830702388
000340 63 c2 a6 d0 88 41 f0 3f 12 5c ef b6 95 21 ac 3f
       1.0159996176190809 0.054943731862003756
000350 2f 92 12 06 e8 1a f8 3f 46 f2 e0 8d 92 ab 03 c0
       1.506568931313392 -2.458775623729056
000360 0e 53 3c 9d 71 96 ee 3f 40 4a 3f d9 b5 91 f0 3f
       0.9558647223480834 1.0355738149852556
000370 e3 9c dc 73 79 ed a8 3f a1 3d 43 6a 74 e6 f8 3f
       0.048686786073000275 1.5562633658299563
000380 64 78 0c e8 a9 06 03 c0 30 ec c3 06 73 a7 ee 3f
       -2.3782537583165766 0.9579405910620888
000390 5e a7 98 f3 a4 23 f0 3f f4 f5 9b dc 65 01 aa 3f
       1.008702231929838 0.05079191511138595
0003a0 2b 5b 79 58 b1 15 f9 3f 48 b3 9f bd e5 37 03 c0
       1.5677960830705142 -2.402293664394538
0003b0 f7 6e 89 11 f9 b5 ee 3f 67 37 e0 b6 ea 12 f0 3f
       0.9597134916798201 1.0046183723056517
0003c0 82 b8 87 df 45 bd a5 3f a9 30 e8 bf c6 e9 f7 3f
       0.04245966294898641 1.4945743080489058
0003d0 9d 63 7b ce a4 2d 03 c0 40 d3 8d a3 d1 f9 ee 3f
       -2.39728699983648 0.9679954714216379
0003e0 ff 9f c9 d0 87 4d f0 3f 56 e3 49 17 ed 0e a9 3f
       1.0189283519521266 0.04894200238499617
0003f0 0b 95 2b a6 91 a2 f7 3f ee b9 43 c2 1e 75 03 c0
       1.477189683058273 -2.4321875740927146
000400 c6 ac 6b 31 ff 0f ef 3f f0 3b 31 69 46 31 f0 3f
       0.9707027402158921 1.0120300396990807
000410 5e f5 8a f0 73 45 a3 3f 0b 49 32 72 19 52 f8 3f
       0.03763925849259907 1.520043798522752
000420 38 cf 0b 8a f3 07 03 c0 98 48 05 82 42 0d ef 3f
       -2.378882482991596 0.9703686274972538
000430 df aa 84 96 76 49 f0 3f 0c 75 ab 68 65 27 a1 3f
       1.0179353599184464 0.03350369360644309
000440 89 dc e4 5e ed 11 f9 3f ba 99 81 08 09 88 03 c0
       1.566876764945649 -2.441423479514211
000450 c2 09 18 73 2d 1d ef 3f 24 ea 4e 6e 57 4c f0 3f
       0.9723117111137116 1.018638068095819
000460 a1 6b 84 54 c8 77 a8 3f 74 41 22 c0 16 fa f7 3f
       0.04778886825280116 1.498556852839184
000470 13 c2 a0 99 99 da 03 c0 cf 86 b6 c0 5e ba ee 3f
       -2.481738281458328 0.9602502597737955
000480 d1 bf 59 fa 05 19 f0 3f 44 e0 75 2d 8f 26 ad 3f
       1.0061092166251806 0.05693480901658224
000490 44 8d 58 52 2b 2a f8 3f 67 57 f0 9a c8 cb 03 c0
       1.5102952210080085 -2.4745037178608302
0004a0 42 3f 92 76 39 77 ee 3f ff fd 78 e2 11 42 f0 3f
       0.9520537677617329 1.0161303373896542
0004b0 5e 46 eb 71 3d 32 ab 3f 64 c0 a2 87 de 8d f8 3f
       0.05311767593015014 1.5346360491057789
0004c0 73 fe 48 f0 28 47 03 c0 8a 33 8a 04 47 a0 ee 3f
       -2.409746052959059 0.95706511389436
0004d0 8b b8 79 c0 48 86 f0 3f ea bc b0 20 69 54 ac 3f
       1.0327842253277904 0.05533150219013712
0004e0 17 2d 50 74 2c 25 f8 3f fb 9f 87 ca 19 fc 02 c0
       1.5090755980953128 -2.3730960676803057
0004f0 11 8c 1f 01 cc ee ee 3f c5 4f 29 bb 63 64 f0 3f
       0.9666500112474542 1.024509173487773
000500 98 60 70 65 64 99 a9 3f b1 44 60 79 5b 47 f8 3f
       0.04999841440457081 1.5174212208988076
000510 7e dc 47 af 80 23 03 c0 16 cb df d9 a5 df ee 3f
       -2.3923352903180435 0.9648007636409115
000520 f1 36 a6 06 ba 76 f0 3f 9a 4e 47 b3 89 f9 a5 3f
       1.0289860019433343 0.04291944802721766
000530 cd 9e 4d 09 a4 ab f7 3f d7 21 98 33 f3 1e 03 c0
       1.4794044841200276 -2.3901123076250133
000540 94 dd 8a 5a 19 29 ef 3f 28 2c 6d 3d b2 0d f1 3f
       0.9737669723898983 1.0658438109846973
000550 1c 20 00 78 df 7b a4 3f c4 5e 4d 5b 85 93 f7 3f
       0.04000757541513186 1.4735158506863835
000560 7b b3 82 d7 ce 3d 03 c0 82 71 3c 68 00 40 ef 3f
       -2.4051796757470902 0.9765626941548791
000570 87 0d 1c 49 ae f2 f0 3f 10 22 39 49 92 0e a6 3f
       1.059248242935469 0.0430799211868057
000580 0a 74 87 04 3e d6 f6 3f b5 17 48 ac 18 bb 03 c0
       1.427305238429883 -2.466355653715221
000590 df 32 64 0e bb 23 ef 3f 56 76 cb c4 ad b9 f0 3f
       0.9731116562921577 1.0453317343994022
0005a0 02 de c1 bf df 47 a8 3f 7b 31 c5 36 dc 95 f6 3f
       0.04742335525309828 1.4115869655098254
0005b0 e3 aa dd 2b 77 cf 03 c0 6d 8f 86 2a d7 20 ef 3f
       -2.4763015200636445 0.9727588491991647
0005c0 8d 58 75 74 7b 64 f0 3f f5 07 84 cd 9e 1a a7 3f
       1.0245317982822002 0.045124971949931515
0005d0 32 27 b7 e8 bc 50 f7 3f fc 1a a9 96 77 e4 03 c0
       1.457211407704062 -2.4865562219960093
0005e0 fb af 42 b6 7d dd ee 3f a5 c4 05 5c a6 61 f0 3f
       0.9645374831939074 1.0238402933721684
0005f0 e9 69 5b e5 20 72 a5 3f 86 fc 61 c6 66 96 f8 3f
       0.04188635635155775 1.5367191075636426
000600 3a 99 e3 49 89 f6 03 c0 f3 17 c5 e6 d1 95 ee 3f
       -2.4953790447790682 0.9557885653709931
000610 0d 52 f4 0e 26 50 f0 3f 94 af d2 89 45 24 a9 3f
       1.019567545333419 0.049104855608077674
000620 f1 2d a7 fb 5c cc f7 3f 25 19 d6 d7 50 38 03 c0
       1.4873933630177556 -2.4024979459965317
000630 51 be 1d 38 7e ed ee 3f ca 57 e3 50 ff 49 f0 3f
       0.9664908500689738 1.0180657539071825
000640 a0 bb 9e e9 88 85 ae 3f 38 92 4e 5f 29 a3 f7 3f
       0.05961253978545433 1.477334377567912
000650 b5 35 05 da 33 64 03 c0 66 4f c8 33 c3 c2 ee 3f
       -2.4239270241584685 0.9612747203232004
000660 21 20 e9 12 c4 3b f0 3f df a9 34 62 a7 18 ac 3f
       1.0145912874886636 0.0548755938892389
000670 91 6b b6 37 d5 dc f7 3f a5 24 51 0d 7f b8 03 c0
       1.491414277674924 -2.465086082495491
000680 b2 c5 8a 9f 96 75 ef 3f 46 af d5 2c be 67 f0 3f
       0.9831040493065102 1.0253278495174114
000690 4c 38 97 ef 50 12 a8 3f b4 f0 6a f7 04 1b f8 3f
       0.047014741179382286 1.5065965332751547
0006a0 0c 57 0d 4d a7 8e 03 c0 e9 60 cc 77 0b be ef 3f
       -2.4446550388046315 0.9919488277255627
0006b0 56 79 14 de 86 51 f0 3f 54 e8 a0 ce 7f 83 a6 3f
       1.0199040102957802 0.04397200963326556
0006c0 80 a0 4e 63 bd 9b f7 3f d3 64 45 d0 6a 6e 03 c0
       1.475522411268713 -2.428914668195469
0006d0 30 a9 a3 40 5f b0 ef 3f e0 88 bd 25 c0 63 f0 3f
       0.9902797949301085 1.0243531679375835
0006e0 a8 c1 f3 43 4c 5a a7 3f c6 cc 13 91 3d 11 f8 3f
       0.045610793394988136 1.5042091052135205
0006f0 11 74 82 c6 5f ec 03 c0 c7 a7 bc cf 46 bf ef 3f
       -2.4904170521317686 0.9920991952287687
000700 96 07 0a 23 86 58 f0 3f d4 99 46 13 ed 8c a4 3f
       1.0216122978895092 0.04013768062877757
000710 5e e1 b2 61 f3 18 f7 3f 84 ec c8 ab 80 bc 03 c0
       1.4435914818150972 -2.467042295521937
000720 89 8e 58 0c 69 5e ef 3f cd 79 83 6a 50 ad f0 3f
       0.9802747002726885 1.0423130188643086
000730 ac 70 86 1a 83 8a a5 3f 13 b7 b2 18 31 5b f8 3f
       0.042072388637479946 1.5222636189241185
000740 ad 02 b0 16 61 ee 03 c0 6a 44 74 7b 76 3f ef 3f
       -2.4913961193527343 0.9764969264234769
000750 12 73 3d 7e ba d7 f0 3f 56 e9 c7 f7 d8 f2 a7 3f
       1.052668088078637 0.046774654623691944
000760 1c d9 c0 47 ee 62 f7 3f b9 cb 89 e2 89 df 03 c0
       1.4616530230392248 -2.4841497133542956
000770 58 7a 21 23 13 b8 ef 3f ed f7 13 9e 58 a9 f0 3f
       0.9912200628421699 1.0413442778512902
000780 75 51 2b 02 5c 1a a9 3f 39 95 a2 6d 46 f9 f6 3f
       0.049029231324001644 1.4358581812496836
000790 7f bb 7a 32 cd 94 03 c0 0f eb e7 82 87 c2 ef 3f
       -2.4476570075707396 0.9924962574726538
0007a0 74 99 5d bd f5 4e f0 3f 74 4e 7e 6a d2 02 a8 3f
       1.0192773243994369 0.04689652967422556
0007b0 33 54 d9 ea 39 4c f7 3f c8 ce 93 ce cf 83 03 c0
       1.4561099218165168 -2.4393612040383665
0007c0 d6 22 10 a0 0e d0 ef 3f 67 1b 8d 32 9a 8a f0 3f
       0.9941475988608441 1.0338384604126192
0007d0 af 66 68 3b cb a8 a4 3f b6 aa b5 b2 b5 75 f8 3f
       0.04035029506867482 1.528737733921543
0007e0 8d 39 b7 33 58 91 03 c0 b9 98 79 e4 27 d6 ef 3f
       -2.4459690132418417 0.9948920690919955
0007f0 f4 c7 db 74 d2 bb f0 3f fe 5d 1c 91 95 51 a4 3f
       1.0458550038133554 0.03968493839618857

weight f8 [16000]
000000 00 00 00 00 00 00 3d 40 00 00 00 00 00 00 08 40
       29.0 3.0
000010 00 00 00 00 00 00 10 40 00 00 00 00 00 00 20 40
       4.0 8.0
000020 00 00 00 00 00 00 00 40 00 00 00 00 00 00 f0 3f
       2.0 1.0
000030 00 00 00 00 00 00 10 40 00 00 00 00 00 00 f0 3f
       4.0 1.0
000040 00 00 00 00 00 00 08 40 00 00 00 00 00 00 08 40
       3.0 3.0
000050 00 00 00 00 00 00 14 40 00 00 00 00 00 00 08 40
       5.0 3.0
000060 00 00 00 00 00 00 f0 3f 00 00 00 00 00 00 14 40
       1.0 5.0
000070 00 00 00 00 00 00 18 40 00 00 00 00 00 00 00 40
       6.0 2.0
000080 00 00 00 00 00 00 2e 40 00 00 00 00 00 00 08 40
       15.0 3.0
000090 00 00 00 00 00 00 14 40 00 00 00 00 00 00 2c 40
       5.0 14.0
0000a0 00 00 00 00 00 00 f0 3f 00 00 00 00 00 00 00 40
       1.0 2.0
0000b0 00 00 00 00 00 00 00 40 00 00 00 00 00 00 f0 3f
       2.0 1.0
0000c0 00 00 00 00 00 00 1c 40 00 00 00 00 00 00 20 40
       7.0 8.0
0000d0 00 00 00 00 00 00 08 40 00 00 00 00 00 00 08 40
       3.0 3.0
0000e0 00 00 00 00 00 00 00 40 00 00 00 00 00 00 18 40
       2.0 6.0
0000f0 00 00 00 00 00 00 00 40 00 00 00 00 00 00 00 40
       2.0 2.0
000100 00 00 00 00 00 00 24 40 00 00 00 00 00 00 f0 3f
       10.0 1.0
000110 00 00 00 00 00 00 18 40 00 00 00 00 00 00 f0 3f
       6.0 1.0
000120 00 00 00 00 00 00 22 40 00 00 00 00 00 00 08 40
       9.0 3.0
000130 00 00 00 00 00 00 22 40 00 00 00 00 00 00 1c 40
       9.0 7.0
000140 00 00 00 00 00 00 08 40 00 00 00 00 00 00 10 40
       3.0 4.0
000150 00 00 00 00 00 00 28 40 00 00 00 00 00 00 f0 3f
       12.0 1.0
000160 00 00 00 00 00 00 f0 3f 00 00 00 00 00 00 f0 3f
       1.0 1.0
000170 00 00 00 00 00 00 f0 3f 00 00 00 00 00 00 00 40
       1.0 2.0
000180 00 00 00 00 00 00 f0 3f 00 00 00 00 00 00 f0 3f
       1.0 1.0
000190 00 00 00 00 00 00 f0 3f 00 00 00 00 00 00 f0 3f
       1.0 1.0
0001a0 00 00 00 00 00 00 08 40 00 00 00 00 00 00 10 40
       3.0 4.0
0001b0 00 00 00 00 00 00 00 40 00 00 00 00 00 00 00 40
       2.0 2.0
0001c0 00 00 00 00 00 00 f0 3f 00 00 00 00 00 00 00 40
       1.0 2.0
0001d0 00 00 00 00 00 00 08 40 00 00 00 00 00 00 08 40
       3.0 3.0
0001e0 00 00 00 00 00 00 f0 3f 00 00 00 00 00 00 f0 3f
       1.0 1.0
0001f0 00 00 00 00 00 00 f0 3f 00 00 00 00 00 00 f0 3f
       1.0 1.0
000200 00 00 00 00 00 00 08 40 00 00 00 00 00 00 00 40
       3.0 2.0
000210 00 00 00 00 00 00 f0 3f 00 00 00 00 00 00 10 40
       1.0 4.0
000220 00 00 00 00 00 00 08 40 00 00 00 00 00 00 18 40
       3.0 6.0
000230 00 00 00 00 00 00 10 40 00 00 00 00 00 00 10 40
       4.0 4.0
000240 00 00 00 00 00 00 10 40 00 00 00 00 00 00 24 40
       4.0 10.0
000250 00 00 00 00 00 00 f0 3f 00 00 00 00 00 00 f0 3f
       1.0 1.0
000260 00 00 00 00 00 00 24 40 00 00 00 00 00 00 f0 3f
       10.0 1.0
000270 00 00 00 00 00 00 18 40 00 00 00 00 00 00 24 40
       6.0 10.0
000280 00 00 00 00 00 00 f0 3f 00 00 00 00 00 00 08 40
       1.0 3.0
000290 00 00 00 00 00 00 f0 3f 00 00 00 00 00 00 f0 3f
       1.0 1.0
0002a0 00 00 00 00 00 00 f0 3f 00 00 00 00 00 00 18 40
       1.0 6.0
0002b0 00 00 00 00 00 00 2e 40 00 00 00 00 00 00 22 40
       15.0 9.0
0002c0 00 00 00 00 00 00 22 40 00 00 00 00 00 00 00 40
       9.0 2.0
0002d0 00 00 00 00 00 00 20 40 00 00 00 00 00 00 00 40
       8.0 2.0
0002e0 00 00 00 00 00 00 f0 3f 00 00 00 00 00 00 f0 3f
       1.0 1.0
0002f0 00 00 00 00 00 00 10 40 00 00 00 00 00 00 10 40
       4.0 4.0
000300 00 00 00 00 00 00 f0 3f 00 00 00 00 00 00 f0 3f
       1.0 1.0
000310 00 00 00 00 00 00 08 40 00 00 00 00 00 00 14 40
       3.0 5.0
000320 00 00 00 00 00 00 1c 40 00 00 00 00 00 00 00 40
       7.0 2.0
000330 00 00 00 00 00 00 f0 3f 00 00 00 00 00 00 f0 3f
       1.0 1.0
000340 00 00 00 00 00 00 00 40 00 00 00 00 00 00 08 40
       2.0 3.0
000350 00 00 00 00 00 00 10 40 00 00 00 00 00 00 00 40
       4.0 2.0
000360 00 00 00 00 00 00 00 40 00 00 00 00 00 00 f0 3f
       2.0 1.0
000370 00 00 00 00 00 00 00 40 00 00 00 00 00 00 18 40
       2.0 6.0
000380 00 00 00 00 00 00 08 40 00 00 00 00 00 00 18 40
       3.0 6.0
000390 00 00 00 00 00 00 20 40 00 00 00 00 00 00 14 40
       8.0 5.0
0003a0 00 00 00 00 00 00 18 40 00 00 00 00 00 00 f0 3f
       6.0 1.0
0003b0 00 00 00 00 00 00 14 40 00 00 00 00 00 00 f0 3f
       5.0 1.0
0003c0 00 00 00 00 00 00 18 40 00 00 00 00 00 00 f0 3f
       6.0 1.0
0003d0 00 00 00 00 00 00 f0 3f 00 00 00 00 00 00 14 40
       1.0 5.0
0003e0 00 00 00 00 00 00 f0 3f 00 00 00 00 00 00 18 40
       1.0 6.0
0003f0 00 00 00 00 00 00 f0 3f 00 00 00 00 00 00 f0 3f
       1.0 1.0
000400 00 00 00 00 00 00 20 40 00 00 00 00 00 00 1c 40
       8.0 7.0
000410 00 00 00 00 00 00 20 40 00 00 00 00 00 00 14 40
       8.0 5.0
000420 00 00 00 00 00 00 10 40 00 00 00 00 00 00 08 40
       4.0 3.0
000430 00 00 00 00 00 00 10 40 00 00 00 00 00 00 f0 3f
       4.0 1.0
000440 00 00 00 00 00 00 00 40 00 00 00 00 00 00 10 40
       2.0 4.0
000450 00 00 00 00 00 00 18 40 00 00 00 00 00 00 08 40
       6.0 3.0
000460 00 00 00 00 00 00 00 40 00 00 00 00 00 00 f0 3f
       2.0 1.0
000470 00 00 00 00 00 00 14 40 00 00 00 00 00 00 00 40
       5.0 2.0
000480 00 00 00 00 00 00 08 40 00 00 00 00 00 00 22 40
       3.0 9.0
000490 00 00 00 00 00 00 08 40 00 00 00 00 00 00 00 40
       3.0 2.0
0004a0 00 00 00 00 00 00 00 40 00 00 00 00 00 00 08 40
       2.0 3.0
0004b0 00 00 00 00 00 00 18 40 00 00 00 00 00 00 00 40
       6.0 2.0
0004c0 00 00 00 00 00 00 00 40 00 00 00 00 00 00 10 40
       2.0 4.0
0004d0 00 00 00 00 00 00 00 40 00 00 00 00 00 00 f0 3f
       2.0 1.0
0004e0 00 00 00 00 00 00 14 40 00 00 00 00 00 00 f0 3f
       5.0 1.0
0004f0 00 00 00 00 00 00 00 40 00 00 00 00 00 00 f0 3f
       2.0 1.0
000500 00 00 00 00 00 00 00 40 00 00 00 00 00 00 f0 3f
       2.0 1.0
000510 00 00 00 00 00 00 f0 3f 00 00 00 00 00 00 10 40
       1.0 4.0
000520 00 00 00 00 00 00 00 40 00 00 00 00 00 00 00 40
       2.0 2.0
000530 00 00 00 00 00 00 f0 3f 00 00 00 00 00 00 20 40
       1.0 8.0
000540 00 00 00 00 00 00 00 40 00 00 00 00 00 00 00 40
       2.0 2.0
000550 00 00 00 00 00 00 08 40 00 00 00 00 00 00 f0 3f
       3.0 1.0
000560 00 00 00 00 00 00 08 40 00 00 00 00 00 00 10 40
       3.0 4.0
000570 00 00 00 00 00 00 14 40 00 00 00 00 00 00 18 40
       5.0 6.0
000580 00 00 00 00 00 00 f0 3f 00 00 00 00 00 00 1c 40
       1.0 7.0
000590 00 00 00 00 00 00 20 40 00 00 00 00 00 00 14 40
       8.0 5.0
0005a0 00 00 00 00 00 00 00 40 00 00 00 00 00 00 14 40
       2.0 5.0
0005b0 00 00 00 00 00 00 08 40 00 00 00 00 00 00 f0 3f
       3.0 1.0
0005c0 00 00 00 00 00 00 00 40 00 00 00 00 00 00 f0 3f
       2.0 1.0
0005d0 00 00 00 00 00 00 08 40 00 00 00 00 00 00 00 40
       3.0 2.0
0005e0 00 00 00 00 00 00 f0 3f 00 00 00 00 00 00 f0 3f
       1.0 1.0
0005f0 00 00 00 00 00 00 f0 3f 00 00 00 00 00 00 10 40
       1.0 4.0
000600 00 00 00 00 00 00 f0 3f 00 00 00 00 00 00 20 40
       1.0 8.0
000610 00 00 00 00 00 00 08 40 00 00 00 00 00 00 f0 3f
       3.0 1.0
000620 00 00 00 00 00 00 1c 40 00 00 00 00 00 00 08 40
       7.0 3.0
000630 00 00 00 00 00 00 08 40 00 00 00 00 00 00 26 40
       3.0 11.0
000640 00 00 00 00 00 00 f0 3f 00 00 00 00 00 00 00 40
       1.0 2.0
000650 00 00 00 00 00 00 00 40 00 00 00 00 00 00 08 40
       2.0 3.0
000660 00 00 00 00 00 00 00 40 00 00 00 00 00 00 1c 40
       2.0 7.0
000670 00 00 00 00 00 00 20 40 00 00 00 00 00 00 f0 3f
       8.0 1.0
000680 00 00 00 00 00 00 00 40 00 00 00 00 00 00 00 40
       2.0 2.0
000690 00 00 00 00 00 00 00 40 00 00 00 00 00 00 f0 3f
       2.0 1.0
0006a0 00 00 00 00 00 00 f0 3f 00 00 00 00 00 00 f0 3f
       1.0 1.0
0006b0 00 00 00 00 00 00 00 40 00 00 00 00 00 00 08 40
       2.0 3.0
0006c0 00 00 00 00 00 00 14 40 00 00 00 00 00 00 1c 40
       5.0 7.0
0006d0 00 00 00 00 00 00 f0 3f 00 00 00 00 00 00 10 40
       1.0 4.0
0006e0 00 00 00 00 00 00 14 40 00 00 00 00 00 00 f0 3f
       5.0 1.0
0006f0 00 00 00 00 00 00 f0 3f 00 00 00 00 00 00 08 40
       1.0 3.0
000700 00 00 00 00 00 00 1c 40 00 00 00 00 00 00 f0 3f
       7.0 1.0
000710 00 00 00 00 00 00 f0 3f 00 00 00 00 00 00 00 40
       1.0 2.0
000720 00 00 00 00 00 00 f0 3f 00 00 00 00 00 00 00 40
       1.0 2.0
000730 00 00 00 00 00 00 14 40 00 00 00 00 00 00 08 40
       5.0 3.0
000740 00 00 00 00 00 00 18 40 00 00 00 00 00 00 00 40
       6.0 2.0
000750 00 00 00 00 00 00 00 40 00 00 00 00 00 00 20 40
       2.0 8.0
000760 00 00 00 00 00 00 f0 3f 00 00 00 00 00 00 08 40
       1.0 3.0
000770 00 00 00 00 00 00 f0 3f 00 00 00 00 00 00 00 40
       1.0 2.0
000780 00 00 00 00 00 00 00 40 00 00 00 00 00 00 14 40
       2.0 5.0
000790 00 00 00 00 00 00 f0 3f 00 00 00 00 00 00 08 40
       1.0 3.0
0007a0 00 00 00 00 00 00 10 40 00 00 00 00 00 00 10 40
       4.0 4.0
0007b0 00 00 00 00 00 00 14 40 00 00 00 00 00 00 f0 3f
       5.0 1.0
0007c0 00 00 00 00 00 00 00 40 00 00 00 00 00 00 f0 3f
       2.0 1.0
0007d0 00 00 00 00 00 00 08 40 00 00 00 00 00 00 00 40
       3.0 2.0
0007e0 00 00 00 00 00 00 00 40 00 00 00 00 00 00 10 40
       2.0 4.0
0007f0 00 00 00 00 00 00 00 40 00 00 00 00 00 00 f0 3f
       2.0 1.0

lkl f8 [16000]
000000 ab c8 4a 4f 47 46 3e c0 9e 1f dc 31 82 75 3f c0
       -30.27452560020235 -31.459017864457216
000010 f6 76 28 34 d4 2b 40 c0 91 68 55 ec 1e 1d 40 c0
       -32.3424134442884 -32.2275062005075
000020 ad 7a 06 72 18 f8 3f c0 97 93 52 0c 62 6a 3f c0
       -31.96912300737556 -31.415558595810207
000030 5e 38 5a 7f 20 a4 40 c0 25 2e f0 16 03 32 40 c0
       -33.28224174409182 -32.39071928718139
000040 98 55 5c 0b 39 90 3f c0 32 6d e0 fb 5f 86 3f c0
       -31.56337042812592 -31.524902097980153
000050 94 bd 57 f0 2a 62 3f c0 ec 0d ff 7e 7d d4 3f c0
       -31.383467694684057 -31.83003991820253
000060 0f 5e 33 8d 62 aa 3f c0 31 cc c5 f2 40 bf 3e c0
       -31.665566277542947 -30.747084782877383
000070 fc ad 7f 71 79 b4 3e c0 ee ca 1d a5 86 b7 3e c0
       -30.70497807852915 -30.716898269437415
000080 16 ec 72 e9 9b 3b 40 c0 9c 30 44 cf 7c 44 3f c0
       -32.465695553888665 -31.267529443881912
000090 aa f4 b4 f4 06 4f 3f c0 39 39 23 f9 8f 76 3f c0
       -31.308699888399737 -31.463134356593603
0000a0 ac c4 3a 43 e1 52 3f c0 a9 71 76 0c ce 42 40 c0
       -31.323749734733312 -32.52191310676
0000b0 8c 25 81 d9 91 1a 40 c0 90 3d e1 ab 6a 0b 40 c0
       -32.20757597738256 -32.089192852955534
0000c0 72 66 3b 7a 6e 4f 3f c0 f0 8e 1a 4b 4f e3 3e c0
       -31.31027950239372 -30.887928670867893
0000d0 7b 01 c0 27 9a 0c 40 c0 7f a2 9d 92 26 b3 40 c0
       -32.0984544456032 -33.399614645929425
0000e0 3d 41 e2 45 0a 4c 40 c0 86 78 53 01 72 63 40 c0
       -32.59406350658035 -32.77691666198466
0000f0 54 fd 5c 64 13 1c 40 c0 d1 e4 d1 5f de 03 40 c0
       -32.21934179821497 -32.03022382496568
000100 d8 9c 71 10 eb 16 3f c0 d2 7b 5b f6 35 80 41 c0
       -31.089524295556515 -35.00164679972626
000110 da 78 a9 60 94 44 41 c0 03 92 86 4a 8a f1 41 c0
       -34.53577812457088 -35.88703280993288
000120 1c c2 e4 96 62 da 41 c0 6e 1b ba 60 ed 07 41 c0
       -35.70613371057354 -34.061931696770316
000130 7b e5 91 2a 8a 20 41 c0 3e e6 69 55 fb c1 3e c0
       -34.25421650050972 -30.757741297106115
000140 cb 6f 48 84 90 87 3f c0 ac fd 9c ce 5f be 3f c0
       -31.529548900303592 -31.743649400070055
000150 6e 05 ce 48 bd 00 40 c0 66 67 0a a9 02 4c 40 c0
       -32.005776501270574 -32.59383118637088
000160 77 81 1a b1 a5 c1 40 c0 41 37 d4 24 da b8 41 c0
       -33.512869012777564 -35.44415722238637
000170 80 c1 40 d1 e2 16 41 c0 96 83 3d 0f bb 79 41 c0
       -34.17879691755206 -34.95102110389341
000180 b6 0b a8 a3 f8 33 41 c0 97 2c df 1a 90 07 41 c0
       -34.406025368741595 -34.059085234615104
000190 8c d1 77 67 20 0a 41 c0 c8 c0 3c bb 6a aa 40 c0
       -34.07911389685168 -33.33138218370874
0001a0 60 47 fc 6d 54 f8 40 c0 54 94 e4 8b 33 8c 40 c0
       -33.940076587851536 -33.0953230730162
0001b0 b7 26 8b c3 d6 7a 40 c0 5d 29 e3 6c bc 92 40 c0
       -32.95967907232755 -33.14637528507112
0001c0 9a 90 07 e2 4c 92 40 c0 a0 23 4f 86 8c 3b 40 c0
       -33.142971280759596 -32.46522597183434
0001d0 4a c7 7c 86 6a 74 40 c0 66 9b 59 4c 0d ef 40 c0
       -32.909500895430554 -33.86759333014815
0001e0 d1 40 3e 0d 70 be 41 c0 d5 0e a6 36 fc 67 40 c0
       -35.487794547459664 -32.81238444431589
0001f0 2c 5a ad 94 1a 5d 41 c0 dc ea 7e d4 2a 86 3f c0
       -34.72737368072953 -31.524091034875582
000200 b8 38 90 46 5c 6e 3f c0 a6 39 24 47 de 6c 40 c0
       -31.431095514498082 -32.850533383071976
000210 a2 8f 2a 7b 08 37 40 c0 ba 95 6a 58 d2 92 3f c0
       -32.429946323186655 -31.57352211572809
000220 97 bf a4 54 d9 fe 3f c0 aa 48 5c 17 a6 ec 3e c0
       -31.9955037023752 -30.92440935137771
000230 c7 58 b4 4b fa 49 3f c0 94 0b 43 d3 87 8e 3f c0
       -31.28897545960424 -31.55676002871367
000240 be 92 4f 04 d3 0d 40 c0 7c bb 3f 7c ff 19 40 c0
       -32.1080022228757 -32.20310929405147
000250 62 47 61 47 88 3e 40 c0 f3 08 89 01 77 4a 40 c0
       -32.48853389978355 -32.58175677481804
000260 39 3c 60 d7 5a 01 40 c0 c3 8d 14 bf 9b 94 40 c0
       -32.01058475684153 -33.16100300315477
000270 a1 b7 60 52 ad 9d 40 c0 eb 43 bc 9b 48 95 40 c0
       -33.23185186121487 -33.166278330732744
000280 00 94 88 00 40 45 40 c0 14 14 a9 61 27 38 40 c0
       -32.541015688599146 -32.43870182758124
000290 c6 60 fd 95 4e 4f 3f c0 3e d4 fb ae 01 5c 3f c0
       -31.309792875633114 -31.359400688630778
0002a0 2b 0c 1c c0 ef dd 3f c0 97 77 f9 14 65 4e 40 c0
       -31.86693955120806 -32.61245977574361
0002b0 06 15 a2 38 8a 08 40 c0 bc b4 ba be 62 d1 3e c0
       -32.066718176976835 -30.81791297968151
0002c0 66 67 4d ed 97 a4 3f c0 f5 0b 37 da 76 0e 40 c0
       -31.64294322147125 -32.11300208747699
0002d0 e7 5c ad 17 d0 91 3f c0 fb 82 8c 6f e7 a1 3f c0
       -31.569581489396025 -31.632437679104424
0002e0 16 65 b1 eb 9c 6d 40 c0 b8 72 b3 a4 b6 8b 41 c0
       -32.85635133897647 -35.09151133310428
0002f0 10 ce d7 8b d8 9a 40 c0 a4 cc 35 9a d7 2b 3f c0
       -33.20973346745825 -31.171258581289877
000300 24 dd 1e 17 d8 41 40 c0 53 9b f5 ba a5 37 3f c0
       -32.51440705306075 -31.217372593844015
000310 5f 9c 34 3e 99 8a 3f c0 fa 53 18 61 aa 21 3f c0
       -31.54140080246395 -31.13150603145548
000320 b6 d0 1f fa 52 36 40 c0 5a 19 be cd 9f c7 3f c0
       -32.42440725854378 -31.779782160673996
000330 7a 32 01 71 50 40 42 c0 ca dc b8 16 96 33 40 c0
       -36.5024548774572 -32.40301784540641
000340 a6 d0 95 38 81 bc 40 c0 88 4a 92 0e e7 f1 40 c0
       -33.4726935130614 -33.88986379759905
000350 63 89 ce 1e 2f ea 41 c0 e8 d8 33 36 00 4e 41 c0
       -35.82956299862669 -34.60938146144491
000360 f8 83 35 14 ba 4a 41 c0 b6 1a b9 53 66 5e 41 c0
       -34.58380367863714 -34.73749777353571
000370 00 ab f5 83 4d 6d 42 c0 e5 a5 96 9a 9a 5a 42 c0
       -36.85392808433062 -36.707843135412794
000380 8c 31 b5 7d c7 6f 42 c0 70 eb 41 a8 01 06 42 c0
       -36.87327548358289 -36.04692557543501
000390 15 58 57 66 e5 10 42 c0 1a e3 ed 8b f8 d4 42 c0
       -36.13200072541091 -37.66383504024107
0003a0 4e 51 c5 62 d0 ac 41 c0 bd 2d 49 77 ac e2 41 c0
       -35.35010943064354 -35.77088824341943
0003b0 9e 3d 94 79 37 23 42 c0 41 93 0f d0 4b f4 42 c0
       -36.27513046015086 -37.908563621144374
0003c0 fe 19 be e0 a7 57 41 c0 ad 93 a5 56 73 fd 40 c0
       -34.68481072695066 -33.98008235058601
0003d0 46 4c 3b 3a 45 3e 41 c0 e7 49 7a 0a 6b 76 40 c0
       -34.486487654642175 -32.925141629897375
0003e0 fe c9 97 e9 5d 63 42 c0 0c 6d 97 de 09 69 42 c0
       -36.776303481212366 -36.820613693178615
0003f0 c6 be a0 23 9a a6 42 c0 6a f3 8f 1a a4 21 41 c0
       -37.301578954209205 -34.26282054928636
000400 48 fb b9 15 b4 fd 40 c0 8b 3e 24 ec d3 cc 40 c0
       -33.982058254062 -33.60021735925428
000410 c4 4f 43 49 8a 12 40 c0 6a 80 ad 38 d5 29 40 c0
       -32.144845159403786 -32.326819500653826
000420 72 02 08 5a 93 5b 40 c0 88 46 87 cb ec 0a 41 c0
       -32.71543431655017 -34.08535141091585
000430 eb 9c c9 71 74 ae 40 c0 b9 ab 91 e2 0c b7 3f c0
       -33.36292860359557 -31.715040360035093
000440 1c 93 aa 9e 4b 27 40 c0 39 a6 51 73 2a 95 3f c0
       -32.30699523285713 -31.582678992685235
000450 6a 80 cc bc ca 02 40 c0 82 4c 09 de 1a c7 3f c0
       -32.02181205735617 -31.777753712911824
000460 8e 18 49 a9 c6 0d 3f c0 ff f1 a7 63 a2 fd 3e c0
       -31.05381258043831 -30.99075911379077
000470 50 75 c8 c4 62 d4 3f c0 38 09 cf 92 5d 1b 40 c0
       -31.829632090511325 -32.213793135730555
000480 12 90 83 01 12 9d 40 c0 0a f2 76 73 3e 25 40 c0
       -33.22711199687923 -32.29096835430035
000490 95 93 83 13 cd b2 40 c0 36 fb 2f 9e 09 7d 40 c0
       -33.396883429762205 -32.976856015613905
0004a0 7e b6 68 66 b5 ed 3f c0 ca dd 9d a0 16 41 40 c0
       -31.928549194874442 -32.50850303371733
0004b0 23 73 df 1c 1a 3f 40 c0 f5 32 7c 32 0b 11 40 c0
       -32.49298439894326 -32.13315421165854
0004c0 bd 36 5f 1b 78 52 3f c0 21 22 9b 4d 93 f8 3f c0
       -31.322145186181604 -31.970997667669625
0004d0 f1 45 ee 85 a2 65 3e c0 b2 8f 4d 55 3b 4d 3f c0
       -30.397011156723185 -31.301686603008143
0004e0 e7 b6 bd 30 1e 9a 3f c0 39 c0 9c 2b 8a 26 41 c0
       -31.602023168866165 -34.30109162477351
0004f0 1d 4a a2 2e d5 d2 3f c0 9c 25 db a0 d4 77 40 c0
       -31.823565401669942 -32.93617640209706
000500 3e 60 ea 32 5a ae 3f c0 81 d8 5a c4 43 3f 40 c0
       -31.681063825817766 -32.49425558505846
000510 71 ac 55 cb 2a bf 40 c0 a7 ad d3 79 1f 76 40 c0
       -33.49349347766191 -32.922835567816314
000520 68 3b 3d fe 13 e3 3f c0 97 87 74 8b 4b 43 40 c0
       -31.88702382082866 -32.52574294271397
000530 db fd 13 55 a0 42 40 c0 2f 98 8a 66 39 13 40 c0
       -32.52051795459894 -32.15018922583874
000540 10 89 91 be a3 6f 40 c0 e8 e3 fb 58 bd 2c 40 c0
       -32.87218458276959 -32.34952842997865
000550 f4 7c a8 f6 74 5a 3f c0 84 bb 2f 10 45 ce 40 c0
       -31.353347221503057 -33.61148264246643
000560 f8 69 e0 6a 40 6e 41 c0 1f b8 53 81 dd ba 40 c0
       -34.86134086568558 -33.45988480174878
000570 88 e7 6a 99 d9 3a 40 c0 4d 84 a7 19 e9 5c 40 c0
       -32.459765603255676 -32.72586365394145
000580 c4 ba 69 37 c6 40 3f c0 84 6b 0b 4b 23 e3 3f c0
       -31.253024543106918 -31.887257280624468
000590 29 58 fc 40 9e 99 3f c0 d2 49 5d a5 a0 7e 3e c0
       -31.600071012122644 -30.494638762736777
0005a0 c6 30 0e f8 4e 93 3e c0 13 52 b0 b0 7d c9 3f c0
       -30.575423720802767 -31.787074130103132
0005b0 91 62 ab 61 87 1e 40 c0 b7 a0 f5 29 9f b3 40 c0
       -32.23850651615533 -33.4032947968821
0005c0 c0 01 15 f9 3e c7 40 c0 48 9e 79 3b a5 a4 40 c0
       -33.55660928273892 -33.286292490371636
0005d0 3e d8 60 05 28 a6 40 c0 9c bc e2 81 b8 b4 3f c0
       -33.298096344268274 -31.70594035897794
0005e0 97 63 73 97 fc 87 3f c0 9d 85 18 17 f8 97 40 c0
       -31.53119799201121 -33.18725861260757
0005f0 6e ed 5a 77 98 9e 40 c0 82 a1 93 49 c7 60 40 c0
       -33.239027900121854 -32.756081769071
000600 19 1f 7c d8 9a a8 3f c0 d6 9e bb bc 50 de 3f c0
       -31.65861275701818 -31.86841945248201
000610 ab 37 22 6a c3 dd 3f c0 3e 69 31 40 49 b9 3f c0
       -31.866263039926405 -31.723773967803247
000620 61 e6 0e a1 49 79 40 c0 1f 19 95 e1 5b d8 40 c0
       -32.94755948283706 -33.69030399112875
000630 0a ef b4 df 86 ce 40 c0 e2 15 ff 52 37 eb 40 c0
       -33.61349102339416 -33.83762586074205
000640 1b 2c e1 fe bc c5 40 c0 4d 09 de cd e4 af 41 c0
       -33.54483018870106 -35.37417004911058
000650 ab 3e d3 21 45 3b 41 c0 e1 72 6e b2 25 5b 40 c0
       -34.463047245165704 -32.71208792107587
000660 f6 11 48 1e 41 64 40 c0 16 8f 21 a0 b1 27 40 c0
       -32.783237252417095 -32.31010820044155
000670 40 2b 7c 77 23 20 40 c0 80 22 04 e8 87 43 41 c0
       -32.2510823589605 -34.52758503152745
000680 51 a4 e4 30 c6 98 40 c0 8d 76 56 4c 6c c7 40 c0
       -33.19354830898431 -33.55799249860602
000690 c3 a9 c7 43 fe 1d 3f c0 92 88 f7 2d 35 2a 40 c0
       -31.11716102242077 -32.32974791132541
0006a0 14 3c 48 fc ca b4 40 c0 a3 2a 07 7a 03 4e 40 c0
       -33.41244462515911 -32.609481099604885
0006b0 90 77 9b 52 11 13 40 c0 8b 55 bb 6b 29 88 3f c0
       -32.14896614638485 -31.531882031665685
0006c0 05 23 f0 cd 22 d2 3e c0 68 89 2b b2 06 09 3f c0
       -30.82084357369151 -31.035258422497833
0006d0 1b 2d 00 f0 0f 58 40 c0 b5 7c fb 68 de d8 3f c0
       -32.687986373983414 -31.847143708608844
0006e0 26 6b a9 63 4d 70 40 c0 b3 83 1f 07 5c 04 41 c0
       -32.87736173412695 -34.034058466327586
0006f0 af a9 c2 0e 4c 03 41 c0 95 77 53 73 7d aa 40 c0
       -34.025758595514496 -33.33195344520133
000700 fc 65 e1 cf 58 b5 3f c0 72 93 b3 68 fc d6 3e c0
       -31.708386414078618 -30.839788955537593
000710 d6 5f 43 ab d3 a7 40 c0 3e a4 62 0c 82 ad 40 c0
       -33.31114712514652 -33.355531261601286
000720 ac 27 84 fe 1a ff 40 c0 c9 cc 3e 27 68 69 41 c0
       -33.99301129773025 -34.823491006530794
000730 bc 30 2b ad 57 b3 41 c0 8a af fc c6 0e 61 41 c0
       -35.40111317261605 -34.75826346719903
000740 d9 d7 29 7c cd 28 41 c0 1b 7e f6 35 ad 3c 40 c0
       -34.31877090495227 -32.47403597389003
000750 9e 32 80 70 40 61 40 c0 cf 5c 16 43 11 e0 3f c0
       -32.75977903613715 -31.875263398131946
000760 7e 3f 90 63 e2 7c 40 c0 ac 3a 7a 94 89 b1 40 c0
       -32.97565884154663 -33.38701110809538
000770 65 0b e3 42 6b 21 41 c0 e8 ba 13 df 07 a6 42 c0
       -34.261085854398324 -37.29711521590599
000780 4f 2d e8 8d 56 f1 43 c0 d3 52 a8 75 c2 23 40 c0
       -39.88545392834441 -32.27937193602488
000790 12 3c 9a 83 7b 88 3f c0 b8 ad b6 ee a2 92 3e c0
       -31.533134675173706 -30.572798652266755
0007a0 96 d1 15 5c cd 62 3f c0 f2 b9 84 cd 70 d8 3e c0
       -31.385946040465193 -30.84547123422994
0007b0 5f ec bb 28 ce 01 3f c0 eb a9 36 ad 5b 90 41 c0
       -31.007051988486975 -35.127797748271256
0007c0 03 da 54 bb da 13 42 c0 15 61 fe bb 20 4d 41 c0
       -36.155112663680505 -34.602561473091704
0007d0 79 61 0e 7f 27 f9 40 c0 c9 49 ba 12 da 14 40 c0
       -33.94651783182321 -32.162905064545676
0007e0 cc 72 50 0d ef bd 3e c0 35 73 80 c0 1b f6 3f c0
       -30.741928894177178 -31.961360961303587
0007f0 d2 cb bb 0b c5 4b 40 c0 e7 93 d7 da d8 79 40 c0
       -32.59195086164222 -32.95193038488633
