chains/ch143_217_353_545LRG_NOCIB_B50.npz (npz, 578048 bytes, 3 tensors)

chain f8 [8000, 7]
00000000: 368f 8d70 02da 0740 639b 628b c992 ac40
00000010: d8ec af88 96a0 a040 468f a16f aff5 d440
00000020: c546 26cb 589b cd40 34d6 ef43 5945 0641
00000030: c8db 298e f0ee 4041 c8b6 dc30 1cc0 0740
00000040: d454 239d 1fec a940 7ed2 9cb1 cf36 a040
00000050: dd49 a1df 2afe d440 d041 6379 3d1e ce40
00000060: b4a1 c19c 1458 0641 2192 4f53 142f 4141
00000070: 3c0c 84f1 2779 0740 04b6 779e 618b ae40
00000080: 2a36 34fa f735 a140 ffcc 9ef9 2377 d540
00000090: db27 0f8d b854 ce40 9dec d09c f46f 0641
000000a0: 40ac ee61 4e44 4141 daa6 0501 1e16 0740
000000b0: 041d fc18 0478 b040 6e45 160d e7ae a140
000000c0: 0054 2f3d 5501 d640 bafd a924 57fe ce40
000000d0: e045 b97d bdac 0641 5bf6 2e11 a686 4141
000000e0: d0a1 72bd 4913 0740 dbfb 2af7 55cc ac40
000000f0: 1c91 84ff 317e a140 bdae 49c1 2899 d540
00000100: 8336 d56a 55a6 cf40 10b6 c4a5 a790 0641
00000110: 018c 2776 7692 4141 4477 1d97 ddea 0640
00000120: e8c3 f6ba 2b4f b040 b4c3 8a79 d1d3 a140
00000130: 58d4 d4b0 f944 d640 1f84 99a5 e3b6 cf40
00000140: 0e0f 954a ddaf 0641 4c9e a8a1 20a9 4141
00000150: 340c b8d6 5a36 0740 4ea6 ffa3 06fc ab40
00000160: dfb2 de4f d3a0 a140 0cee 136e 9cb3 d540
00000170: 3563 ba24 ef44 cf40 dda0 1b79 8886 0641
00000180: bf7c e03a 2c8c 4141 0c88 7b31 49d1 0640
00000190: e14e 6007 4680 af40 14e5 97af 1d2f a240
000001a0: e10d bfc3 1f73 d640 92fc 753b d590 cf40
000001b0: 9dcd ea17 11c9 0641 865b 8d41 aba3 4141
000001c0: f44e 7e71 f633 0740 b4a3 b349 f3b2 a940
000001d0: a24b 585b 579c a140 8185 190a 9da7 d540
000001e0: b5ab dd8a 32d1 ce40 e224 50a6 f998 0641
000001f0: 11bc abd0 7283 4141 6bb8 e9ab cc6c 0740
00000200: 48e9 2ced 3cba ab40 e253 a1af 1feb a140
00000210: 6342 1a82 afd3 d540 8ab9 b1f6 ec0f cf40
00000220: e62b cce3 b497 0641 a8cb e19f a875 4141
00000230: 28ed 374f 66a2 0740 8059 7c5c 8ff4 ac40
00000240: f829 4ff9 26c9 a140 84d2 ca69 7a2d d640
00000250: 5c9a a942 fff8 ce40 8317 aed1 6dae 0641
00000260: 1082 c651 766f 4141 a800 a299 19a9 0740
00000270: 4ac7 f487 3e91 b140 f3f3 210e cf97 a240
00000280: 205a 5f8a d4ff d640 4ebf 442b 7b4e cf40
00000290: a99d 8930 1edf 0641 2362 5ec6 897f 4141
000002a0: 4869 3e21 8ad4 0740 060e e6cd 571d ad40
000002b0: fcf7 6794 c326 a240 acd6 2a48 af34 d640
000002c0: bf48 420b 930f cf40 1cef 7d27 80c2 0641
000002d0: 683c 93c1 046f 4141 43ce bbb1 62d6 0740
000002e0: 1d57 1ae9 630b b240 3b86 6302 3beb a240
000002f0: e5d0 71d9 7b15 d740 6d65 2dc2 f465 cf40
00000300: c218 cd58 ead4 0641 70f3 4462 8d6f 4141
00000310: 4f74 4053 efe8 0740 8972 4319 7cee b040
00000320: ae53 67e7 f640 a240 6444 d014 6f69 d640
00000330: abd1 563c 6827 cf40 59ea 9556 678c 0641
00000340: e3bc 378e e24a 4141 ce0d 51ff b0a5 0740
00000350: 7340 74e6 ebf5 af40 7535 4628 da7b a240
00000360: 6524 7dba 1f69 d640 f276 b171 bc93 cf40
00000370: d4ad f8f4 53ad 0641 2690 12d2 206e 4141
00000380: 2f84 5170 8b82 0740 e93c 2aa7 2e29 a840
00000390: c329 2428 cda5 a140 4911 3ab5 cb79 d540
000003a0: 3d2b 33bc 2920 cf40 b9a8 368f 4d89 0641
000003b0: 091b ea7d 2664 4141 2f7a efc4 7028 0740
000003c0: 5904 be14 27e3 a940 44cb 0c03 d1c6 a140
000003d0: c1ae 1e04 bbf8 d540 bc63 cccd 8554 cf40
000003e0: c230 fe39 fc9e 0641 902f 27a1 5c87 4141
000003f0: 0f5f c5e7 c67a 0740 6778 6e40 f7d3 aa40
00000400: 2054 1462 a0c7 a140 2679 b56a 5bf4 d540
00000410: 37bb 6f36 2628 cf40 1daa ca84 9186 0641
00000420: 23b8 c5fc d466 4141 ca7d b912 3c8d 0740
00000430: dca5 cd0b f583 aa40 6bb7 9c97 ec05 a240
00000440: 4599 907c 4530 d640 93fa 34fa af61 cf40
00000450: 9d06 0640 f7c5 0641 7eb2 8f11 b295 4141
00000460: fd93 7806 df6d 0740 6a12 daea f741 a940
00000470: d331 5e12 b857 a140 b1c5 33f5 5901 d640
00000480: 3727 2da9 29b5 ce40 6355 f766 759e 0641
00000490: d948 b481 4c76 4141 aa6e 9c10 c9e7 0740
000004a0: de59 0a5e ef33 aa40 903a 5e26 f587 a140
000004b0: f636 934f 1b1e d640 5623 4216 9cba ce40
000004c0: d261 79f9 1c8d 0641 d96c a667 0f6c 4141
000004d0: 4f45 dfa1 aaf5 0740 4311 0351 ba12 a940
000004e0: 8980 d069 4349 a140 878f 323f 0bc7 d540
000004f0: 0a8b 567b ee57 ce40 6a09 2b7e 797b 0641
00000500: de7a a905 b155 4141 3c36 7cd9 e052 0740
00000510: d094 99f6 18d3 aa40 131e 02fc 6d1c a140
00000520: b70f 5ca9 2892 d540 5d7e e459 1a11 ce40
00000530: 4962 33ce 9d5b 0641 c8fc 44b6 c23e 4141
00000540: f478 843a 995b 0740 0952 00ed 235a ac40
00000550: e1ba 284e 97f2 a040 5e5b ac14 3d03 d640
00000560: d811 6793 6492 ce40 f24e 5b4f dead 0641
00000570: 1863 a8fa cb87 4141 8129 9f5f fe62 0740
00000580: 7e09 2e7b 78b5 aa40 dff7 628e ab13 a140
00000590: 6379 f01e 1dd1 d540 3154 2ad7 81c3 ce40
000005a0: 7289 84ea 4667 0641 f33d 3bcb 2c63 4141
000005b0: 252a 2d0c d39a 0740 d296 1602 0308 af40
000005c0: 5111 14bc ee4f a140 5493 1534 d32e d640
000005d0: 5e02 0390 38d5 ce40 c450 be7f f755 0641
000005e0: dfe2 2acb b53f 4141 4ff9 6b2b 2de3 0740
000005f0: 018e 20d2 0411 ab40 e1d0 e332 f3ab a040
00000600: 9ca9 fc20 65a7 d540 2834 d910 bb52 ce40
00000610: b683 d5f2 884d 0641 560c 4af1 6826 4141
00000620: ed33 7ffa 2827 0840 d584 e7d7 f79b a640
00000630: fb00 4d72 14fb a040 e5d5 31e4 dd23 d540
00000640: 0d54 7fb5 db7d ce40 8178 a8ca 1143 0641
00000650: 4ef6 2ae0 1814 4141 130f a5e3 e909 0840
00000660: 8186 10d3 56b3 a740 6448 d455 4227 a140
00000670: b6d3 8354 7d4b d540 e48c deda cdc4 ce40
00000680: dee2 8d41 e360 0641 aabc c3cc 1632 4141
00000690: 852e 7ab3 7413 0840 7a81 5c8b 0b3a aa40
000006a0: a92e 5894 d771 a140 76ae db39 82c7 d540
000006b0: 2547 f8fc 24fb ce40 d8ce 6c8f 439b 0641
000006c0: 9a24 c346 3866 4141 a223 2702 13e4 0740
000006d0: 8cd2 bb15 252b ae40 0c21 9e1e 40f6 a140
000006e0: 4dde fe39 d524 d640 feed c15a 1627 cf40
000006f0: 4128 4f84 1e9e 0641 a7e4 54ed 5d57 4141
00000700: d724 5390 ec13 0840 bbb6 5431 7b08 ae40
00000710: 7e9d df4f ed2c a240 ef16 88e5 51e0 d540
00000720: 0b4b 06ca 5209 cf40 2a34 674e 4345 0641
00000730: da3c 0eab 0f24 4141 5f7b 899f 0337 0840
00000740: a60c 58e6 242d af40 aef0 624a 4a39 a240
00000750: fbab 4894 2502 d640 470b ce0c a0ba ce40
00000760: 71cc 4c4f d43a 0641 e0f5 3ff8 b3fc 4041
00000770: b173 4759 49ce 0740 fa6b af48 f278 b440
00000780: 91c2 7374 88d7 a240 eee5 d732 d233 d740
00000790: 5181 dbe8 7968 cf40 bf74 24e5 a384 0641
000007a0: 5963 7828 8134 4141 4c8a 6a74 9c55 0740
000007b0: 8d64 7969 add8 b340 9adb 8aa2 02cb a240
000007c0: d084 1f63 8bd3 d640 90a2 2be0 e35a cf40
000007d0: dd80 e34f b483 0641 978d 9960 6d35 4141
000007e0: ade3 3d53 3b2d 0740 90f7 0629 b66d b340
000007f0: e83f a542 c99e a240 73d9 ca8a 22fb d640
2.9814499657822138 3657.393641549557 2128.294011590635 21462.74118842117 15158.693699631267 182443.158172296 2219489.1106524207 2.96880376981321
3318.061745742898 2075.405651951499 21496.669899294026 15420.48026695932 183042.57654119807 2252328.6508658086 2.9341582172797 3909.6906621370017
2202.984330779659 21980.56211061496 15529.441804785214 183806.57657036642 2263196.7650962174 2.885799415574053 4216.016006238064 2263.4512717208627
22533.331859428436 15868.680806397333 185751.68638853636 2297164.1342456765 2.8844179916961608 3686.1679013664666 2239.097652571405 22116.63679735245
16204.667322780244 184852.95594160305 2303212.9230818753 2.8646804624430917 4175.170821593121 2281.9091304172416 22803.90141793 16237.778491200936
185851.6614171196 2314817.2629583236 2.901540448657693 3582.012969960261 2256.412718734107 22222.44421861884 16009.868308351937 184529.0591347282
2299992.4599758084 2.8521903863738824 4032.1367750259674 2327.557980295862 22988.496322406343 16161.665877102208 186658.13667832027 2312022.512126389
2.900372397105338 3289.475171674474 2254.1706187813115 22174.453741436362 15778.394862850992 185119.2062075502 2295525.630240925 2.928124754972534
3549.1189970049636 2293.561886826982 22350.742315831023 15903.851278510661 185078.61122926994 2288465.249078233 2.9542967022840863 3706.280002485204
2276.5761208285076 22709.912707048017 15857.994221878405 185805.7273828351 2285292.638870485 2.957568359619547 4497.244262026457 2379.9044046983995
23551.320945585263 16028.962257951174 187363.77369998142 2293523.549755351 2.9787790867968944 3726.6714927570456 2323.381991623899 22738.73877974476
15903.148781095048 186448.01928316883 2285065.512305785 2.979680431884647 4619.390275617855 2421.6152525998455 23637.935146764754 16075.912175821804
187037.29335994093 2285338.7677292153 2.9887377265972996 4334.484760489905 2336.4822342195175 22949.735645357883 15950.81434140432 184716.91727812847
2266565.111075984 2.955904001866407 4090.9607426003145 2365.926088518167 22948.49575737528 16167.47221964176 185770.49461494258 2284609.6411915002
2.9387425207974256 3092.591119117675 2258.9006968785266 21991.182936207657 15936.326055904496 184617.69492847266 2279500.983706836 2.894746340330378
3313.576330125838 2275.4082263944747 22498.922126455935 16041.045342968653 185311.52831686108 2297529.2590083554 2.9349496943576763 3433.982913448522
2275.813248286504 22481.428387993154 15952.298536268629 184530.18983967687 2280873.9747839137 2.9439622366769287 3393.9786056771245 2306.962094209089
22721.085727834394 16067.374823210097 186558.90626149336 2304868.1371977916 2.9286480432078847 3232.9842136523703 2219.85951513632 22533.405590956743
15722.325475353382 185294.6752764388 2288793.013314348 2.9881764695872635 3353.967514346571 2243.978808350228 22648.42673187606 15733.219429270986
184739.62181354925 2283550.8097663936 2.994954361559088 3209.3638993223735 2212.6316666752723 22300.175732269443 15535.863138978853 184175.18660552363
2272098.0442346176 2.9154679289847802 3433.548756408134 2190.2148132955276 22088.63533689055 15394.205868303014 183155.72568394456 2260357.423980329
2.9197258540799513 3629.070167551054 2169.295518181622 22540.954386796213 15652.78574837085 185787.78874837566 2297751.958263766 2.9233367414901186
3418.735314787539 2185.835070698507 22340.455013388197 15751.014378825292 183528.86451060657 2279001.587745422 2.9505978537829542 3972.005875306998
2215.966278674234 22715.300053972125 15786.44189488998 182974.93737471674 2260843.5872462834 2.985925997955895 3464.5094156430573 2133.9749976341704
22173.580138364443 15525.461451673953 182705.11857130908 2247889.8850722713 3.0191211290425515 2893.9840690946244 2173.5399345458695 21647.46705289734
15611.71647636036 182370.2239541449 2238513.7513111 3.0048406395670866 3033.6695790447416 2195.629561075055 21805.95828338313 15753.6082418621
183324.4070089077 2253869.5997234182 3.009499933401289 3357.0225476177266 2232.921053653427 22302.034781380054 15862.28897002672 185192.4450317535
2280560.552830291 2.986364380664285 3861.5724314398303 2299.12523359445 22675.33166476926 15950.174644700248 185283.81460410546 2272955.854153234
3.009728553330756 3844.2406107399997 2326.4635000114204 22401.279634497067 15890.646790300982 182440.41328278306 2246687.336372 3.026862379439464
3990.572069884819 2332.6450987738417 22536.587175529432 15733.250390773303 182106.53872070045 2226535.939451918 2.975725839131393 5240.946421588766
2411.766513459683 23759.284353231946 16080.952418745177 184468.48688594063 2255106.3161739525 2.9168023200047966 5080.677390658425 2405.5051463501995
23374.177924995136 16053.780278639199 184438.539008147 2255578.7546860683 2.897085810018743 4973.71156352562 2383.393086589862 23532.53972121463

weight f8 [8000]
00000000: 0000 0000 0000 f03f 0000 0000 0000 0040
00000010: 0000 0000 0000 f03f 0000 0000 0000 1440
00000020: 0000 0000 0000 1440 0000 0000 0000 2040
00000030: 0000 0000 0000 0840 0000 0000 0000 0040
00000040: 0000 0000 0000 f03f 0000 0000 0000 1840
00000050: 0000 0000 0000 0840 0000 0000 0000 f03f
00000060: 0000 0000 0000 2a40 0000 0000 0000 0040
00000070: 0000 0000 0000 f03f 0000 0000 0000 1040
00000080: 0000 0000 0000 f03f 0000 0000 0000 1c40
00000090: 0000 0000 0000 0840 0000 0000 0000 0840
000000a0: 0000 0000 0000 0040 0000 0000 0000 f03f
000000b0: 0000 0000 0000 f03f 0000 0000 0000 0840
000000c0: 0000 0000 0000 1040 0000 0000 0000 f03f
000000d0: 0000 0000 0000 2e40 0000 0000 0000 0040
000000e0: 0000 0000 0000 0040 0000 0000 0000 0840
000000f0: 0000 0000 0000 0040 0000 0000 0000 1c40
00000100: 0000 0000 0000 0040 0000 0000 0000 f03f
00000110: 0000 0000 0000 f03f 0000 0000 0000 1440
00000120: 0000 0000 0000 0040 0000 0000 0000 1040
00000130: 0000 0000 0000 1c40 0000 0000 0000 2840
00000140: 0000 0000 0000 f03f 0000 0000 0000 1440
00000150: 0000 0000 0000 0840 0000 0000 0000 f03f
00000160: 0000 0000 0000 1c40 0000 0000 0000 0840
00000170: 0000 0000 0000 2a40 0000 0000 0000 1840
00000180: 0000 0000 0000 0040 0000 0000 0000 f03f
00000190: 0000 0000 0000 0040 0000 0000 0000 1040
000001a0: 0000 0000 0000 1840 0000 0000 0000 0040
000001b0: 0000 0000 0000 1040 0000 0000 0000 f03f
000001c0: 0000 0000 0000 f03f 0000 0000 0000 2440
000001d0: 0000 0000 0000 0840 0000 0000 0000 f03f
000001e0: 0000 0000 0000 f03f 0000 0000 0000 0840
000001f0: 0000 0000 0000 0840 0000 0000 0000 f03f
00000200: 0000 0000 0000 1840 0000 0000 0000 1040
00000210: 0000 0000 0000 0840 0000 0000 0000 f03f
00000220: 0000 0000 0000 0840 0000 0000 0000 0040
00000230: 0000 0000 0000 1c40 0000 0000 0000 0840
00000240: 0000 0000 0000 f03f 0000 0000 0000 0040
00000250: 0000 0000 0000 0840 0000 0000 0000 0040
00000260: 0000 0000 0000 0840 0000 0000 0000 1c40
00000270: 0000 0000 0000 0840 0000 0000 0000 f03f
00000280: 0000 0000 0000 0840 0000 0000 0000 0040
00000290: 0000 0000 0000 0840 0000 0000 0000 1440
000002a0: 0000 0000 0000 2440 0000 0000 0000 0840
000002b0: 0000 0000 0000 0040 0000 0000 0000 f03f
000002c0: 0000 0000 0000 f03f 0000 0000 0000 0040
000002d0: 0000 0000 0000 f03f 0000 0000 0000 f03f
000002e0: 0000 0000 0000 f03f 0000 0000 0000 0040
000002f0: 0000 0000 0000 2240 0000 0000 0000 0840
00000300: 0000 0000 0000 1440 0000 0000 0000 1440
00000310: 0000 0000 0000 0840 0000 0000 0000 2040
00000320: 0000 0000 0000 0040 0000 0000 0000 1c40
00000330: 0000 0000 0000 f03f 0000 0000 0000 0840
00000340: 0000 0000 0000 0040 0000 0000 0000 f03f
00000350: 0000 0000 0000 1040 0000 0000 0000 0040
00000360: 0000 0000 0000 1c40 0000 0000 0000 0840
00000370: 0000 0000 0000 1c40 0000 0000 0000 f03f
00000380: 0000 0000 0000 1440 0000 0000 0000 0040
00000390: 0000 0000 0000 1440 0000 0000 0000 0040
000003a0: 0000 0000 0000 f03f 0000 0000 0000 1040
000003b0: 0000 0000 0000 f03f 0000 0000 0000 f03f
000003c0: 0000 0000 0000 1040 0000 0000 0000 2240
000003d0: 0000 0000 0000 2440 0000 0000 0000 0040
000003e0: 0000 0000 0000 f03f 0000 0000 0000 0040
000003f0: 0000 0000 0000 0040 0000 0000 0000 2640
00000400: 0000 0000 0000 1440 0000 0000 0000 0840
00000410: 0000 0000 0000 f03f 0000 0000 0000 1440
00000420: 0000 0000 0000 0840 0000 0000 0000 1040
00000430: 0000 0000 0000 f03f 0000 0000 0000 1c40
00000440: 0000 0000 0000 0040 0000 0000 0000 0040
00000450: 0000 0000 0000 1040 0000 0000 0000 f03f
00000460: 0000 0000 0000 f03f 0000 0000 0000 f03f
00000470: 0000 0000 0000 1040 0000 0000 0000 f03f
00000480: 0000 0000 0000 0840 0000 0000 0000 1440
00000490: 0000 0000 0000 1840 0000 0000 0000 f03f
000004a0: 0000 0000 0000 0040 0000 0000 0000 0040
000004b0: 0000 0000 0000 0040 0000 0000 0000 1040
000004c0: 0000 0000 0000 1040 0000 0000 0000 1c40
000004d0: 0000 0000 0000 1040 0000 0000 0000 1040
000004e0: 0000 0000 0000 0840 0000 0000 0000 1840
000004f0: 0000 0000 0000 0040 0000 0000 0000 f03f
00000500: 0000 0000 0000 0840 0000 0000 0000 0040
00000510: 0000 0000 0000 1c40 0000 0000 0000 0840
00000520: 0000 0000 0000 1840 0000 0000 0000 1c40
00000530: 0000 0000 0000 1840 0000 0000 0000 1c40
00000540: 0000 0000 0000 f03f 0000 0000 0000 0040
00000550: 0000 0000 0000 0840 0000 0000 0000 f03f
00000560: 0000 0000 0000 f03f 0000 0000 0000 1040
00000570: 0000 0000 0000 0040 0000 0000 0000 1040
00000580: 0000 0000 0000 0840 0000 0000 0000 0840
00000590: 0000 0000 0000 0840 0000 0000 0000 2e40
000005a0: 0000 0000 0000 2040 0000 0000 0000 2040
000005b0: 0000 0000 0000 0040 0000 0000 0000 1040
000005c0: 0000 0000 0000 0840 0000 0000 0000 0040
000005d0: 0000 0000 0000 0840 0000 0000 0000 0840
000005e0: 0000 0000 0000 f03f 0000 0000 0000 1040
000005f0: 0000 0000 0000 0840 0000 0000 0000 f03f
00000600: 0000 0000 0000 1040 0000 0000 0000 f03f
00000610: 0000 0000 0000 2840 0000 0000 0000 2640
00000620: 0000 0000 0000 f03f 0000 0000 0000 f03f
00000630: 0000 0000 0000 1440 0000 0000 0000 0040
00000640: 0000 0000 0000 1440 0000 0000 0000 f03f
00000650: 0000 0000 0000 f03f 0000 0000 0000 f03f
00000660: 0000 0000 0000 0840 0000 0000 0000 0040
00000670: 0000 0000 0000 f03f 0000 0000 0000 0040
00000680: 0000 0000 0000 1440 0000 0000 0000 f03f
00000690: 0000 0000 0000 1440 0000 0000 0000 2040
000006a0: 0000 0000 0000 f03f 0000 0000 0000 0040
000006b0: 0000 0000 0000 0040 0000 0000 0000 1040
000006c0: 0000 0000 0000 1840 0000 0000 0000 f03f
000006d0: 0000 0000 0000 0040 0000 0000 0000 1840
000006e0: 0000 0000 0000 1840 0000 0000 0000 1440
000006f0: 0000 0000 0000 1840 0000 0000 0000 0840
00000700: 0000 0000 0000 f03f 0000 0000 0000 0040
00000710: 0000 0000 0000 0040 0000 0000 0000 f03f
00000720: 0000 0000 0000 1040 0000 0000 0000 f03f
00000730: 0000 0000 0000 1c40 0000 0000 0000 f03f
00000740: 0000 0000 0000 f03f 0000 0000 0000 0840
00000750: 0000 0000 0000 1440 0000 0000 0000 f03f
00000760: 0000 0000 0000 0840 0000 0000 0000 0040
00000770: 0000 0000 0000 1440 0000 0000 0000 f03f
00000780: 0000 0000 0000 f03f 0000 0000 0000 0040
00000790: 0000 0000 0000 f03f 0000 0000 0000 0040
000007a0: 0000 0000 0000 f03f 0000 0000 0000 1440
000007b0: 0000 0000 0000 2e40 0000 0000 0000 2e40
000007c0: 0000 0000 0000 1040 0000 0000 0000 1440
000007d0: 0000 0000 0000 f03f 0000 0000 0000 0040
000007e0: 0000 0000 0000 f03f 0000 0000 0000 2040
000007f0: 0000 0000 0000 f03f 0000 0000 0000 f03f
1.0 2.0 1.0 5.0 5.0 8.0 3.0 2.0
1.0 6.0 3.0 1.0 13.0 2.0 1.0 4.0
1.0 7.0 3.0 3.0 2.0 1.0 1.0 3.0
4.0 1.0 15.0 2.0 2.0 3.0 2.0 7.0
2.0 1.0 1.0 5.0 2.0 4.0 7.0 12.0
1.0 5.0 3.0 1.0 7.0 3.0 13.0 6.0
2.0 1.0 2.0 4.0 6.0 2.0 4.0 1.0
1.0 10.0 3.0 1.0 1.0 3.0 3.0 1.0
6.0 4.0 3.0 1.0 3.0 2.0 7.0 3.0
1.0 2.0 3.0 2.0 3.0 7.0 3.0 1.0
3.0 2.0 3.0 5.0 10.0 3.0 2.0 1.0
1.0 2.0 1.0 1.0 1.0 2.0 9.0 3.0
5.0 5.0 3.0 8.0 2.0 7.0 1.0 3.0
2.0 1.0 4.0 2.0 7.0 3.0 7.0 1.0
5.0 2.0 5.0 2.0 1.0 4.0 1.0 1.0
4.0 9.0 10.0 2.0 1.0 2.0 2.0 11.0
5.0 3.0 1.0 5.0 3.0 4.0 1.0 7.0
2.0 2.0 4.0 1.0 1.0 1.0 4.0 1.0
3.0 5.0 6.0 1.0 2.0 2.0 2.0 4.0
4.0 7.0 4.0 4.0 3.0 6.0 2.0 1.0
3.0 2.0 7.0 3.0 6.0 7.0 6.0 7.0
1.0 2.0 3.0 1.0 1.0 4.0 2.0 4.0
3.0 3.0 3.0 15.0 8.0 8.0 2.0 4.0
3.0 2.0 3.0 3.0 1.0 4.0 3.0 1.0
4.0 1.0 12.0 11.0 1.0 1.0 5.0 2.0
5.0 1.0 1.0 1.0 3.0 2.0 1.0 2.0
5.0 1.0 5.0 8.0 1.0 2.0 2.0 4.0
6.0 1.0 2.0 6.0 6.0 5.0 6.0 3.0
1.0 2.0 2.0 1.0 4.0 1.0 7.0 1.0
1.0 3.0 5.0 1.0 3.0 2.0 5.0 1.0
1.0 2.0 1.0 2.0 1.0 5.0 15.0 15.0
4.0 5.0 1.0 2.0 1.0 8.0 1.0 1.0

lkl f8 [8000]
00000000: b59f f96a db88 89c0 8780 56cc 4b4c 89c0
00000010: 4c4c a8db ac4a 89c0 5641 c3ec f93b 89c0
00000020: 0cb3 5d62 b83e 89c0 3dc3 17b8 4833 89c0
00000030: fc92 fae9 8c27 89c0 ba74 3825 6b25 89c0
00000040: b74e 18ff 5b25 89c0 2e72 36e4 b217 89c0
00000050: ca1b 7a28 3816 89c0 d724 3ff9 0424 89c0
00000060: d4f7 7728 6a22 89c0 aec0 a62d d62b 89c0
00000070: 3560 955c 8e18 89c0 c01e 7bbf 6b19 89c0
00000080: 9f66 cdbb 5819 89c0 b1eb 9318 421c 89c0
00000090: 0c6d 9a90 0713 89c0 b7c0 732d 9222 89c0
000000a0: 3ca8 30d1 292d 89c0 9fcc c960 8640 89c0
000000b0: d64f cf1d 9544 89c0 0f45 d970 2948 89c0
000000c0: 9522 6135 892e 89c0 4834 736a 6f25 89c0
000000d0: 874c d389 3e20 89c0 2b5f ba0a 362c 89c0
000000e0: 199d b2d0 0028 89c0 abd3 d0fc 2d1f 89c0
000000f0: d7ef 22c2 cf1f 89c0 bd51 9d64 a216 89c0
00000100: 2dc3 977d e121 89c0 b50a 2459 912d 89c0
00000110: 706c f137 d92d 89c0 d628 26d5 9a3f 89c0
00000120: bbf9 32f0 f62e 89c0 0508 546d 951b 89c0
00000130: ccb3 c1c5 dd1a 89c0 d675 beee c51f 89c0
00000140: 9bf3 3029 4020 89c0 a98d 7d40 2717 89c0
00000150: ab84 7c88 171e 89c0 dc02 66f1 f12b 89c0
00000160: 6a3b 3b45 d52d 89c0 df2a 9107 bf24 89c0
00000170: 0bc0 0fbe 9924 89c0 43db 5088 3424 89c0
00000180: 1660 9b45 5926 89c0 8d29 3670 9034 89c0
00000190: fb32 93b1 a731 89c0 5f8f 994b 7329 89c0
000001a0: e321 6bb4 5f33 89c0 f9e6 1501 4836 89c0
000001b0: 20f4 545d 3230 89c0 3b4f 3abf 6b36 89c0
000001c0: 4fb9 f94e 7c2d 89c0 17f4 43ea a84c 89c0
000001d0: 109e 9e47 9540 89c0 b5dd 7266 9f48 89c0
000001e0: 6999 a479 094a 89c0 7a97 4f15 1954 89c0
000001f0: 488f ea3d 6c3b 89c0 67d1 600f 4337 89c0
00000200: 5797 a070 b634 89c0 a5dd 3154 4e2a 89c0
00000210: 3ece a0d4 1130 89c0 7db9 fa3d e832 89c0
00000220: e8ed 5802 af40 89c0 c826 8c49 e645 89c0
00000230: 8e06 9182 3b46 89c0 ecd5 8d82 583d 89c0
00000240: 905f d70e ed45 89c0 26d9 90a9 3633 89c0
00000250: d93b 6147 1d20 89c0 c73a abd2 7736 89c0
00000260: 87ca 84d6 4027 89c0 5351 6a8b 0628 89c0
00000270: d87e d7dc b328 89c0 3f89 f6c7 1f28 89c0
00000280: 1cb0 ca3a 1638 89c0 635a d641 aa2e 89c0
00000290: bfee 86c7 853d 89c0 cae7 7702 0d40 89c0
000002a0: 903f d1ba ff3d 89c0 d550 a559 4132 89c0
000002b0: bb79 7617 3d3f 89c0 cad6 4ba8 d52b 89c0
000002c0: e7a4 6618 6831 89c0 4d91 fcae 4424 89c0
000002d0: 3bcc e21b 752c 89c0 3c5e be22 7f26 89c0
000002e0: 128b c7d6 ff24 89c0 4ee3 320c 261d 89c0
000002f0: b6b7 cc6a 9d22 89c0 8866 ff66 9524 89c0
00000300: bd84 0901 be11 89c0 90e5 dce9 3c15 89c0
00000310: 4e6e 9094 2e1c 89c0 ccae a51d c526 89c0
00000320: d34e 5dce 4925 89c0 4ada cc0a 9c38 89c0
00000330: edc6 f030 3e2a 89c0 febf a38c ae3a 89c0
00000340: a2d7 b4a8 fd41 89c0 37ef fa11 4d32 89c0
00000350: c4df 6e66 0e23 89c0 2fa4 5f8d 1324 89c0
00000360: 5a17 b0a4 3d25 89c0 d27d c5d5 0222 89c0
00000370: 08bd f007 8924 89c0 965c e77a 8223 89c0
00000380: 755c 5ffa fb1e 89c0 9cc3 948d d41f 89c0
00000390: 15b7 0169 5f1e 89c0 04a6 5209 1d18 89c0
000003a0: eb34 1695 842c 89c0 b65b fa38 374b 89c0
000003b0: 03f0 1855 6f47 89c0 d3b0 5279 8236 89c0
000003c0: 5f0e 027b 3227 89c0 6dc0 b7bc 1c15 89c0
000003d0: ec55 fb50 2418 89c0 251e e735 c52b 89c0
000003e0: bc2e 6057 4d27 89c0 4dc8 727f 122b 89c0
000003f0: 53f8 2e1a 9133 89c0 3bde 3a3a 622a 89c0
00000400: c125 3fce 892e 89c0 f945 10f8 f43e 89c0
00000410: df34 e7b8 ab54 89c0 c922 1873 0253 89c0
00000420: 5833 c66f 546e 89c0 d14b 38d6 045a 89c0
00000430: cce0 a1bc f042 89c0 4bf8 f90d 404a 89c0
00000440: 2c9a f9ad 2a4d 89c0 9e3e e303 0953 89c0
00000450: 78a9 1451 c253 89c0 01ff 696f 3549 89c0
00000460: 2c14 3ee9 1f47 89c0 97e5 7895 523c 89c0
00000470: a37e cd41 923a 89c0 1f2b a3b4 6439 89c0
00000480: b585 37e2 0f34 89c0 6b54 4aaf ce4a 89c0
00000490: c46b a053 253f 89c0 a6cb 19a4 d03a 89c0
000004a0: 25fc 3781 d13a 89c0 df79 9d6f 5c37 89c0
000004b0: 8c26 1b83 0e34 89c0 71fa 8c53 f521 89c0
000004c0: a662 cd66 681d 89c0 e4db 5048 151d 89c0
000004d0: 4675 af6b bf1c 89c0 caec 39f6 aa1d 89c0
000004e0: 13e6 238e bd2b 89c0 3cab be1d f93a 89c0
000004f0: c679 5106 2540 89c0 1600 5d5d 6628 89c0
00000500: 8e4c a8ef 952a 89c0 ad0e a10e 7124 89c0
00000510: cfe0 eadb 642a 89c0 0600 fad9 f826 89c0
00000520: 3c94 e03d d322 89c0 c219 2177 7b18 89c0
00000530: 554b e0f5 ec18 89c0 8379 e9c2 5619 89c0
00000540: a369 8a60 5e15 89c0 ae95 a727 9f17 89c0
00000550: 7007 333c 3617 89c0 b5ff d41e 9b25 89c0
00000560: ce18 e617 882b 89c0 7988 a4f7 2e37 89c0
00000570: 72d8 fab6 a824 89c0 f88e 4469 8a25 89c0
00000580: a4b7 2f48 721f 89c0 b81c d4a2 e82e 89c0
00000590: 4162 ee31 b025 89c0 c115 ee2c 2d27 89c0
000005a0: cd9a 64fb 8730 89c0 146f 7dd4 1f29 89c0
000005b0: 4553 a6a5 5134 89c0 1ff1 32bd 9623 89c0
000005c0: b057 648a 4723 89c0 d73e 7382 051f 89c0
000005d0: 4df1 e8a2 9a25 89c0 cfeb 40ec 9734 89c0
000005e0: dc54 cab8 a138 89c0 cba9 7427 6417 89c0
000005f0: e4f7 34f5 081f 89c0 d2cb 44e7 a81c 89c0
00000600: 4e27 834a 7a2a 89c0 e03b 7d69 6e1f 89c0
00000610: 1cbf b6f8 1f1c 89c0 5a0b d8af 641f 89c0
00000620: ebc5 2711 2a1a 89c0 da8f 2677 eb23 89c0
00000630: 2423 d89c 1c24 89c0 6fda 3834 7026 89c0
00000640: d6f2 e237 1a14 89c0 ddd3 003d 8510 89c0
00000650: ffd0 5991 eb19 89c0 17e2 a81c c72d 89c0
00000660: ae22 0c54 2a35 89c0 2cf4 62d7 0548 89c0
00000670: 51b5 88c3 f945 89c0 2c1c aaca 223d 89c0
00000680: cfb9 1e72 d22b 89c0 17dd b5d4 1025 89c0
00000690: 8326 f6b8 d836 89c0 aebe c409 d722 89c0
000006a0: d3b1 7ecb ab28 89c0 7a14 3be8 172d 89c0
000006b0: c5fd f8ee 7333 89c0 bcab 5a70 ed1b 89c0
000006c0: 7803 3241 6427 89c0 2107 1f7c 1529 89c0
000006d0: 06a2 f9a4 8a30 89c0 de03 ded2 4138 89c0
000006e0: c239 7a5a e54b 89c0 6176 d54d 8c4d 89c0
000006f0: d278 a119 3c63 89c0 4b5a cedb d85f 89c0
00000700: b2d4 07b1 675a 89c0 3c92 4c2c b955 89c0
00000710: e006 6ad8 3755 89c0 a114 61f5 3e4b 89c0
00000720: b625 a1fd 4f46 89c0 7e0a 2b5c 5032 89c0
00000730: 2ff3 3c6e df2b 89c0 575f 0aea 223d 89c0
00000740: 3b38 d8f1 482f 89c0 28e2 8d38 2b38 89c0
00000750: 0199 4f39 8847 89c0 3059 92d0 9250 89c0
00000760: 18ab 2e3b 6a48 89c0 6689 b86f d940 89c0
00000770: 744b 3b48 932e 89c0 da5d 5628 602b 89c0
00000780: 4d1e 9b30 842f 89c0 0fba afe9 3734 89c0
00000790: 2fca 76cb f833 89c0 c996 73f9 e234 89c0
000007a0: b2ca 9da1 d82c 89c0 4b7b 4091 731e 89c0
000007b0: b9c2 9f33 9e21 89c0 f588 5bc5 7c24 89c0
000007c0: 581f 3a1a 9127 89c0 79bb d14a c528 89c0
000007d0: 77fa ed80 f225 89c0 5c9a f860 013a 89c0
000007e0: 8ae9 7eaa 0e30 89c0 ca78 c135 c72b 89c0
000007f0: 9b80 5115 9d2e 89c0 9d60 6761 ac31 89c0
-817.1071376325477 -809.5370108373617 -809.3344033382687 -807.4970336202921 -807.840031368281 -806.410507379194 -804.9438056541544 -804.6773170862791
-804.6699201487562 -802.9623493436427 -802.7774209537249 -804.5024285252683 -804.3018350002772 -805.4795792605926 -803.0695125265107 -803.1776113146552
-803.16832695455 -803.5322734409621 -802.3786937775162 -804.321375755614 -805.6454185296384 -808.0656142964907 -808.5728107639541 -809.0202347730827
-805.8169963444403 -804.6794022560434 -804.0305363185624 -805.5263876495641 -805.0003980592911 -803.8974548639866 -803.9764445046848 -802.8292934694833
-804.2351028305471 -805.6959708038108 -805.7310637341707 -807.9506018620693 -805.870575330969 -803.4479624333331 -803.3582873471255 -803.9716467742644
-804.0313285660117 -802.8941659745079 -803.7614907958972 -805.493136212313 -805.7291359546191 -804.5932761517723 -804.5750695448381 -804.5256506268419
-804.7935897959421 -806.5705265265875 -806.2068816661771 -805.1812965390089 -806.4217308397023 -806.785158320533 -806.0245920788766 -806.8026108317785
-805.6856975087811 -809.5824780758729 -808.0728905097949 -809.0778321241293 -809.2546265467946 -810.5122476785757 -807.4278524708725 -806.9077441753296
-806.5890820070443 -805.2882465263143 -806.0087063372555 -806.3633994663102 -808.0854536960223 -808.7374449681602 -808.7790576295972 -807.6682177620801
-808.7407509637869 -806.4016906086224 -804.014296302451 -806.8085072877228 -804.9066591619784 -805.0031956010884 -805.0878235660157 -805.0155181179651
-807.0108543238634 -805.833133387216 -807.6903219739542 -808.0063523643123 -807.749868044617 -806.2819092669766 -807.9048299079799 -805.479324905865
-806.1758277911257 -804.5335368854372 -805.5571820944382 -804.8120779869564 -804.6249213780704 -803.6435779548281 -804.3268638604702 -804.5729503586927
-802.217775415767 -802.6547429330403 -803.5227443011916 -804.8462479537934 -804.6610381402664 -807.0761924747578 -805.2803667841632 -807.3352291863409
-808.2488569382006 -806.287631950784 -804.3820313131368 -804.5095469924908 -804.6550992734076 -804.251384299185 -804.5669096763313 -804.4387109828119
-803.8730361414042 -803.9787856695361 -803.7965870031354 -803.014177938167 -805.5647374853992 -809.4019641455877 -808.929361529183 -806.8137079677784
-804.8996486817013 -802.6390318255995 -803.017732585487 -805.471294217689 -804.9127643121969 -805.3840321509721 -806.4458507222683 -805.2979626273221
-805.8172879155537 -807.8696137687067 -810.5838487685213 -810.3761960874191 -813.7912288174075 -811.2523617170465 -808.3675472876289 -809.2812766579531
-809.645839643495 -810.3794019464001 -810.4698812116831 -809.1510914116808 -808.8905815935045 -807.5403241581979 -807.3214145712158 -807.1741726634535
-806.5077556932143 -809.3509202773106 -807.8932259114158 -807.3518754973672 -807.3522972463439 -806.9201347639863 -806.5070860024584 -804.2447882665566
-803.6759773298006 -803.6353918377977 -803.5934671123184 -803.7084774518382 -805.4675562672222 -807.3716387649542 -808.0180784573829 -805.0499827638293
-805.3232110164988 -804.5552036841015 -805.2992475843292 -804.8715095072992 -804.3531453652608 -803.0602858148561 -803.1157033465375 -803.1673639526565
-802.6710825742233 -802.9527123539499 -802.901482008614 -804.7007424011741 -805.441451833374 -806.8979332784794 -804.5823802563957 -804.6925835949069
-803.9308017471235 -805.8635918208374 -804.7110327361808 -804.8970583534611 -806.0663974628202 -805.1405420112155 -806.5398667329943 -804.4486030559382
-804.4099319304714 -803.8776902202179 -804.700506038536 -806.5741810867274 -807.0789657408855 -802.9239033808057 -803.8793739450598 -803.5824723601056
-805.3097124334688 -803.9289121421716 -803.5156111027786 -803.9241635206665 -803.2705405337596 -804.489973355546 -804.5139710317349 -804.8047871057187
-802.5128019075735 -802.0650577606826 -803.240023328486 -805.7222226327893 -806.6456681202014 -809.0028522234693 -808.7469549827894 -807.6419881143424
-805.4777567291693 -804.6332182128998 -806.8558215361121 -804.354999100751 -805.083884229471 -805.636673413813 -806.4316081478543 -803.4909369548473
-804.9239524752911 -805.135490648656 -806.0676974775859 -807.0321404786043 -809.4869889782788 -809.6935078312637 -812.4043457617756 -811.9808879967981
-811.3006306278023 -810.71541652509 -810.6522682460163 -809.4057414612217 -808.7890579785951 -806.2892382967545 -805.484096981212 -807.6420479593606
-805.9106175319824 -807.0211039623873 -808.9415155619209 -810.0716868813961 -809.0518706937755 -808.1061701218539 -805.8219151146318 -805.4219519374267
-805.9395458334562 -806.5273011902481 -806.4964818268253 -806.6108273535148 -805.6057770087702 -803.8064293897272 -804.2022469025898 -804.5609233046695
-804.9458508053604 -805.0963341126763 -804.7434099762021 -807.2506732389552 -806.0071611323376 -805.472270499705 -805.8267008178112 -806.209170158039
